PeMS/spdn_pems07212864.pth (torch, 405137 bytes, 62 tensors)

weight f4 [128, 7, 1, 1]
000000 70 cf b7 be da 10 dc bd 9d bc 2f 3d 68 a2 5d be
       -0.3590045 -0.10745402 0.042904485 -0.21643984
000010 56 f1 b8 3e 8a 13 cc 3d f1 aa bc bc e8 1c af 3e
       0.36121625 0.09964664 -0.02303073 0.3420174
000020 85 ca 1f be 9e ed 9f be d2 19 85 3e 66 ec 87 3d
       -0.15604599 -0.31235975 0.25996262 0.06636886
000030 18 64 b2 be 45 88 89 3e dc ae 5a 3e cb 6c c4 3c
       -0.3484199 0.26861778 0.21355766 0.023977658
000040 2f 06 99 3e 1b cf a7 3c fe 9e f5 3d 5b 2f 9e be
       0.2988753 0.020484498 0.11993216 -0.30895504
000050 9c c9 48 bc 7b 81 bc 3c ba ce 6a 3e fd 30 9a bd
       -0.012255099 0.02301096 0.22930422 -0.07528875
000060 82 33 83 3d 1c da bd bd 5c d3 bf bd 2a bb c6 bd
       0.06406309 -0.09270117 -0.093664855 -0.097036675
000070 03 09 13 bd 05 b3 be 3e e1 f4 1d be bb ed 1f be
       -0.035897266 0.37245956 -0.15425445 -0.1561803
000080 43 f8 a6 bd 5b 13 dc bc 96 e7 74 3c 4d 8d c1 3d
       -0.08152821 -0.026864698 0.0149477925 0.09450779
000090 16 3a 03 bb 22 3f c5 be 86 01 10 3e a6 f9 0d be
       -0.0020023636 -0.3852473 0.14063081 -0.13864765
0000a0 9e 1d 5b bd 87 12 3c 3e f3 42 a3 3e 71 46 8c bc
       -0.053495042 0.18366443 0.31887016 -0.017123433
0000b0 af 7f 10 be aa 20 f6 bd a1 e9 2f be 87 98 8c 3e
       -0.14111207 -0.12017949 -0.17178966 0.2746012
0000c0 06 02 59 be 1c 6a 8e 3e f8 a8 b9 3c b8 14 9f bd
       -0.21192178 0.2781533 0.022663578 -0.07767624
0000d0 df a1 88 be 2d 3b 8d 3e 59 2d 2b bd c8 0e 2d be
       -0.26685998 0.2758421 -0.041791294 -0.1690017
0000e0 1a b9 38 3e 91 5d 58 3e 13 08 43 3e e3 ee d0 bd
       0.1803936 0.21129443 0.19046049 -0.10201814
0000f0 b1 9e 49 be 81 43 3b be 57 f6 48 3d 6d 08 94 be
       -0.19689442 -0.1828747 0.049063053 -0.28912678
000100 78 f5 90 be 77 9f 3f 3e a0 a4 99 3e 68 c0 32 3d
       -0.28312278 0.18713175 0.3000841 0.043640524
000110 1c b2 60 be 10 2e 93 3e 6e 95 8b be eb 08 93 bd
       -0.21942943 0.2874608 -0.27262443 -0.07179435
000120 ad 25 da bc e1 4b a7 3e ce 89 6d 3e d4 81 8c be
       -0.026629293 0.3267508 0.231971 -0.274428
000130 e5 5f d6 3d c3 1b f9 bd 4f f6 3f 3e 96 a4 e7 3d
       0.10467509 -0.12163498 0.18746303 0.11310689
000140 af df 8d 3e 5b dd 4a ba 78 13 ec 3d f5 c9 df 3b
       0.2770972 -0.0007738673 0.11527151 0.006829495
000150 6a f1 81 3e d0 a3 19 be 53 b2 40 be 75 3f 02 be
       0.25379497 -0.15003896 -0.18818025 -0.1271952
000160 97 01 00 3e e7 4c cd 3d 62 3e 82 3d ae e4 13 3e
       0.12500606 0.100244336 0.06359555 0.14442703
000170 55 26 be 3d c0 a7 94 be 07 08 e3 bd a2 26 80 3e
       0.09284655 -0.29034233 -0.110855155 0.25029474
000180 d7 8d 60 3e 3f a6 8d bd ec ab 80 bd c4 f7 4d 3e
       0.21929108 -0.069164746 -0.062827915 0.20114046
000190 b1 36 53 bd 08 51 81 be 12 16 8d be de 1c 91 bd
       -0.05156583 -0.25257134 -0.275559 -0.07085584
0001a0 d8 00 c8 3d f1 6e a2 be 92 c1 5f 3d 27 0c 91 3e
       0.09765786 -0.31725267 0.054627962 0.28329584
0001b0 63 84 a0 be 69 8b 28 3e 43 ff 10 be e0 26 6b be
       -0.31351003 0.16459431 -0.14159875 -0.22964048
0001c0 49 65 6c 3d 3e 47 72 be 16 da d6 bd 43 9d 6f be
       0.05771378 -0.23659989 -0.10490815 -0.23399834
0001d0 8d 41 b2 3d 65 e6 9b 3e 38 e3 ab 3e 62 32 8a 3d
       0.08703909 0.30449215 0.33571792 0.06747891
0001e0 7b 54 a1 bd f6 2e 03 be b0 95 32 be cc ef bb bd
       -0.078774415 -0.12810883 -0.17439914 -0.09176597
0001f0 bb 55 18 be 0c ce 8c 3d 2e 86 3a 3b 94 6e a1 bd
       -0.14876454 0.06875238 0.0028461325 -0.07882419
000200 59 6f d8 3d 1c 84 c4 bd d0 e1 65 3d 46 9d c9 3d
       0.10568113 -0.0959551 0.056123555 0.09844451
000210 af 35 6f bd 21 f2 33 be 52 33 1e be 40 15 02 3e
       -0.058400806 -0.17572834 -0.15449265 0.12703419
000220 97 c4 30 3e 40 32 ab bd 12 9e 0e 3e 3f 49 44 be
       0.17262493 -0.08359194 0.13927487 -0.19168566
000230 2f 02 14 3e aa 2f 51 be 3b a8 e0 3d f8 96 81 3d
       0.14453958 -0.20428339 0.109695874 0.06327623
000240 5a 17 b5 bd c0 4d 5e be bb 81 a5 3e 49 e4 f8 bd
       -0.088423446 -0.21709347 0.3232554 -0.12152917
000250 12 0f f8 3d 86 92 34 3d 55 67 00 3e 1f ce e2 bc
       0.121122494 0.04408505 0.12539418 -0.027686177
000260 bd a9 a2 bd 62 3c 22 3e 59 24 a8 be e5 08 32 3e
       -0.07942531 0.15843347 -0.3284023 0.17386205
000270 c5 bd aa bd e3 59 f8 3d 35 a0 35 3e 0b bc 93 3c
       -0.08336977 0.121265195 0.17736895 0.018034002
000280 f2 0b ba 3d 2e 50 e4 3e 0f ab e7 3d 03 b9 6e be
       0.0908431 0.44592422 0.11311924 -0.23312764
000290 7d 5d 0b be 4f 9f 10 3d ed 7f 9b bd 89 f3 ae 3d
       -0.13609882 0.03530818 -0.07592759 0.085425444
0002a0 0c 9a c3 bd d9 ed 69 be 39 40 00 be f5 2d 8a 3e
       -0.095508665 -0.22844638 -0.12524499 0.26988187
0002b0 77 ce 9a 3b f4 77 f6 3e ed 75 4e 3d 52 22 ec 3d
       0.0047243196 0.48138392 0.05040543 0.115299836
0002c0 15 03 5c bd 69 d4 90 be 49 d8 47 bd cb 2b ad 3e
       -0.053713877 -0.28287056 -0.04879025 0.33822474
0002d0 5b 9d 0a 3e 9a cd 8a be fc 44 f5 bc 04 f4 3a be
       0.13536589 -0.27109987 -0.02994012 -0.18257147
0002e0 5b aa 1e be c7 5b 80 3d a8 66 2e 3d 87 0f 7e 3d
       -0.15494673 0.06267505 0.04257837 0.062026527
0002f0 fd 8d 7d bd 1f fa 21 be 67 2c 20 bd 2e 29 92 3e
       -0.06190299 -0.1581807 -0.039104845 0.28547043
000300 04 81 88 3e 57 77 7e be e5 72 db 3d a0 4f 44 3e
       0.2666093 -0.24850212 0.10715274 0.19171
000310 46 b9 af be b0 eb 62 be 83 54 aa 3e a8 0f 97 be
       -0.3432104 -0.2216022 0.33267602 -0.29504132
000320 66 4b e1 3d 06 be e6 3d 58 8c e5 3d b9 95 a1 3e
       0.11000709 0.11266713 0.11208409 0.31559542
000330 4c 5a a0 be 78 a0 27 be f7 bd d7 3d c2 b7 c5 3e
       -0.3131889 -0.16369808 0.1053428 0.3861676
000340 d5 97 ed bd 07 ce 5c 3d 6b f9 9f be 35 f1 6c 3e
       -0.11601225 0.05390742 -0.31244978 0.23138888
000350 4a c9 c7 3e 97 dc 79 be 03 6c 39 be 20 fe 8d 3e
       0.3902076 -0.24400555 -0.1810761 0.27732944
000360 8a fa 6d be d6 32 c0 3d 13 74 0c be a0 07 78 bd
       -0.23240104 0.09384696 -0.13716154 -0.060554147
000370 7c b4 18 be e7 1a 82 3e a1 a8 8a be 9b a9 5e 3e
       -0.149126 0.2541115 -0.2708178 0.21744387
000380 78 67 fc 3d 3a 3f cf 3d f4 56 8b 3d b2 b4 11 3d
       0.123244226 0.101194814 0.06803694 0.035572715
000390 11 c3 b4 bd b0 97 1b bd 86 a1 13 be 45 5c c2 be
       -0.088262685 -0.037986457 -0.14417085 -0.3796102
0003a0 28 e9 81 3e b7 a7 81 3e 15 0b 93 3e a4 64 21 be
       0.25373197 0.2532327 0.28719392 -0.15761048
0003b0 cf 09 91 be c5 9b 3b be 97 6e 0b bd f0 b0 ea 3c
       -0.28327796 -0.1832114 -0.034041014 0.028648823
0003c0 96 3a 3e 3e 7e 9e c7 3d bf f2 c7 be a6 14 13 bd
       0.18577036 0.09747027 -0.39052388 -0.035908364
0003d0 09 81 9e 3e f1 6a d2 bd 76 b9 38 be 89 52 94 3e
       0.3095782 -0.10274304 -0.18039498 0.2896922
0003e0 34 e6 41 be bb 30 5a be 99 af 48 3e cd c9 c2 3e
       -0.18935472 -0.21307652 0.19598235 0.38044587
0003f0 81 86 77 3e 0c de 84 be af df 2d 3e cf 3c b1 3d
       0.24172403 -0.25950658 0.1697986 0.086541764

bias f4 [128]
000000 0d bd 8b be 0d 6d 7b be d7 7e aa be c7 99 c8 bd
       -0.27292672 -0.24553318 -0.33299896 -0.09794956
000010 4b ed a8 be b3 72 3a 3e 6b 56 8d be e7 38 ab be
       -0.3299354 0.18207817 -0.27604994 -0.3344185
000020 6f 86 b5 3d d1 c8 d7 bd 0d 8f 15 3d d7 a4 d6 bd
       0.08863532 -0.105363496 0.036513377 -0.104806595
000030 f2 61 23 be c1 f4 02 be 95 41 32 3e 14 a9 cb 3d
       -0.15955332 -0.12788679 0.1740783 0.099443585
000040 d0 9e de bd 64 d2 0f 3e 8c 9d dc bc 6a 49 82 be
       -0.10870135 0.14045101 -0.026930593 -0.25446635
000050 48 23 c9 3d f6 2a 62 be 54 51 b4 be ff b4 d5 be
       0.098211825 -0.22086701 -0.35218298 -0.41739652
000060 dd 5f 0a 3d 89 0f fb bd 60 c6 dc 3d f3 2b f6 3d
       0.03378283 -0.122588225 0.107800245 0.120201014
000070 c2 19 bc 3c e9 f3 93 3e 15 31 3b be 5e c2 00 3d
       0.022961501 0.28897026 -0.18280442 0.031435363
000080 fc ac 15 be d9 ce 7f be 9a 3e 8b 3d 33 83 bb be
       -0.1461677 -0.2498125 0.0679905 -0.36623535
000090 67 c9 2f be 22 20 83 be 79 76 ae be d1 05 81 be
       -0.17166673 -0.25610453 -0.34074762 -0.2519975
0000a0 60 34 9b be e3 6f 45 bd 57 28 89 be 49 22 05 3d
       -0.30313396 -0.048202407 -0.2678859 0.0325034
0000b0 1d 69 b7 3d 8a b0 15 bd 55 f5 9c be 19 8b 80 be
       0.08955596 -0.036545314 -0.30655923 -0.25106123
0000c0 7a 64 f6 bd 20 22 f2 bd 66 22 0b bf c0 13 79 be
       -0.12030883 -0.11822915 -0.5434936 -0.2432394
0000d0 c2 44 22 be 4d 7f 6b 3e 57 7c f6 be 7e 74 99 bd
       -0.15846542 0.2299778 -0.4814174 -0.07492922
0000e0 30 0c b5 bd 34 53 a1 be f4 9d 30 3c f4 35 81 bc
       -0.08840215 -0.3150879 0.010779846 -0.015772797
0000f0 5d 5b 10 3d bf b0 6a be d6 62 b2 3e 25 fa 6c bd
       0.03524338 -0.22918986 0.3484103 -0.057855744
000100 3d d6 83 be 8b e0 14 be ec 4c 83 3d 36 1c e6 3d
       -0.25749388 -0.14538781 0.06411156 0.112358496
000110 d2 c8 59 be 63 ce 35 bd 17 48 62 3b 36 af 7b be
       -0.21268013 -0.04438628 0.0034527832 -0.24578556
000120 61 a7 f0 bd d4 37 10 bd 21 4e 9a bc ec 6f 1c be
       -0.11750675 -0.03520949 -0.018836083 -0.1527707
000130 09 32 42 be 64 40 90 3d 48 1e 4b bd ff bd 85 be
       -0.189644 0.070435315 -0.049589425 -0.26121518
000140 f7 93 fc 3d 19 aa 56 3e c4 fa 2a 3d 5f e3 5e be
       0.123329096 0.20963325 0.041743055 -0.21766423
000150 94 bf 80 be 41 65 a0 3e 78 ae ab be 0b d3 de bd
       -0.25146163 0.3132725 -0.33531547 -0.10880097
000160 ac 8a a9 be e3 19 0d 3e e7 09 10 3e ea b5 5d bd
       -0.3311361 0.13779406 0.14066277 -0.054128565
000170 04 df dc 3e d9 02 0e bf 07 7e aa bd 24 43 2c bd
       0.43138897 -0.55473095 -0.08324819 -0.042056218
000180 5a 08 f4 be 11 92 68 be 92 e1 87 bd 5b dd 60 bd
       -0.47662622 -0.2271197 -0.06634821 -0.0548986
000190 94 46 9a be d6 ba b9 be 5f 6e ed bd b2 ab 13 3e
       -0.30131972 -0.36275357 -0.11593317 0.14420965
0001a0 7c 6b e2 3a e4 75 1c 3e 47 7c 97 be 3f 58 c6 be
       0.0017274464 0.15279347 -0.29587004 -0.387392
0001b0 ab 2b 55 be a9 07 12 be 1c 4c d9 be ca 58 c2 bd
       -0.2081744 -0.14260735 -0.4244088 -0.094895914
0001c0 be 77 aa 3e b3 ce b5 be db 39 ef bc 08 28 91 bd
       0.3329448 -0.3550926 -0.029202392 -0.070877135
0001d0 b6 d8 86 3e 7c 27 60 3d 77 72 6c be 34 7e 9f 3e
       0.26337212 0.054725155 -0.2309054 0.31150973
0001e0 b8 70 3a 3d ae f7 a1 3d 27 1e db 3d 41 56 c8 3c
       0.045517653 0.07908569 0.106991105 0.024455192
0001f0 d2 9c 9e 3c d8 f0 fd 3c f8 19 18 be d4 c7 29 3e
       0.019361887 0.030998632 -0.14853656 0.16580135

weight f4 [4, 16]
000000 a1 b5 2f 3f e3 22 f2 3e 9c df 5b 3d 9a 4d 0c 3d
       0.6863652 0.4729224 0.053680047 0.034253694
000010 97 d6 eb 3b b0 07 d6 39 e2 58 55 b9 af da 87 ba
       0.007197212 0.00040822988 -0.00020346374 -0.0010364855
000020 77 6e c2 3d a8 38 de bf fb d1 1f be 05 28 04 be
       0.09493726 -1.736104 -0.15607445 -0.12905891
000030 27 9f e3 bd dd 1f ae bd 23 cd 0a ba 14 70 2a be
       -0.1111434 -0.08502171 -0.000529485 -0.16644317
000040 e4 57 79 be e8 8a 5e bf b5 e0 81 bd df a1 be 3e
       -0.24349934 -0.86930704 -0.063416876 0.37232873
000050 7f 4d d0 3d 19 d2 92 3c 53 3d 5e 3b 39 d9 75 39
       0.10171031 0.017922448 0.0033911064 0.00023445942
000060 21 89 9d 3e 46 19 9c bf 3d 4e e7 be a1 bc 0e be
       0.30768684 -1.2195213 -0.4517688 -0.13939144
000070 a2 d4 29 3d 39 c6 d9 bc 94 5e 22 3d c6 34 94 3d
       0.041462548 -0.026583778 0.039640978 0.07236628
000080 6f a8 c1 3d f3 79 81 bf bd 93 75 be eb 4e 80 bc
       0.09455954 -1.0115341 -0.23982139 -0.015662631
000090 4a b3 80 3d 21 e4 3f 3c 21 01 3a 3b 06 0f 73 3a
       0.06284197 0.011712105 0.002838202 0.0009271953
0000a0 fc 58 c8 3e 1f 9c 90 3f 08 d8 ad be 98 44 fd be
       0.3913039 1.1297644 -0.3395388 -0.49466395
0000b0 ac 31 c0 be ec 35 c2 be d4 8e 8f be 3d 70 da be
       -0.37537897 -0.37931764 -0.28038657 -0.42663756
0000c0 09 55 9f be 2d 68 cb be 77 66 60 3e 94 18 cb 3e
       -0.31119564 -0.39727917 0.21914087 0.3966719
0000d0 cd 23 a5 3d 96 ed 4d 3c 71 ed 27 3b 77 c3 e3 39
       0.08063469 0.012568852 0.0025623704 0.00043442447
0000e0 57 99 f7 3e bb 68 81 bf ec 6c 35 bc fc 19 0c 3e
       0.48359177 -1.0110086 -0.011073332 0.13681787
0000f0 5a 56 4a 3e 49 94 6d 3e 32 a0 8d 3e bc 84 8b 3e
       0.19759503 0.23201098 0.27661282 0.27249706

weight f4 [4, 16]
000000 d2 69 69 bf 81 88 98 bf 16 00 0a 3f 06 64 e9 3e
       -0.91177094 -1.1916658 0.5390638 0.45584124
000010 63 47 ed 3d 5a 36 aa 3c b4 7a ba 3b cf 8b 14 3b
       0.115858816 0.02077787 0.005690897 0.002266634
000020 0d af 15 3e 3d 2f 23 3f 69 3c 54 3e 93 a9 b5 be
       0.14617558 0.63743955 0.2072617 -0.35480937
000030 f8 fb 4e bc 7b 45 c3 ba ba 99 13 b9 ab 47 ef b8
       -0.012633316 -0.0014898026 -0.0001407628 -0.00011409757
000040 24 a6 c2 bd 84 af fc 3b f9 be ed 3e ce 19 bb 3e
       -0.09504345 0.007711353 0.46434763 0.36543125
000050 98 88 bb 3d ff dc 74 3c d5 fe 84 3b 1b 50 e2 3a
       0.091569126 0.014945268 0.0040586987 0.0017266305
000060 1f 87 b9 3e d4 c6 98 3f 41 c6 54 be a7 da 8c be
       0.36235902 1.1935678 -0.20778753 -0.27510568
000070 d3 58 0f bc 1a 1d f0 ba 84 31 3a ba 43 b6 34 ba
       -0.008749205 -0.001831922 -0.00071027153 -0.0006893614
000080 70 d8 24 be c4 9f be 3f eb cd 06 bf 1e 01 f2 3e
       -0.1609819 1.4892507 -0.52657956 0.47266477
000090 bd b1 bb 3d b2 36 7c 3c 19 59 97 3b 66 d3 08 3b
       0.0916476 0.0153939 0.0046187756 0.0020877956
0000a0 f6 f9 8a be db 9e 94 bd 33 9e f3 bd 7c d1 92 be
       -0.2714383 -0.07256862 -0.118954085 -0.2867545
0000b0 81 91 17 bc d8 c1 d6 ba 41 67 f6 b9 b5 d1 e7 b9
       -0.009250999 -0.0016384674 -0.00046997707 -0.00044215997
0000c0 a8 40 c9 3d f1 e7 a4 be 94 0e cc 3e 74 6a 24 be
       0.09826785 -0.32208207 0.39854872 -0.16056234
0000d0 6a 9e ee bc 28 a7 26 bc 46 b2 79 bb b0 9f 82 b9
       -0.029128272 -0.010171689 -0.0038100644 -0.0002491451
0000e0 ba 80 e7 3c be f7 7d 3f 7e b1 99 be bc 62 96 3d
       0.028259624 0.9920615 -0.30018228 0.07343051
0000f0 3d 10 e5 3b aa 7d 03 ba 8d f3 26 ba 79 e3 28 ba
       0.006990461 -0.0005015979 -0.00063686894 -0.00064425875

weight f4 [4, 16]
000000 68 8f 32 bb 9c de 9b be f2 40 63 be 0a 58 d1 3d
       -0.0027246121 -0.30443275 -0.22192743 0.1022187
000010 20 e1 6b bd 28 ca d9 3e 81 b8 59 bd df e2 cd bd
       -0.057587743 0.42537045 -0.053154472 -0.10053038
000020 2f b0 e2 3e fe 8d 8c 3e be d4 94 bf 67 84 0f 3e
       0.44275042 0.2745208 -1.1627424 0.14015351
000030 f3 7b a9 bd f6 ee 3d 3f dc 7b 00 bf 59 a1 ed bc
       -0.082755946 0.7419275 -0.50188994 -0.0290076
000040 4f f0 79 be 31 a6 cc 3e 26 5c d6 3f 58 13 e9 bd
       -0.24408077 0.39970544 1.6746871 -0.11380643
000050 55 f6 a7 3e 76 94 72 bf f4 a1 93 3d e2 82 33 be
       0.32805124 -0.94757783 0.072086245 -0.17530397
000060 0b ac a8 bd 6b 98 9d be 73 97 4f 3e 83 ac ca bd
       -0.082359396 -0.30780348 0.20272617 -0.09896185
000070 73 60 61 be 7b 94 9c 3e 16 2d a7 bd 83 55 44 be
       -0.22009449 0.30582032 -0.08162896 -0.19173245
000080 7c 17 f2 3d 53 4a 5a be 3a d7 4b bf ac 1e e8 bd
       0.118208855 -0.21317415 -0.79625285 -0.11333975
000090 db ff b7 3d 23 c8 d2 bd 30 a1 5d 3e b1 b0 91 be
       0.089843474 -0.10292079 0.2164352 -0.28455117
0000a0 ad 3b 38 3e 03 40 f9 3d 4c 33 c1 3f d0 fc 91 3d
       0.17991515 0.121704124 1.509378 0.07128298
0000b0 bb e2 4f be 70 47 7b 3f df 3e f4 bd cf 32 2a be
       -0.20301335 0.9815588 -0.11926054 -0.16620944
0000c0 a9 2a 90 be 0a 8d 24 be de eb 6d 3f bf 46 04 be
       -0.28157547 -0.16069427 0.9293803 -0.12917612
0000d0 d7 3e 35 bd ef 9f aa 3f e3 2a 0d be 9c 7f 63 3d
       -0.044249382 1.3330058 -0.13785891 0.05554162
0000e0 9d e1 80 3e af fb 8f bd 2f f1 2c 3f 9d 59 20 3e
       0.2517213 -0.07030427 0.67555517 0.15659185
0000f0 f1 f7 be 3d 73 32 dc 3d 91 24 81 3e cf 65 9a 3d
       0.09324635 0.1075181 0.2522321 0.0753895

weight f4 [4, 16]
000000 5b 47 29 3f bd 02 aa 3e de c0 6c be 07 f7 a2 be
       0.66124505 0.33205214 -0.23120448 -0.31829092
000010 80 04 8c 3e f1 4c c4 be 47 72 ce 3d a1 23 1c bf
       0.27347183 -0.38339952 0.100803904 -0.60991865
000020 78 ce c7 be 19 83 51 bf 1f d1 cb 3e 1c fb ae be
       -0.3902471 -0.81840664 0.39807984 -0.34175956
000030 c8 5c 99 be 82 7f 94 3e 2a 34 b4 3e 9f 82 e8 3e
       -0.299536 0.2900353 0.35196048 0.45412156
000040 0a c7 65 be 66 32 61 bf 58 d9 76 bf 1a 15 42 3e
       -0.22439209 -0.87967527 -0.9642539 0.18953362
000050 ab ea fa 3d 90 91 d1 bc 7e 31 ec 3e b2 c0 69 3e
       0.122517906 -0.025582105 0.4613151 0.22827414
000060 aa ee a2 3d 10 ab 91 bd 26 54 7e bf 0c bc 4b bb
       0.07955678 -0.07112706 -0.9934715 -0.0031087426
000070 62 f7 73 3d 91 04 9c bf 9b ac 9c 3b 8f b8 17 be
       0.059562095 -1.2188894 0.0047813184 -0.14816497
000080 a9 40 bf 3e db 15 a4 3d 78 e1 82 3f 7e cf 7e be
       0.3735402 0.08011981 1.0225058 -0.2488384
000090 44 af d7 bc 83 36 4c bf 5b 1a 97 bd c9 bd 56 be
       -0.02632869 -0.7977068 -0.07378074 -0.20970835
0000a0 69 a5 b0 3e 2c 49 8d 3f 7c 39 06 3e 0a b3 57 3e
       0.34501198 1.1037955 0.13107866 0.21064392
0000b0 b7 f8 81 be fe 15 62 bf 1b 23 a6 3e f7 77 13 be
       -0.25385067 -0.8831481 0.32448658 -0.14401232
0000c0 fd 4b 91 3e 85 bb de 3d f1 a4 2c 3f 8e 97 55 3e
       0.28378287 0.1087561 0.6743918 0.20858595
0000d0 af 25 6f bd 45 3f 19 bf f3 52 da 3e 94 c6 13 3f
       -0.058385547 -0.59862167 0.4264141 0.5772488
0000e0 d5 ae d9 be f6 76 ac be 8d 57 93 bf 22 f5 e1 bd
       -0.425162 -0.3368451 -1.1511093 -0.110330835
0000f0 dc 8c c5 3d b2 05 41 3e c3 00 0d bf d2 3a 99 be
       0.096460074 0.18849829 -0.5507929 -0.2992769

weight f4 [4, 16]
000000 b1 db d4 3e 64 72 64 bf a6 25 b1 3e 24 47 cb 3e
       0.4157386 -0.89237046 0.34599036 0.39702713
000010 92 02 89 3e 33 84 34 bf a7 b8 45 3e dc f2 97 3e
       0.26759773 -0.7051422 0.1930872 0.29677474
000020 46 54 06 3f 70 ed cd 3e 66 b3 31 3e e9 3d 01 bf
       0.5247234 0.40220213 0.17353591 -0.5048509
000030 8c 3c 55 bf ab fd f6 bd bf 5d c3 3e b9 2d bf 3e
       -0.8329551 -0.12060102 0.3815746 0.3733957
000040 d8 d5 3d bf 37 75 0e 3f 54 1c 71 3e 1e 9f 04 bf
       -0.74154425 0.55647606 0.23545963 -0.51805294
000050 61 40 bd 3b de 08 9f 3e e0 3e c0 3d 64 f2 52 be
       0.005775497 0.31061453 0.093869925 -0.20600277
000060 e5 e2 19 3f 2f 18 48 bf 95 38 08 be 9b d1 9c 3d
       0.6011184 -0.781619 -0.13302834 0.076571666
000070 6f 51 89 bd 6b 01 fe be 9e 34 ca 3d 9e a1 fe be
       -0.06704985 -0.49610457 0.09873317 -0.4973268
000080 d4 fd b2 3e 9e 3f c4 be dd 8e 06 bf 42 9f 43 3e
       0.3495928 -0.38329786 -0.5256174 0.19103721
000090 57 48 49 3f 1d 9d a3 3e 00 ae 97 3e 73 4e 88 3e
       0.78626007 0.31955805 0.2962494 0.26622352
0000a0 4e fa a8 be b4 e3 67 3f f8 38 91 be 91 02 96 bd
       -0.33003467 0.9058182 -0.28363776 -0.07324708
0000b0 da 58 17 3f 7e e9 35 3e bb e9 3a bd e8 de 15 3f
       0.5911995 0.17764851 -0.04563306 0.5854325
0000c0 23 ec 60 3e 73 ff dd 3e 1f e2 00 3d 28 31 ba 3e
       0.21965079 0.43358955 0.031465646 0.36365628
0000d0 50 a2 87 be 89 1f 8d 3e b0 84 24 be 08 33 22 be
       -0.26491022 0.27563122 -0.16066241 -0.1583978
0000e0 21 8a ea 3e c6 60 84 3e 87 0c 6b 3f 9d 04 35 3f
       0.4580851 0.25855082 0.9181599 0.70710164
0000f0 c2 61 e9 3e 82 10 c5 3e 86 4c 1c be 82 ea 19 bd
       0.45582396 0.38489157 -0.15263566 -0.03757716

weight f4 [4, 16]
000000 78 23 42 bf a0 d0 bd 3e 59 c3 4b be 5c 8f 0b 3e
       -0.7583537 0.3707323 -0.19898738 0.13628906
000010 ed d1 56 bf ed f0 9a be 25 39 63 3e b8 7c f3 be
       -0.8391407 -0.30261937 0.22189768 -0.4755609
000020 cb 96 ed be b8 4d 81 be 20 9a ec 3e f8 f6 95 be
       -0.46404108 -0.25254607 0.46211338 -0.29289985
000030 c8 75 30 bf 02 ee 50 3e fb 95 e3 be 3d 03 15 bf
       -0.6892972 0.20403293 -0.44450364 -0.58208066
000040 07 a1 7b 3f 22 fd 04 3d 8f a4 8d 3f 28 e3 d0 3c
       0.98292583 0.03246797 1.1065844 0.025498942
000050 ec ec 84 bc 78 22 c4 bd aa 56 ab be 33 03 31 3e
       -0.016226254 -0.09576887 -0.33464557 0.17286377
000060 f2 e9 95 be dc 68 28 3e 7e c0 a1 3c 5f 2c 80 3e
       -0.2928005 0.1644625 0.019745108 0.25033852
000070 ca ed 08 3e 9d 43 7f be 64 e4 69 be 9b 7a 9f 3e
       0.1337196 -0.24928136 -0.2284103 0.31148228
000080 34 c8 26 bf e7 ee 41 bf 92 46 0b bf 32 96 eb 3d
       -0.65149236 -0.7575516 -0.54404557 0.11503257
000090 5c d8 2c 3e a5 5f 00 be 9c d7 c9 3e 52 8c 45 be
       0.1687941 -0.12536485 0.3942231 -0.19291809
0000a0 08 3d cd 3d 3f 38 59 bf 4f d9 42 bf df 77 af be
       0.100214064 -0.8485145 -0.76112837 -0.34271142
0000b0 43 c8 29 be 66 0a 31 3d 25 6f a3 3e 8e a0 07 be
       -0.165803 0.043222807 0.31920734 -0.1324484
0000c0 70 b9 c7 bd 48 a6 01 bf 81 bc 0c bf 30 69 ea 3e
       -0.09752166 -0.5064435 -0.54975134 0.45783377
0000d0 6e 83 f9 3e 8b 9e fe 3e a6 32 84 be d9 7e 65 bc
       0.48733085 0.49730334 -0.25819892 -0.014007294
0000e0 a0 bd ed be 4c da 48 3e 3b 7f d6 3e 9b ec 4c 3f
       -0.46433735 0.19614524 0.41893944 0.8004853
0000f0 98 c7 99 3e 98 8b d6 bc 79 3d 29 3d 47 fc 27 3e
       0.3003509 -0.02618961 0.04131839 0.1640483

weight f4 [4, 16]
000000 6a fd b4 3e 99 95 c7 3d 04 ce ac 3c a3 a2 a9 3a
       0.3534959 0.0974533 0.02109433 0.0012942146
000010 95 39 c5 b9 a5 c3 92 b7 84 92 0d b5 eb 86 88 b2
       -0.0003761767 -1.749566e-05 -5.27398e-07 -1.5893837e-08
000020 d6 87 5c 3e 04 77 0d be 90 06 41 bd 6f 8b 29 bd
       0.21536192 -0.13814932 -0.0471254 -0.04139274
000030 8f 00 3f bd 26 4b 2f bd 12 02 b5 bc 25 af 39 bd
       -0.046631392 -0.042796277 -0.022095714 -0.045333046
000040 d7 aa ea be 0d 33 b3 bd 3b 95 ec bc f0 b1 26 bb
       -0.45833465 -0.087499715 -0.028879752 -0.002543565
000050 b3 ce d2 39 90 f2 93 37 a8 0a 0e 35 ee f5 88 32
       0.00040208324 1.7636718e-05 5.291463e-07 1.594432e-08
000060 3b 93 12 be 55 7f 28 3e 58 f6 3c 3d 11 fa a0 3c
       -0.14313976 0.16454823 0.04613337 0.019650491
000070 0e 58 3b 3d 7d 1f ee 3c 6c 8f 29 3d 64 e2 30 3d
       0.045738272 0.02906775 0.041396543 0.043184653
000080 a0 81 ef 3d 81 66 6a 3e 8a 63 9c 3c ad ff 8a ba
       0.11694646 0.22890665 0.019090433 -0.0010604762
000090 ad a3 8e b9 ab 23 9f b7 1a 4c 1b b5 8a ce 95 b2
       -0.000272063 -1.8970886e-05 -5.785274e-07 -1.7439806e-08
0000a0 12 ac d0 3e 9c 43 9c be f9 0a 9e bc 33 dc 16 bc
       0.4075628 -0.30520332 -0.019292342 -0.009207773
0000b0 97 85 1b bb a0 da 35 bc da 5d 2d bc a1 d5 db bc
       -0.0023730749 -0.011099488 -0.010581458 -0.026835265
0000c0 60 7b 03 be b6 d3 b7 be 7a 6b 07 bd 1f e8 cd 3a
       -0.12840033 -0.3590371 -0.033061482 0.0015709436
0000d0 a7 50 50 39 10 6f e0 37 84 4b 5e 35 df 7a d6 32
       0.00019866471 2.6754598e-05 8.2811334e-07 2.4968754e-08
0000e0 6b a5 22 bf 5d d8 01 3f 62 63 e8 bc bc 8c 3f bc
       -0.6353366 0.5072077 -0.028367702 -0.0116912685
0000f0 6d 76 4b 3b 01 88 20 bb d7 b7 2f bc 4c be 23 bd
       0.003104593 -0.0024495127 -0.010724983 -0.039976403

weight f4 [4, 16]
000000 c5 7f 92 be 79 e4 55 3d 42 1c bc 3c b6 51 0b 3b
       -0.28613105 0.05221984 0.022962693 0.002125842
000010 c0 74 0a b8 98 09 a9 35 ce 95 21 33 68 c7 9b 30
       -3.3010496e-05 1.2594273e-06 3.762198e-08 1.1334409e-09
000020 e8 a3 a8 be ad db 0b bd bd 6e 4b bb e0 67 77 ba
       -0.3293755 -0.034145046 -0.0031041347 -0.0009437781
000030 af b4 7a ba af b4 7a ba af b4 7a ba af b4 7a ba
       -0.0009563667 -0.0009563667 -0.0009563667 -0.0009563667
000040 8e 47 c9 3e 35 de b3 bd 9d a5 b3 bc a6 e4 e6 ba
       0.39312404 -0.08782617 -0.021929557 -0.001761575
000050 76 af 42 38 18 72 8b b4 6f ab 12 b2 33 d7 8d af
       4.6416615e-05 -2.5973782e-07 -8.537298e-09 -2.580066e-10
000060 e7 65 91 3e 94 66 53 3d bb 74 68 3b 22 39 a3 3a
       0.28398058 0.051611498 0.0035469967 0.001245294
000070 43 b7 a4 3a 43 b7 a4 3a 43 b7 a4 3a 43 b7 a4 3a
       0.0012566823 0.0012566823 0.0012566823 0.0012566823
000080 84 79 01 be 43 87 29 be ba 45 dd bb ed 51 cf ba
       -0.12644011 -0.16555505 -0.006752697 -0.0015817262
000090 a2 9a f8 38 1f 5a 98 35 25 10 06 33 6a ea 80 30
       0.00011854364 1.1351111e-06 3.121399e-08 9.37985e-10
0000a0 95 75 e8 be 57 c6 44 be e9 5f 94 3b 14 b9 88 ba
       -0.45402208 -0.19216286 0.004528035 -0.0010431134
0000b0 15 53 88 ba 15 53 88 ba 15 53 88 ba 15 53 88 ba
       -0.0010400737 -0.0010400737 -0.0010400737 -0.0010400737
0000c0 7b 69 06 3e 4d 71 8f 3e c8 09 9b 3c 96 0d 81 3b
       0.13126175 0.2801613 0.018925563 0.003938387
0000d0 23 ad 63 b9 1b 26 9a 34 bc 10 c7 32 ad 72 43 30
       -0.00021712905 2.871246e-07 2.3174259e-08 7.110355e-10
0000e0 89 1b 24 3f 4b 9b e6 3e 6b 88 ee bb 34 31 63 3a
       0.64104515 0.45040354 -0.007279446 0.00086666946
0000f0 0e bc 65 3a 0e bc 65 3a 0e bc 65 3a 0e bc 65 3a
       0.0008763679 0.0008763679 0.0008763679 0.0008763679

weight f4 [128, 1, 1, 1]
000000 a6 3a 13 3d f1 4b 25 bd b4 cb 3c bd 81 27 a3 3c
       0.035944603 -0.040355626 -0.046092704 0.019916298
000010 dd 8d 3e 3d 40 3a 34 3d 2b 57 2f 3d b5 a2 e4 3c
       0.04652201 0.044000864 0.04280774 0.027909616
000020 8c 9d 14 3d 87 b6 49 bd 84 0c f7 bc 72 8b 5f bd
       0.03628306 -0.049246337 -0.030157335 -0.054576345
000030 a1 3c 10 bd 85 e1 42 bd 68 0a 41 3d a1 ce 81 3d
       -0.03521407 -0.047578353 0.047129065 0.063382395
000040 7f 2c 2a bd de 77 3a 3d 18 b6 93 bc 12 37 1e 3d
       -0.04154634 0.04552447 -0.018031165 0.038626738
000050 e3 cd 66 bd c0 bd 0c bd cf 03 04 bd 48 3e 3a bd
       -0.056348693 -0.034360647 -0.032230195 -0.045469552
000060 60 17 2c bd 90 c2 32 3d aa ab 4c 3d 2b b1 3c bd
       -0.04201448 0.04364258 0.0499684 -0.046067398
000070 48 01 6e 3d 9b 1b 79 bd 0a 93 32 3d 5b ce 08 3d
       0.05810669 -0.060817342 0.04359726 0.03339992
000080 fa 7b cb bc 18 a3 64 3d 01 a8 4e bd 50 cd 21 bd
       -0.02483939 0.0558196 -0.05045319 -0.039502442
000090 77 a2 25 bd 82 eb f4 3c f6 9e 3e 3d 91 11 00 3d
       -0.04043814 0.029897455 0.046538316 0.031266753
0000a0 90 2d 32 3d ba eb 1a bd ec fc ef 3c d7 4c 50 3d
       0.043500483 -0.037822463 0.029295407 0.05085453
0000b0 2a 13 2e 3d e9 a6 ee 3c e4 87 28 3d 79 eb 03 3d
       0.042498745 0.029132323 0.04114522 0.032206986
0000c0 82 f7 37 bd b4 af 00 3d 38 5a 4d bd 20 7d 3b 3d
       -0.044913776 0.031417564 -0.050134867 0.045773625
0000d0 ac 3b 10 3d d7 dd 01 bd 47 8a 3b bd 97 a5 0b bd
       0.035213158 -0.031705704 -0.04578617 -0.034093466
0000e0 0f 1e e5 3c 3f 9d 4b 3d e6 1c 2a bd 53 bc 19 3d
       0.027968435 0.04971051 -0.041531466 0.037533116
0000f0 e0 e2 54 bd 74 83 50 3d 4e 20 0f 3d b8 17 01 3d
       -0.051974177 0.050906613 0.034942918 0.03151676
000100 07 2f 70 bd b4 2a d1 3c 53 1c 64 3d 5e 97 33 bd
       -0.0586386 0.025533058 0.055691075 -0.043845527
000110 6a d6 49 bd f6 b2 36 bd c7 47 4f 3d d5 bf 66 3d
       -0.049276747 -0.044604264 0.05060556 0.05633529
000120 12 2b 3b bd de 52 3e bd c2 fd 2a bd 7b 4a 03 3d
       -0.045695372 -0.046465747 -0.04174591 0.032053452
000130 a0 b0 22 bd b1 eb 22 bd 9a 83 db 3b f3 00 3a bd
       -0.039719224 -0.039775554 0.0066990377 -0.04541106
000140 74 43 26 3d 99 db 22 3d f1 ad 29 3d c3 05 13 bd
       0.040591672 0.039760206 0.04142565 -0.035894167
000150 72 98 5c 3d 66 4c 85 bd cc 2b 5b bd 5c 2c 47 3d
       0.05385632 -0.065087125 -0.053508565 0.04862629
000160 b6 1d 03 3d e9 e1 19 3d 0a 55 50 3d ab cb 7f bd
       0.032010756 0.03756896 0.05086235 -0.062450092
000170 a6 2e 93 bd fc 6c 2b bd a3 86 30 bd 3c 7c 62 bd
       -0.07186632 -0.041851982 -0.04309715 -0.05529426
000180 6d 15 44 3d fb 83 e8 bc 85 05 92 bc 1f f7 e2 3c
       0.047871996 -0.028383246 -0.017824898 0.027705727
000190 e0 ec f2 bc dd 76 e5 3c f9 18 e1 3c 7e a3 ac bd
       -0.029653966 0.02801078 0.027477728 -0.08429621
0001a0 d4 44 56 3d a6 d7 2c 3d a3 f9 34 3d 75 ff 95 bd
       0.052311733 0.042197846 0.044183385 -0.07324115
0001b0 0b 35 3f bd da a2 8f bd c1 3d a6 3d 6f 91 01 3d
       -0.046681445 -0.07013483 0.081172474 0.031632837
0001c0 40 e1 81 3d 3e bc 18 bd f0 2f 86 bd cc 14 20 3d
       0.06341791 -0.037288897 -0.06552112 0.039082333
0001d0 1d 9c 81 3d e2 be 27 3d 1a df 45 3d 2e 17 35 bd
       0.06328604 0.040953524 0.04830847 -0.04421156
0001e0 c7 0d 39 3d c7 fc 4d 3d 9d 2b 8a bd dc c1 fb 3c
       0.045179155 0.050289895 -0.067466 0.030732088
0001f0 19 e4 59 bd 38 41 18 bd d1 d6 ee bc 02 46 5e 3d
       -0.053196047 -0.037171572 -0.029155167 0.054265983

bias f4 [128]
000000 31 a1 c1 b9 05 73 12 b8 70 6e 9e 38 e4 56 fa b5
       -0.00036931926 -3.4916233e-05 7.554598e-05 -1.865174e-06
000010 a8 82 d3 37 04 a6 a1 b8 fa 81 89 38 e7 11 03 38
       2.5214002e-05 -7.708001e-05 6.556879e-05 3.1249507e-05
000020 ea 12 34 b8 dd c9 c7 37 02 92 22 38 88 20 24 38
       -4.293296e-05 2.3816649e-05 3.875979e-05 3.9130944e-05
000030 50 38 75 37 1d 0c c0 37 44 a6 22 b6 04 16 36 39
       1.4616249e-05 2.2893824e-05 -2.423666e-06 0.00017365074
000040 0c 4d 34 38 4f 52 bd 37 4c 54 d2 35 e5 a2 fe 37
       4.29871e-05 2.2568884e-05 1.5670753e-06 3.0355013e-05
000050 b4 c9 52 ba 0f a9 be b7 ba 69 b7 b6 f3 13 0c b9
       -0.00080409204 -2.2728489e-05 -5.466133e-06 -0.00013358872
000060 60 87 91 38 47 3f 07 b9 6c c5 19 39 b5 e5 14 b8
       6.939354e-05 -0.00012898176 0.00014664762 -3.549988e-05
000070 33 25 49 38 ef 91 fd b6 b2 b0 2f b8 88 ee bf 37
       4.795678e-05 -7.5569765e-06 -4.188781e-05 2.2880049e-05
000080 bd 9e 64 36 3d a2 29 b8 73 37 78 b9 64 60 5e 37
       3.4067045e-06 -4.0443836e-05 -0.0002367178 1.3254674e-05
000090 86 e4 9b b7 1a 18 52 36 32 e1 50 b8 f4 a8 93 36
       -1.8583854e-05 3.1306467e-06 -4.9800794e-05 4.40061e-06
0000a0 f9 d9 95 36 c4 f0 c4 b6 28 c2 a6 37 8b 3a 49 b7
       4.4659214e-06 -5.869284e-06 1.9879153e-05 -1.1994164e-05
0000b0 06 fc 53 36 ec 2e fc 36 aa 9b 03 37 30 cd 0f b7
       3.1588147e-06 7.5156477e-06 7.844452e-06 -8.571238e-06
0000c0 03 23 31 38 13 ba da b6 5b de 03 38 8a 19 3d b9
       4.2232696e-05 -6.518568e-06 3.143992e-05 -0.00018033959
0000d0 1d 15 28 b8 2a 8c ed 38 23 60 1d 37 dd 7f ba b7
       -4.0073985e-05 0.00011327148 9.380313e-06 -2.2232469e-05
0000e0 bc ff 37 b6 18 46 b8 39 3b 70 33 38 5e 9a 72 b7
       -2.7417982e-06 0.0003514744 4.278145e-05 -1.4460265e-05
0000f0 63 c8 fc b7 ba 3f d0 b7 90 f5 0b ba 2c 97 37 b7
       -3.0134053e-05 -2.4825207e-05 -0.0005339021 -1.0942847e-05
000100 89 36 c4 b8 b9 81 d1 b5 f3 07 10 b9 16 48 4c 39
       -9.356166e-05 -1.5609468e-06 -0.00013735871 0.0001948181
000110 48 d4 83 36 1b 4a 23 38 33 d1 00 38 71 c1 54 39
       3.928817e-06 3.8931244e-05 3.071241e-05 0.00020289958
000120 da 91 28 38 00 e5 a0 b5 df 3b 8b b9 56 03 81 37
       4.0190156e-05 -1.1987577e-06 -0.00026556753 1.5379552e-05
000130 0a 97 d1 b5 6c 76 24 38 a3 43 2c b3 03 07 3b 38
       -1.5615672e-06 3.9210936e-05 -4.0108386e-08 4.4590804e-05
000140 dc 86 e7 b6 be 61 a5 b7 5f b9 5e 39 ea 67 13 38
       -6.900036e-06 -1.9715048e-05 0.00021240626 3.514431e-05
000150 f2 a7 ce 36 55 ca 1f b8 73 0d d7 b7 58 11 41 39
       6.15883e-06 -3.809699e-05 -2.563626e-05 0.00018412375
000160 ec 48 71 39 7f 11 57 b8 12 82 d6 b8 da 8a 92 b8
       0.00023010717 -5.127629e-05 -0.00010228543 -6.9876856e-05
000170 ec de 5e b8 ae 94 a6 b8 33 d4 9a b7 f2 da b4 b7
       -5.3136537e-05 -7.9431906e-05 -1.8457044e-05 -2.1559626e-05
000180 b3 21 09 39 fc 35 de 36 83 da f6 36 a7 c7 1a 36
       0.00013077892 6.6224e-06 7.3568094e-06 2.3064001e-06
000190 7f 98 07 37 85 1b 7e 37 03 23 31 37 69 6e 6e b9
       8.082133e-06 1.5145987e-05 1.0558174e-05 -0.0002273858
0001a0 08 05 ea b7 73 cb 9a 39 78 a4 41 b9 d6 f4 ef b9
       -2.7897317e-05 0.0002952475 -0.00018467184 -0.0004576805
0001b0 15 a2 8c 37 39 0f 02 38 c6 99 d1 37 03 48 02 b8
       1.6764776e-05 3.1008592e-05 2.4986348e-05 -3.106148e-05
0001c0 55 d5 8d b8 02 81 85 37 e1 05 8c 37 61 ce 86 b8
       -6.76314e-05 1.591491e-05 1.6692038e-05 -6.428059e-05
0001d0 fd f7 02 3a 10 52 55 39 d6 59 9f b7 1b 00 bb 37
       0.00049960596 0.00020343834 -1.899611e-05 2.2292186e-05
0001e0 f3 49 35 38 f6 38 6b b7 44 d9 fb 38 ef ab fe 37
       4.3222633e-05 -1.4020354e-05 0.000120090815 3.0359222e-05
0001f0 e0 5e ac 38 b3 94 ce b7 82 f7 b4 b6 ac a8 e1 39
       8.219271e-05 -2.4626357e-05 -5.3932317e-06 0.00043041015

weight f4 [128]
000000 39 89 6a 3f 9f d6 34 3f 15 7e 5b 3f b2 8c 6e 3e
       0.91615635 0.70639986 0.8573926 0.23295859
000010 29 fd 3f 3f 1c 64 45 3f 4c 61 69 3f 63 e8 06 3f
       0.74995667 0.7710588 0.9116409 0.52698344
000020 38 c7 06 3f 20 f5 39 3f ac 1d 14 3f 0b dd 63 3f
       0.52647734 0.72639656 0.57857776 0.8900916
000030 ee 9b e6 3e 07 86 6a 3f d7 62 48 3f f3 15 62 3f
       0.4504084 0.9161076 0.7827582 0.8831474
000040 03 bd 22 3f 84 cc 51 3f 29 87 ee 3d 1a 78 22 3f
       0.6356966 0.8195269 0.116468735 0.6346451
000050 b8 65 88 3f 93 f0 2e 3f 7e 5e ed 3e 74 a2 5a 3f
       1.0656042 0.6833584 0.46361154 0.85404134
000060 9d 56 1b 3f ef 7b 42 3f b4 56 71 3f 81 34 40 3f
       0.60679036 0.7597036 0.94272923 0.75080115
000070 2e 47 5a 3f 74 40 62 3f 33 62 25 3f 80 14 24 3f
       0.8526486 0.883796 0.64602965 0.6409378
000080 51 1f 5a 3e d9 3e 40 3f 8e 3b 5a 3f 2c 82 e7 3e
       0.21301009 0.750959 0.85247123 0.452165
000090 f5 53 0f 3f 66 89 cf 3e bf 2c 4b 3f de 46 b6 3e
       0.55987483 0.40534514 0.7936515 0.35600942
0000a0 dc 59 29 3f c9 08 0c 3f 69 65 03 3f a1 49 79 3f
       0.6615274 0.54700905 0.51326615 0.97377974
0000b0 d8 dd 1a 3f ac da b9 3e 8d d0 68 3f f4 2e fe 3e
       0.60494757 0.36299646 0.90943223 0.49645197
0000c0 3c 5d 15 3f de 25 b2 3e 12 91 33 3f 2b 3b 54 3f
       0.5834539 0.34794515 0.70143235 0.82902783
0000d0 ad 4b 00 3f f9 95 05 3f 60 46 47 3f 9a c0 e4 3e
       0.5011547 0.52181965 0.7784176 0.44678193
0000e0 f0 8d 9d 3e 89 03 5e 3f 7c 6c 17 3f 51 10 10 3f
       0.30772352 0.86724144 0.5914991 0.56274897
0000f0 e7 86 4f 3f ae 11 3d 3f 0b 2f 6b 3f 26 dc db 3e
       0.8106522 0.738551 0.91868657 0.42941397
000100 b1 8c 50 3f 08 4c 68 3e c8 08 66 3f f7 44 42 3f
       0.8146468 0.22685254 0.8985715 0.7588648
000110 46 70 32 3f 04 77 47 3f 64 f0 57 3f 3e 82 6d 3f
       0.69702566 0.7791598 0.8435118 0.9277686
000120 9e 3a 56 3f c6 58 24 3f eb 10 70 3f ac f9 9f 3e
       0.8368319 0.6419796 0.93775815 0.31245172
000130 13 48 17 3f 85 f3 e2 3e 37 c9 3b 3b 6d ff 4c 3f
       0.5909435 0.44326416 0.002865387 0.8007725
000140 6c ee 26 3f ab c8 0f 3f 7e a1 63 3f 36 39 06 3f
       0.6520755 0.5616557 0.8891829 0.52431047
000150 9d f4 6d 3f 54 0f 74 3f 41 96 5e 3f 1e 4b 3b 3f
       0.92951375 0.9533589 0.8694802 0.73161495
000160 b6 35 4e 3f 42 4f 4c 3f ba 35 55 3f ab 12 70 3f
       0.80550706 0.7980844 0.83285105 0.93778485
000170 a9 65 74 3f e0 1e 20 3f a4 c5 ff 3e ee 95 7e 3f
       0.9546762 0.6254711 0.49955475 0.99447525
000180 21 86 5a 3f 4a b7 0f 3f 4e a7 58 3e 26 05 a3 3e
       0.85360914 0.5613905 0.21157572 0.31839865
000190 14 46 9a 3e 60 e2 21 3f 84 89 8f 3e 0c 38 80 3f
       0.3013159 0.63236046 0.28034604 1.0017104
0001a0 ea bd 79 3f 83 0a 59 3f 33 d0 83 3f 5f 25 76 3f
       0.9755541 0.84781665 1.0297912 0.96150774
0001b0 0b 95 10 3f 56 09 5e 3f 10 ad 85 3f 50 97 1b 3f
       0.5647742 0.86732996 1.044344 0.6077776
0001c0 3c 32 32 3f 90 98 0a 3f d0 f4 65 3f 14 c0 14 3f
       0.696079 0.5413904 0.8982668 0.5810559
0001d0 4c 36 86 3f f8 25 4a 3f fd 34 50 3f 48 00 26 3f
       1.048532 0.78964186 0.81330854 0.6484418
0001e0 dd 98 46 3f 4e 1c 50 3f d8 f1 80 3f 7c 14 2d 3f
       0.77577 0.8129319 1.0073805 0.6760938
0001f0 9c 87 6d 3f b8 0e 0b 3f a5 45 a9 3e a0 ad 73 3f
       0.9278505 0.54319334 0.33060947 0.95186806

bias f4 [128]
000000 a8 b5 ae bd a4 d9 93 bd 98 22 19 be 87 98 14 be
       -0.08530742 -0.07219246 -0.14954603 -0.1451131
000010 f5 c3 50 be a2 08 06 be d4 04 67 bd 0f cf 41 be
       -0.20387252 -0.1308923 -0.05640109 -0.18926643
000020 e1 04 1e 3c d8 8d 39 be ec 13 40 be 98 b2 db bc
       0.009644718 -0.18120515 -0.187576 -0.026818559
000030 96 bb 17 be 0a f6 1f be 09 5f 0c be 1f 44 72 bd
       -0.14817652 -0.156212 -0.13708128 -0.059146997
000040 49 f2 4e be bd 17 28 be f1 61 d4 bd 95 8c 14 bd
       -0.20209612 -0.16415305 -0.10370243 -0.036266882
000050 30 b0 66 3d 60 e1 69 be 22 1f 0d be e5 af 02 be
       0.05632037 -0.2283988 -0.13781407 -0.12762411
000060 36 b0 0f be 60 e3 ed bd d5 cd 23 be f2 47 ce 3c
       -0.14032063 -0.11615634 -0.15996487 0.02518079
000070 21 a0 86 ba a0 f6 e2 3b bf f0 dd bd 57 6c 3e be
       -0.0010271111 0.0069263726 -0.10836934 -0.18596016
000080 af 14 c1 bd 52 13 c5 bd b4 b2 6f bd 64 87 2d be
       -0.09427773 -0.09622826 -0.058520034 -0.16946179
000090 5a f1 f4 bd 69 80 f8 bd dc b7 d8 bd 0a 6e 0e bd
       -0.11960097 -0.12133867 -0.105819434 -0.03477291
0000a0 c7 dc a9 bd 9f 88 40 bd 7e c6 77 be 04 51 36 bd
       -0.08294063 -0.047005292 -0.24196813 -0.044510856
0000b0 62 71 19 be 88 57 0b be 6f 45 fc bd d2 b1 b6 bd
       -0.14984658 -0.1360761 -0.12317931 -0.08920635
0000c0 8c 5e c8 bd eb d1 86 bd 79 ee 68 be 56 25 85 bc
       -0.097836584 -0.065830074 -0.2274722 -0.016253155
0000d0 bf 79 8c 3c 2b 7d e3 bc d9 78 38 be a4 31 59 be
       0.017147897 -0.027769646 -0.1801485 -0.21210343
0000e0 de c4 13 be 6b 37 3b bd d1 f6 e6 bd b3 65 0c be
       -0.14430568 -0.045707148 -0.11277545 -0.1371067
0000f0 b1 70 12 bd cf 16 fb bd 75 57 00 3d a2 62 1e be
       -0.035752002 -0.1226021 0.031333406 -0.15467313
000100 7f b0 5c be e9 08 d2 bd 32 0a 19 be 87 28 47 be
       -0.21551703 -0.10255606 -0.14945295 -0.19449054
000110 55 b7 87 bd a2 87 17 be a5 5d 52 bd 33 74 79 bd
       -0.06626765 -0.14797834 -0.051358838 -0.06090183
000120 ed df 14 be e4 71 65 bd c7 59 90 bd 75 84 d6 bd
       -0.14538546 -0.056016818 -0.07048374 -0.10474483
000130 d2 f4 1b be 2e 89 ec bc 13 e9 cb bc 57 83 84 bd
       -0.1523011 -0.028874006 -0.024891412 -0.064703636
000140 37 ee a9 bd 37 e1 97 3c af a7 3e be c2 51 fa bd
       -0.08297389 0.018540008 -0.18618654 -0.12222625
000150 20 51 51 bd b1 70 c0 3b d6 7e 60 bd bb cf 31 be
       -0.051102757 0.005872809 -0.05480846 -0.17364399
000160 b3 09 db bd f3 4e 72 bd aa cd 16 3d 5d b5 6e bd
       -0.10695209 -0.059157323 0.03681723 -0.05827843
000170 e0 94 bf 3d 8d 3f 9f be e8 0a 0d be 49 6f bf 3b
       0.093545675 -0.31103173 -0.13773692 0.0058421236
000180 62 ca 93 be c3 2c 67 bd e6 f1 04 be 67 62 d3 bd
       -0.28865343 -0.056439172 -0.12982902 -0.10321503
000190 de d6 38 be 2b 5a 93 bd 4d 76 e5 bc f1 ac 38 3c
       -0.18050715 -0.071949326 -0.028010512 0.011271701
0001a0 a5 64 bd bd 76 5b 74 bd a2 92 41 be ca 5a f5 bd
       -0.09247712 -0.059657536 -0.18903592 -0.11980207
0001b0 7f 70 f7 bd d8 c6 18 be 32 bc f8 bd 6a 25 1f 3d
       -0.12082004 -0.14919603 -0.121452704 0.03885404
0001c0 f0 a2 72 3d fe d1 1a be 82 b8 c8 bd 23 06 8b bd
       0.05923742 -0.15119168 -0.09800817 -0.0678828
0001d0 38 6f 0b bb e4 09 78 bd 11 0e e5 bd 8a 4c 87 bb
       -0.0021276008 -0.060556307 -0.111843236 -0.004128997
0001e0 05 f1 e9 bd ea cf 04 be 8c 2b cd bd 23 d0 93 be
       -0.11422924 -0.12969938 -0.100180715 -0.28869733
0001f0 1b d4 7d bc 03 69 1c bd f7 e7 d4 bd f2 a2 88 3d
       -0.015492464 -0.038186084 -0.10395806 0.06671704

running_mean f4 [128]
000000 02 2c b3 b9 95 01 48 39 1d 03 53 39 19 4f cc b8
       -0.0003417433 0.00019074076 0.00020123688 -9.742211e-05
000010 b3 2a 39 b9 ed 91 f4 b8 a8 7d 36 b9 45 dc fe b8
       -0.00017658882 -0.000116620075 -0.00017403683 -0.00012152692
000020 9b c1 08 b9 32 f1 74 39 ee 81 20 39 40 0c 8a 39
       -0.00013042094 0.00023359506 0.00015307192 0.00026330538
000030 8d 6e 18 39 53 70 65 39 dd 4b 64 b9 ff 34 65 b9
       0.00014537033 0.00021880986 -0.00021772036 -0.00021858884
000040 fd 8e 37 39 b0 67 4b b9 88 1a 9a 38 74 fe 31 b9
       0.00017505507 -0.00019398215 7.348234e-05 -0.00016974827
000050 d9 a4 0b 39 e9 1b 15 39 fa 0a 0b 39 c3 40 89 39
       0.00013317484 0.00014220145 0.00013260162 0.00026178928
000060 e6 73 51 39 b5 6c 90 b9 91 18 65 b9 9e 2f 42 39
       0.00019974969 -0.00027546813 -0.00021848294 0.0001851902
000070 6b d1 8f b9 01 50 90 39 a3 45 36 b9 13 c4 ef b8
       -0.00027431114 0.00027525428 -0.00017382814 -0.0001143293
000080 00 32 da 38 2a a1 61 b9 e8 f0 da 38 39 df 32 39
       0.00010404363 -0.0002151771 0.00010439922 0.0001705856
000090 92 c7 2b 39 b5 6a 05 b9 f5 17 59 b9 4d cb 0c b9
       0.00016382177 -0.0001272362 -0.00020703657 -0.00013427176
0000a0 5a 17 44 b9 6a ce 1e 39 7e db ea b8 45 01 b9 b9
       -0.00018700716 0.0001514495 -0.00011198873 -0.00035286896
0000b0 11 b5 2c b9 a1 a4 01 b9 6f 1f d9 b8 dd 5a 1e b9
       -0.00016470651 -0.00012363728 -0.00010353221 -0.00015101903
0000c0 85 3a 64 39 03 bf 0c b9 4e ad 5e 39 77 15 b7 b9
       0.00021765575 -0.00013422598 0.00021236131 -0.00034920473
0000d0 80 03 19 b9 24 8c 03 39 ec a8 53 39 61 e8 0d 39
       -0.00014592521 0.0001254534 0.00020185456 0.00013533376
0000e0 f3 2d fa b8 b4 31 ef b8 8f 1e 40 39 94 ab 22 b9
       -0.00011929488 -0.00011405666 0.00018321931 -0.00015513442
0000f0 5c 11 1f 39 ca 74 59 b9 3e 2f 00 ba fe af 16 b9
       0.00015169889 -0.0002073824 -0.0004889852 -0.00014370677
000100 06 22 27 39 d6 d8 ef b8 14 90 c7 b8 c8 10 4b 39
       0.00015939036 -0.00011436797 -9.515896e-05 0.0001936584
000110 5f 64 76 39 5c d5 24 39 ad cc 5d b9 76 43 e1 b8
       0.0002349778 0.00015719741 -0.0002115245 -0.00010741402
000120 e7 2e 52 39 43 51 55 39 e2 63 84 39 e2 54 1a b9
       0.00020044633 0.00020343535 0.0002525142 -0.00014718206
000130 33 71 3d 39 2d 8c 4c 39 ab 00 82 b8 13 83 63 39
       0.00018066615 0.00019507176 -6.1990075e-05 0.00021697236
000140 35 5f 38 b9 14 e6 50 b9 1c 10 74 b9 02 7c 17 39
       -0.00017583075 -0.00019922137 -0.00023275655 0.00014446679
000150 5e 98 61 b9 c6 b9 80 39 11 8a 57 39 5a e2 b2 b8
       -0.00021514433 0.00024552474 0.00020555432 -8.529863e-05
000160 dc 23 3a b9 2a c9 75 b8 e4 da 86 b9 41 62 95 39
       -0.00017751701 -5.85999e-05 -0.00025721558 0.000284927
000170 f9 ed 97 39 b6 6d 22 39 b0 61 31 39 e4 d7 74 39
       0.00028978268 0.00015490394 0.00016916427 0.00023350079
000180 63 46 2c b9 d7 30 07 39 68 3f 9e 38 66 f4 03 b9
       -0.0001642942 0.00012892798 7.5458374e-05 -0.00012584179
000190 f0 1a f9 38 92 70 f8 b8 80 03 01 b9 aa 34 ff 39
       0.00011878263 -0.000118465294 -0.00012303703 0.00048676628
0001a0 25 8b e1 b8 b0 55 a4 b8 01 58 93 b9 63 01 05 39
       -0.00010754754 -7.83609e-05 -0.00028103593 0.00012684385
0001b0 dc 4c 51 39 eb 1c d6 39 7d de b9 b9 0e ca 08 b9
       0.00019960426 0.00040838806 -0.00035451716 -0.00013045242
0001c0 de 79 aa b9 ab 9b 0c 39 a1 f4 83 39 31 f3 32 b9
       -0.00032515725 0.00013409431 0.0002516853 -0.00017065999
0001d0 58 07 5d 39 10 85 38 b9 32 89 4b b9 07 76 20 39
       0.00021078938 -0.00017597177 -0.00019410698 0.00015302758
0001e0 b1 34 65 b9 ae 09 82 b9 c1 e8 bc 39 5a 04 00 b9
       -0.00021858771 -0.00024802744 0.0003603157 -0.00012208652
0001f0 d1 2e a6 39 13 95 27 39 91 97 18 39 43 93 89 b9
       0.00031696868 0.00015981896 0.00014552312 -0.00026240395

running_var f4 [128]
000000 3e b3 a5 3a 5d 1f d0 3a d9 79 09 3b 4c 8b db 39
       0.0012641919 0.0015878488 0.0020977168 0.0004187472
000010 42 b0 11 3b 12 ce f2 3a 03 3c f3 3a 23 da 52 3a
       0.0022230302 0.0018524549 0.0018557314 0.0008043369
000020 65 85 a1 3a 15 a0 1b 3b a4 9e 73 3a bb ad 44 3b
       0.001232308 0.002374654 0.00092933537 0.0030010778
000030 38 da a4 3a e2 39 16 3b f7 ab 10 3b 43 b2 84 3b
       0.0012577241 0.0022922684 0.0022075155 0.0040495708
000040 26 6c e7 3a 54 d6 09 3b c5 7a a5 39 04 c7 ca 3a
       0.0017656132 0.002103229 0.00031562723 0.0015470688
000050 84 cb 4d 3b 99 66 99 3a 74 85 87 3a 13 8e 06 3b
       0.0031401822 0.001170355 0.0010339455 0.002053146
000060 16 8d f7 3a 9f bf fa 3a 4b 1c 21 3b 5f 9d 0a 3b
       0.0018886651 0.0019130594 0.0024583514 0.002115093
000070 24 6c 66 3b cf 3a 79 3b 1b ef f7 3a 0d 5c 90 3a
       0.0035159672 0.0038029437 0.0018915863 0.0011013761
000080 7f 66 27 3a 16 c5 45 3b 95 ca 29 3b e8 97 c7 3a
       0.00063858175 0.0030177287 0.0025908102 0.0015227767
000090 88 bb d9 3a 82 1a 72 3a f5 e7 08 3b 7c dd 84 3a
       0.0016611675 0.00092355174 0.002089021 0.0010136808
0000a0 25 8d f7 3a d7 32 ba 3a c2 28 64 3a dd 27 2a 3b
       0.0018886669 0.0014205825 0.0008703583 0.0025963702
0000b0 26 7f df 3a c2 a2 5f 3a 91 ee d9 3a 32 f8 87 3a
       0.0017051443 0.00085310277 0.0016626884 0.0010373651
0000c0 10 a9 09 3b f9 a6 82 3a ce cf 25 3b db a5 0a 3b
       0.002100531 0.0009967975 0.0025300863 0.0021155986
0000d0 de 06 9a 3a 55 69 88 3a 15 e8 0c 3b f1 2c 97 3a
       0.0011751314 0.0010407368 0.0021500636 0.0011533779
0000e0 76 4b 4c 3a 4b a2 25 3b 8c b0 e5 3a 69 fd ad 3a
       0.0007793227 0.0025273736 0.0017523929 0.0013274375
0000f0 a6 0d 2e 3b f9 76 29 3b e2 db a4 3a 29 d0 81 3a
       0.0026558428 0.0025858267 0.0012577737 0.0009903956
000100 10 c3 65 3b cd 97 2c 3a 25 43 4c 3b df b0 f5 3a
       0.0035058893 0.00065838994 0.003116795 0.0018744728
000110 0c 68 24 3b 76 42 06 3b 4f 34 28 3b ce 1f 49 3b
       0.002508643 0.002048639 0.0025665944 0.0030689123
000120 e3 ae 08 3b fd 11 08 3b 74 6b e8 3a 54 87 8c 3a
       0.0020856194 0.0020762675 0.0017732219 0.0010721483
000130 5b f0 cd 3a af cc d6 3a be 86 94 38 3f 6b 08 3b
       0.001571189 0.0016387905 7.0822876e-05 0.0020815877
000140 b2 a1 d4 3a 04 18 ce 3a 48 ef e2 3a 40 65 9a 3a
       0.0016222505 0.001572371 0.0017313743 0.0011779442
000150 29 bc 3e 3b ef bf 8f 3b a6 9c 3e 3b 81 8d 18 3b
       0.0029103851 0.004386894 0.002908507 0.0023277702
000160 4b 7d 83 3a 9b 1e ba 3a ac cc 29 3b c6 59 82 3b
       0.0010031847 0.0014199795 0.0025909347 0.003977987
000170 6d 13 ac 3b 70 c3 e0 3a 0a 7e f2 3a 6d 5e 49 3b
       0.005251339 0.0017148089 0.0018500697 0.0030726448
000180 93 27 11 3b 56 53 51 3a 12 0e b6 39 54 8e 51 3a
       0.0022148832 0.00079851353 0.00034724228 0.0007993926
000190 8b 7f 62 3a 21 1c 4d 3a af 81 4c 3a cb 91 ed 3b
       0.0008640221 0.0007824321 0.0007801307 0.007250046
0001a0 ed 8c 33 3b d9 2a e8 3a c8 c9 02 3b 7b 3c b1 3b
       0.002739723 0.0017712965 0.0019956697 0.005408821
0001b0 86 7c 13 3b 50 7d a3 3b c8 cb da 3b df 7c 82 3a
       0.0022504642 0.0049893036 0.0066771246 0.0009955427
0001c0 ba 46 81 3b ba 2c b2 3a af 0c 8c 3b 2f d8 c6 3a
       0.003945199 0.0013593652 0.004273973 0.0015170629
0001d0 20 5d 81 3b 5b 4c de 3a dc 5b 22 3b ae 30 fe 3a
       0.003947869 0.0016960012 0.002477399 0.001939317
0001e0 3a e7 02 3b d0 3f 26 3b 6b 33 98 3b 5b aa 6e 3a
       0.0019974248 0.0025367625 0.0046448014 0.00091043644
0001f0 09 5a 35 3b 5a 11 b3 3a 14 d2 78 3a 9b f4 46 3b
       0.0027672073 0.0013661787 0.00094917533 0.0030358199
