PeMS/spdn_pems04212864.pth (torch, 405137 bytes, 62 tensors)

weight f4 [128, 7, 1, 1]
0	0x3e7825b2	0.2423313
1	0xbe318bc0	-0.17338467
2	0xbe274a80	-0.16337013
3	0xbdca65f8	-0.0988273
4	0xbe8d476e	-0.2759356
5	0xbda31d04	-0.07964519
6	0x3ea8f6fb	0.3300093
7	0x3db867a4	0.09004143
8	0x3e4edfbc	0.20202535
9	0x3e04c40a	0.12965408
10	0x3dbee025	0.09320096
11	0x3ceb421e	0.02871805
12	0x3d5bca47	0.053659704
13	0xbe6df4bf	-0.23237894
14	0xbe26513f	-0.1624193
15	0x3e945930	0.28974295
16	0xbea9ed1e	-0.3318872
17	0x3e8ff3b5	0.2811562
18	0x3e216842	0.15762427
19	0xbe5decc2	-0.21672347
20	0xbdcdca91	-0.10048402
21	0xbe96227c	-0.29323184
22	0x3d832cd1	0.064050324
23	0xbe8ca2cb	-0.2746795
24	0x3db2ffbc	0.08740184
25	0x3db8abe8	0.090171635
26	0x3e748546	0.23878965
27	0xbde7423c	-0.1129193
28	0x3e6a7cf3	0.22899227
29	0x3e440dfe	0.19145963
30	0xbe449edc	-0.19201225
31	0xbe8d5b00	-0.2760849
32	0xbe61e442	-0.2205973
33	0x3e856151	0.2605081
34	0xbe8f52bc	-0.2799281
35	0xbd8ceacb	-0.06880721
36	0x3e0ded7e	0.13860127
37	0xbe81ab84	-0.2532617
38	0x3e94af9f	0.29040238
39	0x3debc2cc	0.11511764
40	0xbe4135f2	-0.18868235
41	0x3e5049f2	0.20340708
42	0x3d64ae15	0.05583008
43	0xbcd7e2ff	-0.026353357
44	0xbe6856b8	-0.2268933
45	0x3eb567dd	0.35430804
46	0xbe4e04dd	-0.20119043
47	0x3eb1a37d	0.34695044
48	0xbd913e0d	-0.07091913
49	0x3dc59f63	0.09649541
50	0x3e86d65e	0.26335424
51	0xbe9c571c	-0.3053521
52	0xbdc6f3d9	-0.09714479
53	0x3e73e6cf	0.23818515
54	0x3e145942	0.14487174
55	0xbec95b7c	-0.3932761
56	0xbd6b1ec4	-0.057402387
57	0x3e175522	0.1477857
58	0xbe2c6c38	-0.16838157
59	0xbe097c6c	-0.1342637
60	0x3e247448	0.16059983
61	0x3e2eb02a	0.17059389
62	0xbc8d85ef	-0.017275779
63	0xbe32ff80	-0.17480278
64	0x3c5a62eb	0.013329248
65	0x3e577aae	0.21042892
66	0x3e13b793	0.14425497
67	0x3d5fa6b0	0.054602325
68	0x3df4e60f	0.11957943
69	0xbd7e36b7	-0.0620639
70	0xbeb9ed01	-0.36313632
71	0x3e82c2ae	0.25539154
72	0xbc5e5ff2	-0.01357268
73	0x3db0a5e1	0.08625389
74	0xbbac4bdd	-0.005258067
75	0xbde651e8	-0.11246091
76	0x3d4d475a	0.050116874
77	0xbe0bc1df	-0.13648175
78	0xbe82501a	-0.25451738
79	0x3ed3a378	0.41335654
80	0xbe660965	-0.22464521
81	0xbddbda1e	-0.10734962
82	0xbea35fbe	-0.31908983
83	0x3debef63	0.11520269
84	0xbe784ac1	-0.24247266
85	0x3be562e9	0.0070003164
86	0x3dc6bda7	0.09704142
87	0xbe814c79	-0.25253657
88	0x3dd2c938	0.10292286
89	0x3ce2b50c	0.02767422
90	0x3d81d9a1	0.063403375
91	0x3e13eb90	0.14445329
92	0xbe92dbba	-0.28683263
93	0x3e5ca7d2	0.21548393
94	0x3dbc090c	0.09181413
95	0xbe708e63	-0.23491816
96	0xbe6b215c	-0.22961944
97	0x3d082283	0.033236038
98	0x3eac7282	0.33681113
99	0xbea25ae7	-0.31709978
100	0xbe3b7ea8	-0.18310034
101	0x3e998e0e	0.29991192
102	0xbe62c5fd	-0.22145839
103	0xbeb0fc2f	-0.345674
104	0x3e66c75e	0.2253699
105	0x3dca858f	0.098887555
106	0x3d28210f	0.041047152
107	0xbe6f9212	-0.23395565
108	0xbc2da4f3	-0.010598409
109	0x3c1e7136	0.009670546
110	0x3d66c051	0.05633575
111	0xbe1d62b9	-0.15369691
112	0x3e7a268a	0.24428764
113	0xbe9372bd	-0.28798476
114	0x3c82f262	0.015984718
115	0xbea9ecc7	-0.3318846
116	0xbea47d44	-0.3212682
117	0x3e2de6aa	0.16982523
118	0x3e857246	0.26063746
119	0xbc0d654a	-0.008630106
120	0x3e3b66d8	0.1830095
121	0xbe042446	-0.12904462
122	0xbcca5586	-0.024698984
123	0x3df0e600	0.11762619
124	0x3e277fb8	0.16357315
125	0xbd7adeb2	-0.061247535
126	0x3d154d0f	0.036450442
127	0x3e6de71b	0.23232691
128	0x3e8b1461	0.27163985
129	0xbe15d3b0	-0.14631534
130	0xbe08c31a	-0.13355675
131	0xbea7c7fc	-0.32769763
132	0x3e7503ac	0.23927182
133	0xbd79aa92	-0.060953684
134	0xbdd6c114	-0.104860455
135	0xbe3f9b6c	-0.18711632
136	0x3e05c8a6	0.13064823
137	0xbe29bb70	-0.16575408
138	0x3e8a23f2	0.2698055
139	0xbe5e9edd	-0.21740289
140	0xbd7de49d	-0.0619856
141	0x3e4b515d	0.19855256
142	0x3daa3d99	0.0831253
143	0x3df684e2	0.12037064
144	0xbbc3d6e4	-0.0059765447
145	0xbdc4d109	-0.09610183
146	0x3e36338d	0.17793103
147	0x3e0e8e8a	0.13921562
148	0x3e724261	0.23658134
149	0xbdd2afc7	-0.10287433
150	0xba7c198f	-0.00096168456
151	0xbe61f3a2	-0.22065595
152	0xbe7c2a76	-0.24625573
153	0x3e9cf715	0.3065726
154	0xbdadc651	-0.084850915
155	0xbe80d501	-0.2516251
156	0xbe2123a1	-0.15736248
157	0x3e300ec3	0.17193131
158	0x3ec6f40d	0.3885807
159	0x3ec0db45	0.3766729
160	0xbe84959f	-0.25895402
161	0x3e195985	0.14975555
162	0xbe70459a	-0.23464051
163	0x3e399b78	0.18125713
164	0xbdef6046	-0.116882846
165	0xbe2172f5	-0.15766509
166	0xbb3c1d2c	-0.0028703911
167	0xbd74291a	-0.05960951
168	0xbeaa2d64	-0.33237755
169	0x3dca0508	0.09864241
170	0x3e4b834e	0.19874308
171	0x3e31a1d7	0.17346893
172	0x3e3de375	0.18543799
173	0x3dd3ba26	0.10338239
174	0x3da86d72	0.08224
175	0x3e2dee64	0.1698547
176	0xbe18872b	-0.14895312
177	0xbd850e8e	-0.06496917
178	0x3e5540ab	0.2082545
179	0xbd7d30da	-0.061814167
180	0xbcb1c8ac	-0.021702133
181	0x3d4d5830	0.05013293
182	0xbea429e2	-0.32063204
183	0x3d7355e4	0.059408084
184	0x3e9f5d6e	0.3112597
185	0xbe43b3ac	-0.19111508
186	0x3e956e9b	0.29185948
187	0x3cdea48b	0.02717807
188	0xbbe0a018	-0.006855022
189	0xbe18e3d5	-0.14930661
190	0x3eb1a6e8	0.34697652
191	0xbe78e33e	-0.24305436
192	0x3da6bc8f	0.081414334
193	0xbe43bdac	-0.19115323
194	0xbba9c47a	-0.0051808925
195	0x3e9a2228	0.30104184
196	0xbed4fd74	-0.4159962
197	0x3e20d8af	0.15707658
198	0x3d3a2b6a	0.04545156
199	0x3e4613fe	0.19343564
200	0x3e3b659f	0.18300484
201	0x3da4b1ae	0.08041702
202	0xbecdbe53	-0.40184268
203	0xbd3c7840	-0.046013117
204	0x3df018a0	0.11723447
205	0x3e4abb1f	0.19797944
206	0x3c7cd8ea	0.015432576
207	0x3e055350	0.13020062
208	0x3def0e6f	0.11672675
209	0xbe90f77a	-0.2831381
210	0x3e405222	0.18781331
211	0xbdcdf173	-0.100558184
212	0x3d92ed0f	0.071741216
213	0xbe90ec11	-0.28305104
214	0x3d973da7	0.07384806
215	0x3df4e2a6	0.11957292
216	0xbea07501	-0.31339267
217	0x3e899b78	0.26876426
218	0x3e94eda1	0.29087546
219	0x3e3edd1c	0.18639034
220	0xbe651bcd	-0.22373886
221	0x3e605e69	0.21911015
222	0xbe7c13de	-0.24616954
223	0xbe808c30	-0.25106955
224	0xbdd52406	-0.104072616
225	0xbe72aeba	-0.23699465
226	0x3e022725	0.12710245
227	0x3e6e1f75	0.23254187
228	0xbd30b940	-0.04314542
229	0x3dd02ac3	0.10164406
230	0x3db0bfa6	0.08630304
231	0xbcc0a167	-0.023514463
232	0xbec4baa5	-0.38423648
233	0x3e9487e6	0.29009932
234	0x3dfd9259	0.12381429
235	0xbd81caf1	-0.06337536
236	0x3e495ec8	0.19665062
237	0xbe81204e	-0.2521996
238	0xbdb729a1	-0.08943487
239	0x3df7f9fe	0.12108229
240	0xbd5debf9	-0.05418012
241	0xbd38e312	-0.045138426
242	0x3e49c303	0.19703297
243	0x3dba7fed	0.09106431
244	0x3d27dc70	0.04098171
245	0xbe173b36	-0.14768681
246	0x3e0a922f	0.13532327
247	0xbe3bfd22	-0.18358281
248	0x3e15152c	0.14558858
249	0x3d8f9e03	0.0701256
250	0x3ea2224e	0.31666797
251	0xbe5e0588	-0.21681798
252	0xbe7cc38f	-0.24683975
253	0x3df513fc	0.11966702
254	0x3eb60b3c	0.35555446
255	0xbd0200e4	-0.03173913

bias f4 [128]
0	0xbeaf8f31	-0.34288934
1	0x3e603e34	0.21898729
2	0xbed506e8	-0.41606832
3	0xbdfc5ae2	-0.12322022
4	0x3e815e50	0.25267267
5	0xbea37d5e	-0.31931585
6	0xbeb308b2	-0.34967571
7	0x3e595d9f	0.2122712
8	0x3e1c81ab	0.1528384
9	0xbd04c3d8	-0.032413334
10	0xbc572054	-0.013130266
11	0xbdc8f9df	-0.09813284
12	0x3e33af08	0.17547238
13	0xbea52c46	-0.3226034
14	0xbdb0967d	-0.08622453
15	0xbe9dc031	-0.30810693
16	0x3e45356d	0.19258662
17	0x3d9702d5	0.07373587
18	0x3e3242f3	0.17408352
19	0xbe910157	-0.28321335
20	0x3e689900	0.22714615
21	0x3e570eae	0.21001694
22	0xbe17486c	-0.1477372
23	0xbe9f5648	-0.31120515
24	0xbeb1cdb5	-0.34727255
25	0x3ccb7dc3	0.024840241
26	0xbe3b9bbf	-0.18321131
27	0xbd625a4e	-0.055261903
28	0xbecc3f37	-0.3989198
29	0xbe2f2fd2	-0.17108086
30	0x3e287fa4	0.16454941
31	0x3eadaca9	0.33920792
32	0xbeaab999	-0.33344725
33	0x3df2cd31	0.118555434
34	0xbe3ae32e	-0.18250725
35	0xbe525613	-0.20540647
36	0xbcc615fe	-0.024180409
37	0xbe91ada0	-0.28452778
38	0xbeef27a6	-0.46709937
39	0xbef66fb3	-0.48132095
40	0x3e8546c9	0.26030567
41	0xbeb81bf6	-0.35958833
42	0xbe57722e	-0.2103965
43	0xbe5ef4c9	-0.21773066
44	0x3e92bccc	0.28659666
45	0x3d5b1575	0.05348726
46	0x3e4bc38b	0.19898812
47	0x3e787209	0.24262251
48	0x3d01b33e	0.03166508
49	0x3d9a50ca	0.075349405
50	0x3e8ba4d7	0.272742
51	0xbe86db8a	-0.2633937
52	0xbd558579	-0.052129243
53	0xbed586cf	-0.41704413
54	0xbe5a5d77	-0.21324717
55	0xbe32eafc	-0.17472452
56	0xbdf8fdb9	-0.12157769
57	0xbeb34754	-0.35015357
58	0xbd7c7b50	-0.061641037
59	0x3d16394c	0.036675736
60	0x3ea366ed	0.31914464
61	0xbea808cf	-0.3281922
62	0x3c0e7e69	0.008697131
63	0x3d623196	0.05522307
64	0xbca8d6e5	-0.020610282
65	0xbe532de0	-0.20622969
66	0xbe8f254f	-0.27958152
67	0xbbadd2df	-0.005304679
68	0xbe4b5b11	-0.19858958
69	0xbd3a7cb6	-0.04552909
70	0xbe0abf13	-0.13549452
71	0xbda91b7d	-0.08257196
72	0xbd2f73a2	-0.042834885
73	0xbe06df0b	-0.13171022
74	0xbdf19f72	-0.1179799
75	0x3ea61cf8	0.32443976
76	0xbe7a1db5	-0.24425395
77	0x3d21d9c1	0.039514307
78	0x3e5fcfe6	0.2185665
79	0xbd964f1a	-0.07339306
80	0x3d6bfa23	0.057611596
81	0xbe19c7c4	-0.15017611
82	0xbe636274	-0.22205526
83	0x3e81e963	0.25373372
84	0xbd8d34dd	-0.068948485
85	0x3dd0955b	0.10184737
86	0xbea620aa	-0.32446796
87	0xbeecfc58	-0.46286273
88	0xbe2a01e4	-0.16602284
89	0xbc4cb932	-0.012495326
90	0xbd8e0d71	-0.069361575
91	0xbd25b527	-0.040455963
92	0x3e01909b	0.12652819
93	0xbda3228a	-0.07965572
94	0x3e180596	0.14845881
95	0x3e8387be	0.256895
96	0x3d729af0	0.05922979
97	0xbd9e6518	-0.07734126
98	0x3dd12a15	0.10213105
99	0x3e1f3ca3	0.15550475
100	0xbe0592bd	-0.13044257
101	0x3e2f6150	0.17126966
102	0xbbdc9d3e	-0.006732612
103	0xbc9dc0de	-0.019257005
104	0xbe954309	-0.29152706
105	0x3e5ff1b3	0.21869545
106	0xbeccfa8f	-0.4003491
107	0x3e7de74b	0.24795263
108	0xbe4c81fb	-0.19971459
109	0xbecf34da	-0.4047001
110	0xbea00590	-0.31254244
111	0xbd90bf11	-0.07067693
112	0x3dd74994	0.10512081
113	0xbe8531af	-0.26014468
114	0x3d3a1d12	0.04543788
115	0xbeb2564f	-0.34831473
116	0x3daca4c4	0.08429864
117	0xbe6bee5d	-0.23040147
118	0xbe8f5c94	-0.2800032
119	0xbdb958fd	-0.09050176
120	0xbe1d2918	-0.15347707
121	0xbe7f13ea	-0.2490994
122	0xbdb3b217	-0.08774202
123	0xbb87356c	-0.0041262414
124	0x3d3fb2fa	0.046801545
125	0xba862972	-0.001023574
126	0xbbbd7cf3	-0.0057827174
127	0xbe584b3e	-0.21122453

weight f4 [4, 16]
0	0xbebffa43	-0.37495622
1	0xbe30fba7	-0.17283498
2	0xbd643e2e	-0.05572336
3	0x3d771401	0.06032181
4	0xbca41868	-0.020031169
5	0xbefd1e78	-0.49437308
6	0xbdd5b2a2	-0.10434462
7	0xbe748364	-0.23878247
8	0x3e7d2e14	0.24724609
9	0x3f2e7774	0.6815102
10	0x3e146af7	0.14493929
11	0x3dcdc4af	0.1004728
12	0x3e6eec04	0.2333222
13	0x3ec8b517	0.3920066
14	0xbf292462	-0.6607114
15	0xbd16f5ef	-0.036855634
16	0xbecde501	-0.4021378
17	0xbec10e0c	-0.3770603
18	0x3eee2794	0.4651457
19	0x3e6787c5	0.22610386
20	0xbe127ffa	-0.14306632
21	0x3e1949b2	0.14969519
22	0xbec1f1ae	-0.378797
23	0xbdd01825	-0.10160855
24	0x3e66d74c	0.22543067
25	0x3eba2717	0.36357948
26	0x3dc74e0e	0.097316846
27	0x3d9e9e0d	0.077449895
28	0xbd4c1cba	-0.049832083
29	0x3f5bd86c	0.8587711
30	0x3d004e66	0.031324767
31	0x3dc46abf	0.09590673
32	0x3efac00c	0.48974645
33	0xbcdcfef0	-0.026977032
34	0xbe81a626	-0.25322074
35	0xbdf83b0f	-0.121206395
36	0xbc547e46	-0.012969559
37	0x3e00304e	0.12518427
38	0x3e933e5a	0.28758508
39	0x3df3998d	0.11894522
40	0xbee7d6d8	-0.452811
41	0xbec47e1d	-0.38377467
42	0xbd5822f1	-0.052767698
43	0xbe5a67e9	-0.21328701
44	0xbdddb716	-0.108259365
45	0xbf08ae9c	-0.5339143
46	0x3e6eaf91	0.23309161
47	0x3e58f8c4	0.21188647
48	0x3ef152df	0.47133538
49	0xbe447fff	-0.19189452
50	0xbdaa255b	-0.08307906
51	0x3ce57651	0.02801052
52	0xbe22bd98	-0.15892637
53	0x3e8657db	0.26238903
54	0x3e60fae7	0.21970712
55	0x3dac941e	0.084266886
56	0xbf45091e	-0.76967037
57	0xbe7acba4	-0.24491745
58	0x3dc3e5b5	0.095652975
59	0xbea8e3be	-0.32986253
60	0xbea00571	-0.3125415
61	0xbe5f6516	-0.21815905
62	0x3eb6490d	0.35602608
63	0x3edf8073	0.43652686

weight f4 [4, 16]
0	0x3ecf858e	0.40531582
1	0xbf025c2d	-0.509219
2	0x3d6697eb	0.056297224
3	0xbf0088e9	-0.5020891
4	0xbe800b06	-0.2500841
5	0x3eeaa25e	0.45827
6	0xbe95e86b	-0.29278883
7	0xbe441b19	-0.19150962
8	0x3e4440c2	0.19165328
9	0xbed25f95	-0.41088548
10	0x3cd63ede	0.026153024
11	0xbc8205fc	-0.015871994
12	0x3e51ea51	0.20499541
13	0x3e7b8e19	0.24565925
14	0xbeb358e7	-0.35028765
15	0x3e3c10d0	0.18365788
16	0x3ebfe8e5	0.37482372
17	0xbe8080ef	-0.2509837
18	0xbea044fd	-0.31302634
19	0xbdf2f13f	-0.1186242
20	0xbe93f6d2	-0.28899246
21	0x3e95d6a3	0.29265317
22	0xbed4ff96	-0.41601247
23	0xbe591dda	-0.21202794
24	0x3db9c07f	0.09069919
25	0xbe31af04	-0.1735192
26	0x3e26d6db	0.16292898
27	0x3ec7bf0e	0.3901295
28	0x3ef57b47	0.47945616
29	0xbf04f0d8	-0.5193
30	0xbe84eb9f	-0.25961015
31	0xbded0092	-0.115723744
32	0xbefca775	-0.4934651
33	0x3edb69d1	0.4285417
34	0x3e63e6e6	0.2225605
35	0x3e8fde64	0.28099358
36	0x3e73d4a2	0.23811582
37	0xbe85e1d5	-0.2614886
38	0x3e8efa5b	0.2792538
39	0x3de22d3a	0.110437825
40	0x3e0cb938	0.1374253
41	0x3e03edcc	0.12883681
42	0xbdb40c92	-0.0879146
43	0xbe4a7df1	-0.19774605
44	0xbed6cc2f	-0.41952655
45	0x3d216c14	0.039409712
46	0x3e6d4460	0.23170614
47	0xbe701149	-0.23444094
48	0xbef3d7cb	-0.47625574
49	0x3eec3b89	0.46139172
50	0x3e210a31	0.15726544
51	0x3eca56e6	0.39519423
52	0x3e360629	0.17775787
53	0xbe1e62ac	-0.15467328
54	0x3e15a141	0.14612295
55	0x3e271273	0.16315632
56	0x3ef3762e	0.475511
57	0x3e149931	0.14511563
58	0xbcdc5ca8	-0.02689965
59	0xbe1820a5	-0.14856203
60	0xbec736b6	-0.3890893
61	0xbea5afec	-0.3236078
62	0x3e13ec4b	0.14445607
63	0xbed3daa8	-0.4137776

weight f4 [4, 16]
0	0x3f66a20f	0.9009103
1	0x3deaaa99	0.1145832
2	0x3f1d5dcb	0.6147124
3	0xbebdd458	-0.37076068
4	0x3e5ef779	0.21774091
5	0xbe5e0a80	-0.21683693
6	0x3ecd229d	0.4006547
7	0xbda885c4	-0.08228639
8	0x3e75d6a9	0.24007668
9	0x3eea1786	0.45721072
10	0x3eac4fb8	0.3365457
11	0x3ec8fba2	0.3925448
12	0xbdbceeaa	-0.09225209
13	0x3e556fa2	0.20843366
14	0xbe9bb635	-0.3041245
15	0x3dfe345d	0.12412331
16	0x3f6c0e52	0.9220935
17	0xbe13018c	-0.14356059
18	0x3d64a8b8	0.055824965
19	0x3e8f35dd	0.27970782
20	0x3e115c92	0.14195469
21	0xbe58a9e8	-0.21158564
22	0x3e433007	0.1906129
23	0xbbd6f195	-0.0065595605
24	0x3f1234f3	0.57112044
25	0x3f0453a4	0.51690125
26	0x3ecf6075	0.40503278
27	0x3f0133e3	0.504698
28	0xbd5944a5	-0.05304398
29	0x3db66b45	0.08907179
30	0xbe20b3de	-0.15693614
31	0x3e871c51	0.2638879
32	0x3f626763	0.88439006
33	0x3d8db47c	0.0691919
34	0x3d1bb606	0.038015388
35	0xbdbf817a	-0.093508676
36	0x3e775e0e	0.24156973
37	0x3bc8fae5	0.0061334246
38	0x3ea9d5c7	0.33170912
39	0x3b843b80	0.0040354133
40	0xbf2dee17	-0.6794142
41	0x3e7774db	0.2416567
42	0x3d3421d7	0.043977585
43	0x3ed1e86e	0.40997642
44	0xbd76a944	-0.060220018
45	0x3e88903b	0.2667254
46	0x3d02c0cf	0.031922158
47	0x3e2c46bb	0.16823857
48	0xbef7cc48	-0.48398042
49	0x3da0dae0	0.07854247
50	0xbd83dd41	-0.06438685
51	0x3e0ecf2f	0.13946222
52	0xbeb8feb8	-0.36131835
53	0xbd38b267	-0.045092013
54	0xbef7454f	-0.48295066
55	0x3d8a11f0	0.067417026
56	0x3f60f3d2	0.8787204
57	0x3de51246	0.11185126
58	0x3e8e910a	0.2784503
59	0xbe8984bc	-0.2685908
60	0x3dc6a50e	0.096994504
61	0xbe99c7e8	-0.3003533
62	0xbea99de5	-0.33128276
63	0xbe659555	-0.22420247

weight f4 [4, 16]
0	0xbe73da01	-0.2381363
1	0x3e3bfb3e	0.1835756
2	0xbddca233	-0.107731245
3	0x3d89d390	0.067298055
4	0xbe4195b3	-0.18904762
5	0xbe9a12fa	-0.30092603
6	0xbd4bb85c	-0.049736366
7	0xbd8b121e	-0.06790565
8	0xbe7fe809	-0.24990858
9	0xbdf3afe7	-0.11898785
10	0xbf631503	-0.88703936
11	0x3f4333a9	0.762507
12	0xbe551829	-0.20809998
13	0xbe270bd8	-0.16313112
14	0xbec5db59	-0.3864391
15	0x3e693c31	0.22776867
16	0xbf0f2932	-0.55922234
17	0x3ec97a6c	0.39351213
18	0x3ea104bf	0.31448933
19	0x3e029736	0.12752995
20	0xbec39720	-0.38201237
21	0xbcd9f2bb	-0.026605
22	0x3e1d4102	0.1535683
23	0xbd61aff8	-0.055099458
24	0xbf087b23	-0.5331289
25	0xbedc81cd	-0.4306778
26	0xbef128b9	-0.4710138
27	0x3f10fd3f	0.5663642
28	0xbed7e55d	-0.42167178
29	0xbc8d9ce0	-0.017286718
30	0xbe7725e8	-0.24135554
31	0x3e51bef8	0.20483005
32	0xbf20065b	-0.625097
33	0xbc9649eb	-0.018345794
34	0xbd702ab1	-0.058634464
35	0xbe6fc4ec	-0.23414963
36	0xbe9b50c4	-0.30335057
37	0xbc8a8e33	-0.016913509
38	0x3c9b42f5	0.018952826
39	0xbe5a6f6f	-0.21331571
40	0x3f033940	0.5125923
41	0xbdb46874	-0.08808985
42	0xbf2023a2	-0.6255437
43	0x3eeb85c4	0.46000493
44	0xbe40c988	-0.18826878
45	0x3e2ff325	0.17182596
46	0xbe5ba400	-0.2144928
47	0x3e85e66c	0.2615236
48	0x3f0eb5e2	0.5574628
49	0xbdd0b483	-0.1019068
50	0x3e997887	0.29974768
51	0x3dd08db7	0.1018328
52	0x3e7be45f	0.24598835
53	0xbe0105b7	-0.12599836
54	0x3dcbe7a7	0.099562936
55	0x3e828b01	0.25496677
56	0xbf511439	-0.8167148
57	0xbe880d82	-0.26572806
58	0x3f04cac3	0.5187189
59	0xbe52da6c	-0.20591134
60	0xbd1d64e5	-0.0384263
61	0xbe619926	-0.22031078
62	0xbd8c300e	-0.06845103
63	0xbe971ace	-0.29512638

weight f4 [4, 16]
0	0x3df17816	0.11790483
1	0x3e19e806	0.15029916
2	0xbd3051b3	-0.043046664
3	0xbf4837fc	-0.78210425
4	0x3e413e6b	0.18871467
5	0x3e253868	0.16134799
6	0xbd845ce1	-0.06463028
7	0xbeb92216	-0.36158818
8	0xbeec69f8	-0.46174598
9	0x3d1fbafd	0.038996685
10	0x3e26a0fd	0.1627235
11	0xbf7b03f5	-0.9805291
12	0x3d666f8a	0.056258716
13	0xbdad542f	-0.08463322
14	0xbe7c0023	-0.24609427
15	0xbe58c9e4	-0.21170765
16	0x3d36280d	0.04447179
17	0x3e67d55b	0.22639982
18	0x3e63c483	0.22242932
19	0xbd8eca55	-0.069721855
20	0xbd8c6185	-0.06854538
21	0xbd373d10	-0.044735968
22	0xbea43da8	-0.3207829
23	0x3f49d7b6	0.78844774
24	0x3e803540	0.25040627
25	0x3dca833c	0.09888312
26	0xbe7731a1	-0.24140026
27	0x3f2b4e3c	0.6691625
28	0x3eb14ae9	0.34627464
29	0xbc9e7703	-0.019343859
30	0x3cd2dbda	0.025739599
31	0x3f43aaae	0.7643231
32	0xbf050e1b	-0.5197465
33	0xbdbe9b8d	-0.09307013
34	0xbdd62440	-0.10456133
35	0xbe47affb	-0.19500725
36	0xbe494b10	-0.1965754
37	0xbd1b5d91	-0.03793103
38	0x3e856a51	0.26057675
39	0xbedc9df7	-0.43089268
40	0xbdc1611e	-0.09442352
41	0xbd207ac7	-0.03917959
42	0x3e454f0c	0.19268435
43	0x3ede1bb0	0.433805
44	0x3f2863cb	0.6577727
45	0xbe619712	-0.22030285
46	0x3dd8c8bc	0.10585162
47	0xbee7f636	-0.45305032
48	0x3e746261	0.23865654
49	0xbd98319a	-0.07431336
50	0x3b2acbb0	0.0026061349
51	0x3f1c63bb	0.61089677
52	0x3df63185	0.12021164
53	0x39b3a0d5	0.0003426137
54	0xbdb4cd35	-0.08828203
55	0x3f08770d	0.5330666
56	0xba36defe	-0.00069759774
57	0x3e0c38fc	0.13693613
58	0xbda9b36d	-0.08286176
59	0xbf7c3fd7	-0.9853491
60	0xbe2ffb5f	-0.17185734
61	0xbe5cf380	-0.21577263
62	0xbe7f35f0	-0.2492292
63	0xbee4e1b4	-0.44703448

weight f4 [4, 16]
0	0x3a37c09d	0.00070095976
1	0x3e57d61b	0.21077769
2	0x3ebbb75c	0.3666333
3	0x3dff04ad	0.12452064
4	0xbdc1f03e	-0.09469651
5	0x3e90efcf	0.2830796
6	0xbeb5d370	-0.35512877
7	0x3f0b605e	0.5444392
8	0x3ef03b7a	0.46920377
9	0xbe4b8b1a	-0.19877282
10	0xba93fbdc	-0.001129027
11	0x3f306d0c	0.6891639
12	0xbf166236	-0.5874361
13	0x3d93610b	0.07196244
14	0xbe335728	-0.17513716
15	0xbf47762b	-0.77914685
16	0x3e96924a	0.29408485
17	0xbe1ae766	-0.15127334
18	0xbdbe036e	-0.09277998
19	0xbe8fd65f	-0.2809324
20	0x3e8602a4	0.2617389
21	0xbdb6ecc3	-0.089318775
22	0x3e7cf81c	0.24704021
23	0xbf208a98	-0.6271148
24	0xbe152cf1	-0.14567925
25	0x3e4e8f51	0.20171858
26	0x3ebf8e5d	0.37413302
27	0x3e12702c	0.14300603
28	0xbe34068b	-0.17580621
29	0x3d588616	0.05286225
30	0x3d8aeca0	0.06783414
31	0x3f8c0766	1.0939758
32	0x3d0a3ddf	0.03375041
33	0xbd07b551	-0.0331319
34	0x3d162930	0.036660373
35	0x3f347757	0.704946
36	0x3e6dc7e9	0.23220791
37	0xbe501122	-0.20319036
38	0xbc95ac78	-0.018270716
39	0x3e60911d	0.21930356
40	0x3de96b3a	0.11397405
41	0xbe9dc3f5	-0.30813566
42	0x3e456453	0.19276552
43	0xbf1f0f52	-0.6213275
44	0xbec9a138	-0.39380813
45	0xbe40e1d4	-0.18836147
46	0x3f0b0182	0.54299176
47	0x3cfcb8a9	0.030849772
48	0x3d4f2252	0.05056984
49	0xbe815d3a	-0.2526644
50	0xbdd33d8c	-0.103144735
51	0xbeefd755	-0.46843973
52	0xbf3c8ae1	-0.7364941
53	0xbe2d96c8	-0.1695205
54	0xbe035e43	-0.12828927
55	0xbf07427b	-0.52835816
56	0x3dc6e56b	0.09711727
57	0x3e443cb2	0.19163778
58	0xbf01414a	-0.5049025
59	0x3e14a408	0.14515698
60	0xbc361f9b	-0.011115934
61	0x3de51c40	0.11187029
62	0xbe845dca	-0.25852805
63	0xbf50c060	-0.8154354

weight f4 [4, 16]
0	0x3f41f0b9	0.7575794
1	0x3dca68e6	0.09883289
2	0x3f4f246c	0.8091495
3	0xbe2486ea	-0.1606709
4	0x3e9c64c6	0.30545634
5	0xbebc6f0d	-0.36803475
6	0xbeafe5c0	-0.34354973
7	0xbebd0c50	-0.36923456
8	0x3e02ed46	0.12785825
9	0x3e8e3b4a	0.2777961
10	0xbd80f6e0	-0.06297088
11	0xbd1f8d88	-0.038953334
12	0xbe3ebf88	-0.18627751
13	0xbeca6b5c	-0.39535034
14	0x3e903aee	0.2816996
15	0x3cac1fb0	0.021011204
16	0x3f2c3725	0.67271644
17	0xbe7786ab	-0.24172466
18	0x3e43160a	0.19051376
19	0xbebd7240	-0.37001228
20	0x3e4cb52a	0.19990984
21	0x3d2609fe	0.040536873
22	0xbeaabf3f	-0.33349034
23	0xbec7e551	-0.39042142
24	0x3ebc0663	0.36723623
25	0x3d8c7b5b	0.06859466
26	0x3ca3f5dd	0.020014698
27	0x3d35449c	0.044254884
28	0xbe511ca5	-0.20421083
29	0xbe92a08b	-0.2863811
30	0xbe169687	-0.14705859
31	0x3dc5d485	0.096596755
32	0x3f137ea8	0.5761514
33	0x3ca21c28	0.019788817
34	0x3e3edb11	0.18638255
35	0xbdc43632	-0.095806494
36	0x3e99ecae	0.30063385
37	0x3d59f7cf	0.053214844
38	0xbeb759c7	-0.35810682
39	0xbf372c01	-0.7155152
40	0x3e4f5db5	0.2025059
41	0xbd63313d	-0.05546688
42	0xbdac74b1	-0.084206946
43	0x3e9c8e25	0.30577198
44	0xbebee1e5	-0.3728172
45	0xbd740301	-0.059573177
46	0xbf0cb406	-0.54962194
47	0xbf287cc0	-0.65815353
48	0xbf3e0301	-0.74223334
49	0xbe39cd75	-0.18144782
50	0xbef6de86	-0.48216647
51	0xbd76e85d	-0.060280193
52	0xbe2514db	-0.16121237
53	0x3e4db783	0.20089535
54	0x3eb2a0fa	0.3488844
55	0x3ec6b33b	0.38808617
56	0xbe159b98	-0.14610136
57	0xbd8767de	-0.06611608
58	0x3ad0a890	0.0015919376
59	0xbea7bb9b	-0.3276032
60	0x3e7231b0	0.23651767
61	0x3dd2f4a7	0.1030057
62	0x3c98c0ee	0.018646684
63	0x3e9277b0	0.2860694

weight f4 [4, 16]
0	0xbf1cf22d	-0.6130703
1	0xbe11db67	-0.14243852
2	0x3eb9fc49	0.3632529
3	0x3edaa554	0.4270426
4	0xbefdcd71	-0.49570802
5	0xbdf0768b	-0.1174136
6	0xbe8f7aa7	-0.28023264
7	0xbe48c7b3	-0.19607429
8	0x3e1a34cc	0.15059203
9	0x3d3d24c2	0.046177633
10	0x3d90fe69	0.07079775
11	0xbeceaf78	-0.40368247
12	0x3ea8f98e	0.33002895
13	0xbecf51c1	-0.4049206
14	0xbe7911e9	-0.24323238
15	0xbedbb183	-0.42908868
16	0xbed32c1a	-0.41244584
17	0xbe97ca6a	-0.29646617
18	0x3e915aaf	0.283895
19	0x3ecc3342	0.39882857
20	0xbe3b37e0	-0.18283033
21	0xbe524776	-0.20535073
22	0x3e43c55d	0.19118257
23	0x3df4d597	0.119548015
24	0x3e1723f1	0.14759804
25	0x3ec96109	0.39331844
26	0x3e4c668e	0.19960997
27	0xbe848b8d	-0.2588772
28	0x3e77d247	0.24201308
29	0xbbb1d485	-0.0054269456
30	0xbc966f02	-0.01836348
31	0xbf015f9f	-0.5053653
32	0xbee7b1e1	-0.45252898
33	0xbe357d72	-0.17723635
34	0x3eff4346	0.49856013
35	0x3ef16af6	0.47151917
36	0xbe67c639	-0.2263421
37	0xbe6e48e4	-0.23269993
38	0x3e89549f	0.26822373
39	0x3f453320	0.77031136
40	0x3eb18be5	0.34677044
41	0x3e72202e	0.23645088
42	0x3e8f33d3	0.27969226
43	0xbd8ff400	-0.07028961
44	0x3e1f664c	0.15566367
45	0xbecd2c16	-0.40072697
46	0x3d26cbad	0.040721584
47	0x3be407c5	0.006958934
48	0x3eefd86a	0.46844798
49	0x3e6ba66c	0.23012704
50	0xbedca25f	-0.4309263
51	0xbe7a0998	-0.24417722
52	0x3ec73d6c	0.3891405
53	0x3e7b3ba9	0.24534477
54	0xbdd08441	-0.101814754
55	0xbd9f8418	-0.07788867
56	0xbe8397c4	-0.25701725
57	0xbd8afdc9	-0.06786687
58	0xbe1c019f	-0.15234993
59	0x3e7cbc2b	0.24681155
60	0xbe5756bf	-0.21029185
61	0x3f05ab0e	0.52214134
62	0x3e569330	0.20954585
63	0x3dbbd3da	0.09171267

weight f4 [128, 1, 1, 1]
0	0x3d460aa9	0.04835001
1	0xbda58eff	-0.08083915
2	0x3d538bfa	0.051647164
3	0x3cefeab9	0.02928673
4	0x3d6b24f6	0.057408296
5	0xbd0f7e32	-0.03503246
6	0xbd353f86	-0.044250034
7	0x3cd0eea4	0.025504418
8	0xbd0ee761	-0.03488863
9	0xbd5b575a	-0.0535501
10	0x3d0ecad4	0.0348614
11	0x3d4330ea	0.04765407
12	0x3d4fb245	0.05070712
13	0x3da0673b	0.0783219
14	0x3d68ea5d	0.05686413
15	0x3d9b0c1f	0.07570671
16	0x3d342d29	0.04398838
17	0xbd421f06	-0.047392868
18	0x3cf85d5b	0.030317953
19	0x3d7eed13	0.06223781
20	0xbd489401	-0.048969273
21	0x3d4e6b19	0.050395105
22	0xbd687d41	-0.056760076
23	0x3d5e6ff7	0.054305997
24	0xbd674fc7	-0.056472566
25	0xbd4be5fe	-0.049779885
26	0xbd628468	-0.055302054
27	0xbd458a34	-0.048227504
28	0x3d35c385	0.044375915
29	0xbcf44aea	-0.029820878
30	0x3d5a7196	0.05333098
31	0xbd33852a	-0.043828167
32	0xbcf93f38	-0.030425653
33	0x3d6ebec1	0.058287386
34	0x3d1e85e6	0.038701914
35	0xbcd800ab	-0.026367506
36	0xbd2fbde2	-0.042905696
37	0xbd478f86	-0.04872086
38	0x3d4f690b	0.050637286
39	0x3d4c549f	0.04988539
40	0xbd4946f6	-0.04913994
41	0x3d3c2449	0.04593304
42	0xbcded92d	-0.027203167
43	0x3d83d240	0.064365864
44	0xbd648640	-0.055792093
45	0xbd336649	-0.04379872
46	0x3d2967cc	0.041358754
47	0x3d97a9d7	0.07405441
48	0xbd2ee957	-0.042703
49	0xbd32673c	-0.043555483
50	0x3d802d48	0.06258637
51	0x3cedd8d7	0.029034061
52	0xbd3ceb17	-0.046122637
53	0xbd1d678a	-0.03842882
54	0x3cf8746f	0.030328957
55	0x3d389fd3	0.045074295
56	0xbd292dfc	-0.04130362
57	0xbd070427	-0.032962944
58	0xbd4f4a52	-0.050607987
59	0xbd1914be	-0.037373297
60	0x3d50bc47	0.050960805
61	0xbcea6f95	-0.02861766
62	0xbd16e699	-0.03684101
63	0x3d4ef9e8	0.050531298
64	0xbd65ef77	-0.056136575
65	0xbd1a431f	-0.037661668
66	0xbcfb81e8	-0.030701593
67	0x3d2cdb03	0.042201053
68	0xbcd661b5	-0.026169637
69	0xbcd33b46	-0.0257851
70	0xbd3efd16	-0.04662808
71	0x3d445dbd	0.04794096
72	0x3d052e58	0.0325149
73	0x3d3dfced	0.046383787
74	0xbd28f574	-0.041249707
75	0x3d3a1b18	0.045435995
76	0x3d37bb73	0.0448565
77	0x3d21d8c8	0.03951338
78	0x3d4f6793	0.050635885
79	0x3d04e1b6	0.032441817
80	0xbd18cb97	-0.037303533
81	0x3d72d122	0.059281476
82	0xbce4f99e	-0.027951058
83	0xbd5419e9	-0.051782522
84	0x3d3fd8c4	0.046837583
85	0xbd5f3bc7	-0.054500367
86	0x3d1468a7	0.036232617
87	0x3d16da18	0.036829084
88	0x3d69d3c1	0.05708671
89	0xbd26f292	-0.040758677
90	0xbd08d182	-0.033402927
91	0xbd673195	-0.05644377
92	0xbd5498ce	-0.05190354
93	0x3d924901	0.07142831
94	0x3d5496e1	0.0519017
95	0x3d6bda6d	0.057581354
96	0x3d02471c	0.031806096
97	0x3cc5643d	0.024095649
98	0x3d03a436	0.032139026
99	0xbd43db5f	-0.04781663
100	0xbd5c7384	-0.0538211
101	0xbd428614	-0.047491148
102	0x3cd7f7a1	0.026363196
103	0xbd34e4f7	-0.04416367
104	0x3d16782c	0.0367357
105	0xbd4f9bc1	-0.050685648
106	0x3d8ff3e7	0.070289426
107	0xbd6bb73c	-0.057547793
108	0x3d2539cf	0.040338334
109	0x3d27e613	0.0409909
110	0x3ce05f06	0.02738906
111	0x3d5840b1	0.05279607
112	0x3d26119b	0.040544134
113	0x3d1648bb	0.036690455
114	0x3d128bcf	0.035777863
115	0xbcd76ca2	-0.026296917
116	0xbd0c5e3f	-0.034269568
117	0xbcd15f15	-0.025558034
118	0x3d1e2d5c	0.038617477
119	0x3d90aa96	0.07063787
120	0xbd48b81d	-0.04900371
121	0xbd17fb06	-0.03710463
122	0x3d5777d2	0.052604504
123	0x3d558751	0.052131
124	0x3cdad5bb	0.026713243
125	0xbd659f6f	-0.05606025
126	0xbd458683	-0.048223983
127	0xbcdfe70c	-0.027331851

bias f4 [128]
0	0xb89443e0	-7.069833e-05
1	0xb96914c0	-0.00022228342
2	0x389f822a	7.605956e-05
3	0x388e34d2	6.780926e-05
4	0x3524759b	6.12659e-07
5	0x38bf6bb4	9.127651e-05
6	0x390e2505	0.00013555966
7	0x392c9a3c	0.00016460655
8	0x37a4feff	1.9669065e-05
9	0x3909c898	0.00013140065
10	0x388991fd	6.5598615e-05
11	0xb6fa7628	-7.464336e-06
12	0x39e69b63	0.0004398479
13	0x38247f9c	3.9219492e-05
14	0x378d501c	1.6845814e-05
15	0x37119a19	8.678552e-06
16	0x396a8512	0.00022365552
17	0x3a078274	0.00051692803
18	0x371235ee	8.714835e-06
19	0x39b436d9	0.0003437314
20	0xb86774e2	-5.5183547e-05
21	0xb734e2e3	-1.0781662e-05
22	0xb84d460d	-4.894105e-05
23	0xb8260618	-3.958316e-05
24	0xb866e64c	-5.5050754e-05
25	0x37cf1fe5	2.4691175e-05
26	0xb7ca8052	-2.414003e-05
27	0x38253dcc	3.939662e-05
28	0x385bd5dc	5.241284e-05
29	0xb89a8382	-7.3677875e-05
30	0x37e112b9	2.6830809e-05
31	0xb79b31f3	-1.85007e-05
32	0x38448e86	4.6862777e-05
33	0xb88d3854	-6.733896e-05
34	0x37355e05	1.0810331e-05
35	0xb6bb5c9c	-5.5838154e-06
36	0xb8068045	-3.206755e-05
37	0xb2eac1a3	-2.7329241e-08
38	0x38ff2fab	0.000121682264
39	0x38caf945	9.678541e-05
40	0xb83c4b8f	-4.4893062e-05
41	0xb836691a	-4.3490065e-05
42	0xb735438c	-1.0804168e-05
43	0xb8e0e782	-0.00010724274
44	0xb8ca55ff	-9.6481286e-05
45	0x3987d720	0.00025909487
46	0x38a6d517	7.955188e-05
47	0xb8a6d70a	-7.955551e-05
48	0xb861786b	-5.375633e-05
49	0xb9266e79	-0.00015872148
50	0x3886d4ab	6.4292304e-05
51	0x363689db	2.7200356e-06
52	0xb6284710	-2.5075315e-06
53	0x38a74bf2	7.9773265e-05
54	0xb79bf018	-1.8589242e-05
55	0x3610fd66	2.160517e-06
56	0x36f56023	7.3127608e-06
57	0xb8f6f581	-0.00011775923
58	0x3923c94d	0.00015619882
59	0x37784dc9	1.4800063e-05
60	0x379bda47	1.8579083e-05
61	0xb7d6a7a4	-2.5588852e-05
62	0x38d7f962	0.0001029845
63	0xb7db9cc9	-2.6179843e-05
64	0xb90edd6d	-0.00013624663
65	0xb62c0fb9	-2.563915e-06
66	0xb6c63e39	-5.9081035e-06
67	0x383ad413	4.4543365e-05
68	0xb8d92ed8	-0.00010356092
69	0x3919b910	0.00014660158
70	0x37d673bf	2.5564686e-05
71	0x37bce407	2.251753e-05
72	0x388bc8bd	6.665427e-05
73	0x37c28bf0	2.3191766e-05
74	0x371a023c	9.1796355e-06
75	0xb689c512	-4.10586e-06
76	0x375ffb5b	1.3350359e-05
77	0xb600bae2	-1.9182266e-06
78	0xb8131879	-3.5070323e-05
79	0x343d16a2	1.761023e-07
80	0x36e2baac	6.7570563e-06
81	0xb917ba85	-0.00014469966
82	0x37204559	9.552889e-06
83	0xb7a7b657	-1.999286e-05
84	0x385d869f	5.281588e-05
85	0x3931496d	0.00016907389
86	0x37858efc	1.5921418e-05
87	0x386bb849	5.6199995e-05
88	0xb78d062f	-1.681139e-05
89	0x3945c58b	0.00018860975
90	0x37119a72	8.678633e-06
91	0xb8ac4ad0	-8.215534e-05
92	0x39338413	0.00017119972
93	0x38af7c13	8.367761e-05
94	0xb75fb38d	-1.3333641e-05
95	0x38d086f4	9.94335e-05
96	0x38501149	4.9607163e-05
97	0x38f9b80d	0.000119075274
98	0x38e858b5	0.00011079145
99	0x36b76b2a	5.4663005e-06
100	0x38289c46	4.0199862e-05
101	0xb74da5bf	-1.2257543e-05
102	0x387b363f	5.9893584e-05
103	0xb744b056	-1.1723567e-05
104	0x3854ef1c	5.0767427e-05
105	0x386665b2	5.4930984e-05
106	0x38ac7ef1	8.225244e-05
107	0x38cb0e47	9.682454e-05
108	0x38041840	3.1493837e-05
109	0x385c0217	5.2454034e-05
110	0xb97fe45a	-0.00024403763
111	0x382fac31	4.1883617e-05
112	0xb6e7a7f4	-6.903889e-06
113	0x368e7b90	4.2463143e-06
114	0xb8f6e802	-0.00011773409
115	0xb987c3a4	-0.0002589497
116	0xb89c332d	-7.448192e-05
117	0xb8b9dbeb	-8.86245e-05
118	0xb71b060d	-9.240129e-06
119	0xb91b89d9	-0.00014833304
120	0xb936fc06	-0.00017450759
121	0xb8638a9d	-5.425011e-05
122	0x370f5418	8.543044e-06
123	0xb8a4a7ee	-7.851409e-05
124	0xb786560d	-1.6014115e-05
125	0xb9cc0f9e	-0.00038921548
126	0xb60cb5f5	-2.0967539e-06
127	0x3720f7ff	9.594484e-06

weight f4 [128]
0	0x3f6bfd31	0.92183214
1	0x3f861cf9	1.0477592
2	0x3f6e9b05	0.9320529
3	0x3f72a7f2	0.94787514
4	0x3f773e16	0.9657911
5	0x3f5bdbfa	0.8588253
6	0x3f67f86a	0.90613425
7	0x3f4bad12	0.7956096
8	0x3f28dfd5	0.6596654
9	0x3f7225d0	0.9458895
10	0x3f3b452a	0.7315241
11	0x3f645687	0.8919453
12	0x3f840ca0	1.0316353
13	0x3f807b50	1.0037632
14	0x3f521db4	0.82076573
15	0x3f7f740c	0.9978645
16	0x3f65f18e	0.8982171
17	0x3f833f24	1.0253644
18	0x3f3aff04	0.7304537
19	0x3f83366c	1.0250983
20	0x3f830ea3	1.0238842
21	0x3f57d0ad	0.8430279
22	0x3f6ba73f	0.9205207
23	0x3f5bf090	0.85913944
24	0x3f88a31f	1.0674781
25	0x3f55d397	0.83525985
26	0x3f7b61ee	0.98196304
27	0x3f5d45e1	0.8643475
28	0x3f62ce43	0.8859598
29	0x3f56e241	0.83938986
30	0x3f6f40d5	0.934583
31	0x3f657c13	0.8964245
32	0x3f4de4dd	0.8042734
33	0x3f7b4a30	0.98160076
34	0x3f11ef90	0.5700617
35	0x3f0d8c01	0.55291754
36	0x3f594116	0.8486494
37	0x3f52fb66	0.82414854
38	0x3f627b13	0.88469046
39	0x3f55f6d2	0.8357974
40	0x3f54a59b	0.83065194
41	0x3f58662e	0.84530914
42	0x3f3358da	0.7005745
43	0x3f802ace	1.0013063
44	0x3f72200c	0.9458015
45	0x3f5ea8fe	0.8697661
46	0x3f64f361	0.89433867
47	0x3f81123e	1.0083692
48	0x3f76aeb6	0.9636034
49	0x3f7c827e	0.98636615
50	0x3f840bb9	1.0316077
51	0x3ef48bba	0.47762853
52	0x3f78a0e7	0.9712052
53	0x3f52be7b	0.823219
54	0x3f2b9f56	0.6704
55	0x3f4c04b3	0.7969467
56	0x3f36f163	0.71462077
57	0x3f4d511c	0.8020189
58	0x3f67c7d7	0.90539306
59	0x3f2b8f6f	0.6701574
60	0x3f4bb31f	0.7957019
61	0x3f3eace3	0.74482554
62	0x3f5eccd1	0.87031275
63	0x3f57de7b	0.84323853
64	0x3f6f0682	0.93369305
65	0x3f6a3b96	0.9149717
66	0x3f4be14d	0.79640657
67	0x3f483d40	0.7821846
68	0x3f54e32e	0.8315915
69	0x3f571b3b	0.84025925
70	0x3f803f76	1.0019367
71	0x3f4b5815	0.7943128
72	0x3f5e695b	0.8687951
73	0x3f62618f	0.8843011
74	0x3f40a4de	0.7525157
75	0x3f796eda	0.9743477
76	0x3f618c22	0.8810445
77	0x3f6a56ee	0.91538894
78	0x3f73aeb7	0.9518847
79	0x3f231348	0.63701296
80	0x3f2f8510	0.6856241
81	0x3f83c41e	1.0294225
82	0x3f54a6e0	0.8306713
83	0x3f5de3a3	0.8667547
84	0x3f5530ed	0.8327778
85	0x3f7f48ed	0.9972065
86	0x3f46fee3	0.77732676
87	0x3f57ba7b	0.8426892
88	0x3f578fa0	0.8420353
89	0x3f6a1642	0.9144021
90	0x3f44f571	0.76937014
91	0x3f805215	1.002505
92	0x3f7d7005	0.98999053
93	0x3f77eb01	0.9684296
94	0x3f83d305	1.0298773
95	0x3f8000a8	1.00002
96	0x3f55886a	0.83411276
97	0x3f4fa65e	0.8111323
98	0x3f5886b0	0.84580517
99	0x3f5ac06f	0.8544988
100	0x3f751289	0.9573141
101	0x3f541766	0.82848203
102	0x3f3c77e0	0.73620415
103	0x3f73824f	0.9512071
104	0x3f31d58f	0.6946649
105	0x3f6c8616	0.923921
106	0x3f6ab1ef	0.91677755
107	0x3f836813	1.0266136
108	0x3f50c50d	0.81550676
109	0x3f610171	0.87892824
110	0x3f4a1ade	0.78947246
111	0x3f5a2faf	0.8522901
112	0x3f2efe1b	0.68356484
113	0x3f14f2cc	0.5818298
114	0x3f6aa72c	0.91661334
115	0x3f66151f	0.8987598
116	0x3f4ab52e	0.7918271
117	0x3f3e5d09	0.7436071
118	0x3f4a04ea	0.7891375
119	0x3f7e1109	0.99244744
120	0x3f824146	1.017617
121	0x3f610051	0.8789111
122	0x3f796fe0	0.9743633
123	0x3f6e0409	0.9297491
124	0x3f3c9979	0.7367168
125	0x3f7d562a	0.989596
126	0x3f467008	0.77514696
127	0x3efa92f0	0.4894023

bias f4 [128]
0	0xbdf3e177	-0.119082384
1	0xbd592bef	-0.053020414
2	0xbdf05180	-0.11734295
3	0xbe275d59	-0.16344203
4	0xbdacd070	-0.08438194
5	0xbdad4fda	-0.08462496
6	0xbdcbb0eb	-0.09945854
7	0xbd8601e5	-0.0654333
8	0xbddb047d	-0.106942154
9	0xbc4e52a2	-0.012592943
10	0xbd2454e6	-0.040120028
11	0x3d9ec921	0.07753206
12	0xbd7e1cc8	-0.062039167
13	0xbca34df6	-0.019934636
14	0xbe3c4b1e	-0.1838803
15	0xbd93c2c3	-0.07214882
16	0xbe0e86ab	-0.13918559
17	0xbd734198	-0.059388727
18	0xbe274091	-0.16333224
19	0xbd882dd2	-0.066493645
20	0xbde92672	-0.11384286
21	0x3d8b4ef1	0.06802166
22	0xbd73e228	-0.05954185
23	0xbd814f97	-0.06314009
24	0xbe3541ae	-0.17700836
25	0xbe44a118	-0.19202077
26	0xbd20dadd	-0.039271224
27	0xbcea0ff5	-0.028572062
28	0xbdf7f98f	-0.121081464
29	0xbde19511	-0.1101476
30	0x3c88855e	0.016665157
31	0xbc34c1e7	-0.011032558
32	0xbdc773a3	-0.09738853
33	0x3bca1157	0.006166618
34	0x3cdc49ec	0.026890717
35	0xbd9367b4	-0.07197514
36	0xbe433f2b	-0.19067065
37	0xbd139b14	-0.036036566
38	0xbe159d91	-0.14610888
39	0xbe29d57a	-0.16585341
40	0x3d18b464	0.03728141
41	0xbd5d178e	-0.05397754
42	0xbdc15326	-0.094396874
43	0x3ca435d4	0.020045199
44	0x3d4c73b8	0.049915045
45	0xbe1ff2e0	-0.15619993
46	0xbdfdace6	-0.123864934
47	0xbd11b7ab	-0.03557555
48	0xbd0038d0	-0.03130418
49	0xbd469561	-0.048482303
50	0xbd65f8d8	-0.05614552
51	0xbd2e4274	-0.042543843
52	0xbcec5505	-0.028849134
53	0xbe3932e7	-0.18085824
54	0xbe11a23b	-0.14222042
55	0xbc252893	-0.010080474
56	0xbd369a48	-0.044580728
57	0xbe253029	-0.16131653
58	0xbd5ecd47	-0.054394986
59	0xbe28a9a4	-0.16470963
60	0xbc96eda8	-0.01842387
61	0xbdf442ed	-0.119268276
62	0xbda4d2b7	-0.08048003
63	0x3d296c58	0.04136309
64	0xbe29b0e1	-0.1657138
65	0xbd05fd9e	-0.03271257
66	0xbd2d1ab0	-0.04226178
67	0xbdd2b405	-0.10288242
68	0xbe00c026	-0.12573299
69	0xbe4e4360	-0.20142889
70	0xbd90584c	-0.07048091
71	0xbcc61190	-0.024178296
72	0xbd9227f0	-0.07136524
73	0x3a3dfa11	0.00072470406
74	0xbd9553fd	-0.0729141
75	0xbc91c216	-0.017792743
76	0xbe072959	-0.13199367
77	0x3d241bbd	0.040065516
78	0xbdf43e32	-0.11925925
79	0xbd0dbf5c	-0.034606323
80	0xbe81fde5	-0.2538902
81	0xbde83647	-0.113384776
82	0xbdad322b	-0.084568344
83	0x3b061eed	0.002046521
84	0x3d84000e	0.06445323
85	0x3dc47104	0.095918685
86	0xbdb9cb63	-0.09071996
87	0xbde5af88	-0.112151206
88	0xbe2e02a1	-0.1699319
89	0xbcef430e	-0.029206779
90	0xbe2b21c2	-0.16712096
91	0x3e0ecb0c	0.13944644
92	0xbdc5d5a7	-0.096598916
93	0x3c6a5772	0.014303075
94	0xbd586be6	-0.052837275
95	0xbd70fc8f	-0.05883461
96	0x3c972ba3	0.018453425
97	0xbe38df20	-0.18053865
98	0xbe6a6dde	-0.22893474
99	0x3de063b6	0.10956518
100	0xbd89c700	-0.06727409
101	0x3dea4160	0.114382505
102	0xbdb7b9b5	-0.08970968
103	0xbd43beb6	-0.047789298
104	0x3c561b8a	0.013068089
105	0xbdbea70b	-0.09309205
106	0xbdc8d8c8	-0.09806973
107	0x3d39852d	0.045293022
108	0x3c3e0506	0.011597877
109	0xbe04ed0b	-0.1298105
110	0xbe0592ea	-0.13044325
111	0xbdccfb00	-0.10008812
112	0xbcf07a4c	-0.02935519
113	0xbd8afaf2	-0.06786145
114	0xbdf6f179	-0.12057776
115	0xbdaea461	-0.085274465
116	0xbe14291a	-0.14468804
117	0xbd0d1be5	-0.03445043
118	0xbc830229	-0.015992241
119	0xbd8e85eb	-0.069591366
120	0xbd2d038c	-0.04223971
121	0xbd790a47	-0.060800817
122	0xbe14dd18	-0.14537466
123	0xbd8025ba	-0.06257196
124	0xbe05ac7d	-0.1305408
125	0xbd65a49e	-0.056065194
126	0xbd0c0eea	-0.03419391
127	0xbe0bdf4e	-0.13659403

running_mean f4 [128]
0	0xbae890ec	-0.0017743385
1	0x3b273f07	0.0025519745
2	0xbaf3df32	-0.0018605946
3	0xba866e62	-0.0010256285
4	0xbb06af13	-0.002055113
5	0x3aa3b4bb	0.0012489775
6	0x3acd6b11	0.0015672167
7	0xba83fead	-0.0010070406
8	0x3aa15453	0.0012308456
9	0x3af53a24	0.0018709344
10	0xbaa354c4	-0.0012461175
11	0xbadcd8bd	-0.0016849261
12	0xbadd23f4	-0.0016871677
13	0xbb375433	-0.002797377
14	0xbb03dc40	-0.0020120293
15	0xbb31a373	-0.002710548
16	0xbac0f29c	-0.0014720741
17	0x3b0750a7	0.0020647438
18	0xba918d82	-0.0011104795
19	0xbb09d848	-0.0021033455
20	0x3ad4ffa8	0.0016250508
21	0xbaeb7d46	-0.0017966412
22	0x3b01439b	0.0019724134
23	0xbafe91a4	-0.0019422066
24	0x3b051ac1	0.0020310136
25	0x3ae929ae	0.0017788911
26	0x3afb98af	0.0019195284
27	0x3ae002f8	0.0017090729
28	0xbad6816b	-0.0016365474
29	0x3a8c300d	0.0010695473
30	0xbaf5a88c	-0.0018742247
31	0x3ac77c13	0.0015219472
32	0x3a94260a	0.001130284
33	0xbb11e0fd	-0.0022259348
34	0xbab46409	-0.0013762723
35	0x3a706d87	0.0009171594
36	0x3abaa4fa	0.0014239841
37	0x3ae1ead5	0.0017236123
38	0xbae618e3	-0.0017555024
39	0xbae78c2f	-0.0017665679
40	0x3ae537c1	0.001748793
41	0xbad71401	-0.001640916
42	0x3a7c6f2b	0.00096296024
43	0xbb144094	-0.00226215
44	0x3b00a18d	0.0019627542
45	0x3aeab90c	0.0017907931
46	0xbac0a032	-0.001469618
47	0xbb2e6c77	-0.0026614943
48	0x3ac262a6	0.0014830425
49	0x3acc2ef9	0.0015577964
50	0xbb129371	-0.0022365714
51	0xba876ebe	-0.0010332686
52	0x3ad1d9ad	0.0016010307
53	0x3abba2fe	0.0014315543
54	0xba8d99ab	-0.0010803243
55	0xbad222b2	-0.0016032069
56	0x3ac38004	0.0014915471
57	0x3a9a9d61	0.001179617
58	0x3aeb9cef	0.0017975847
59	0x3aae617c	0.0013304199
60	0xbaf0f530	-0.0018383618
61	0x3a84a943	0.0010121245
62	0x3aaa4e7c	0.0012993361
63	0xbaeb19ef	-0.0017936806
64	0x3affeae8	0.0019524964
65	0x3aa91e49	0.0012902702
66	0x3a88f48e	0.001044886
67	0xbac28068	-0.0014839293
68	0x3a724634	0.00092420285
69	0x3a7e16d4	0.0009692733
70	0x3adc81aa	0.0016823311
71	0xbae3ce11	-0.0017380138
72	0xbaa47d86	-0.0012549616
73	0xbad97b63	-0.0016592558
74	0x3abbbfb4	0.00143241
75	0xba8f268b	-0.0010921521
76	0xbad1199e	-0.0015953069
77	0xbab01cb5	-0.001343629
78	0xbaeae8b4	-0.0017922134
79	0xba99d16c	-0.0011735386
80	0x3aaf6d9e	0.0013384109
81	0xbb073045	-0.0020628136
82	0x3a8b8452	0.0010644293
83	0x3af0610f	0.0018339473
84	0xbad6e783	-0.00163959
85	0x3af7f883	0.0018918667
86	0xbaac051b	-0.001312408
87	0xbaa36887	-0.0012467065
88	0xbb051014	-0.0020303773
89	0x3ac16af3	0.0014756605
90	0x3a9b2d9d	0.0011839155
91	0x3b01babd	0.0019795143
92	0x3b05c6ff	0.00204128
93	0xbb24fbc6	-0.0025174483
94	0xbaefd441	-0.001829751
95	0xbb028590	-0.0019916035
96	0xba92f423	-0.0011211674
97	0xba512e5a	-0.0007979624
98	0xba686755	-0.00088654953
99	0x3add6df6	0.0016893733
100	0x3afb6f4e	0.0019182952
101	0x3adb05bf	0.0016710086
102	0xba7b9eed	-0.0009598572
103	0x3ac5cc5d	0.0015090812
104	0xbaad7811	-0.0013234635
105	0x3aec443e	0.0018025709
106	0xbb24eb3b	-0.0025164622
107	0x3b06f368	0.0020591859
108	0xbab7724f	-0.0013995859
109	0xbabc1797	-0.0014350292
110	0xba401092	-0.0007326688
111	0xbaf198bc	-0.0018432359
112	0xbabec695	-0.0014555032
113	0xbaabac63	-0.001309764
114	0xbab763c4	-0.0013991524
115	0x3a53b411	0.0008075843
116	0x3aa75ec1	0.0012769328
117	0x3a777099	0.00094390806
118	0xbab575b8	-0.0013844287
119	0xbb2980fd	-0.0025864237
120	0x3ac432b4	0.0014968724
121	0x3aa7b61c	0.0012795362
122	0xbaf4c206	-0.0018673546
123	0xbafa4cd1	-0.0019096379
124	0xba79705f	-0.0009515341
125	0x3aff36a6	0.0019471243
126	0x3ae0c307	0.0017147966
127	0x3a777873	0.00094402506

running_var f4 [128]
0	0x3b1c8f26	0.0023889034
1	0x3bd3fc59	0.006469291
2	0x3b305d5f	0.0026911122
3	0x3a5b0203	0.0008354487
4	0x3b503ac2	0.0031773304
5	0x3a9f136b	0.0012136524
6	0x3afd1e16	0.0019311334
7	0x3a2cbd00	0.00065894425
8	0x3aa2fe2d	0.001243537
9	0x3b3c191b	0.0028701487
10	0x3aa19298	0.0012327014
11	0x3b0fce4f	0.0021943038
12	0x3b2722e2	0.002550297
13	0x3bc965c3	0.006146164
14	0x3b556e47	0.003256695
15	0x3bba71dc	0.0056898426
16	0x3b0017f6	0.0019545532
17	0x3b13dc1d	0.0022561618
18	0x3a86e373	0.0010291174
19	0x3b7e703f	0.0038824228
20	0x3b18771e	0.0023264359
21	0x3b22b458	0.0024826732
22	0x3b57c27c	0.0032922318
23	0x3b40a2cb	0.0029393907
24	0x3b4ee881	0.0031571689
25	0x3b221b8c	0.0024735657
26	0x3b442cc2	0.0029933904
27	0x3b17abc9	0.0023143163
28	0x3b000db0	0.0019539408
29	0x3a69924e	0.0008910046
30	0x3b3fb937	0.0029254684
31	0x3af9fa4e	0.0019071789
32	0x3a75847c	0.000936575
33	0x3b5f3e9a	0.0034064413
34	0x3ac6957f	0.0015150754
35	0x3a3e8717	0.0007268055
36	0x3ae3c0a3	0.0017376136
37	0x3b1ec104	0.0024223933
38	0x3b29f29b	0.0025931958
39	0x3b2374d7	0.0024941468
40	0x3b1eaacb	0.0024210687
41	0x3b07e346	0.002073483
42	0x3a432e20	0.0007445533
43	0x3b85fbdb	0.0040888614
44	0x3b4aa3ab	0.0030920308
45	0x3afc9e3f	0.0019273235
46	0x3ae1d65b	0.0017230021
47	0x3bb06d41	0.005384118
48	0x3aee7d0c	0.0018195226
49	0x3af3bd74	0.001859589
50	0x3b7d86db	0.0038685116
51	0x3a5bf455	0.00083905953
52	0x3b09aa7b	0.0021006155
53	0x3ab9d00c	0.0014176383
54	0x3a68e7dc	0.00088846474
55	0x3b03f345	0.0020134014
56	0x3ae51c96	0.0017479833
57	0x3a8cf23f	0.0010753347
58	0x3b26d532	0.0025456664
59	0x3abbd807	0.0014331349
60	0x3b2a7eb5	0.0026015465
61	0x3a566ee4	0.0008179976
62	0x3aaf45cb	0.001337224
63	0x3b2646d3	0.0025371804
64	0x3b52033a	0.003204538
65	0x3abb88a2	0.0014307688
66	0x3a79daa8	0.00095311785
67	0x3ae8bab5	0.0017755838
68	0x3a307761	0.0006731656
69	0x3a22c611	0.0006209324
70	0x3b0944e4	0.0020945603
71	0x3b1412e8	0.0022594277
72	0x3a87e501	0.0010367931
73	0x3b0b9c32	0.0021302816
74	0x3adb3eef	0.001672713
75	0x3b05a2d5	0.0020391245
76	0x3b0434c7	0.002017306
77	0x3ac94854	0.0015356638
78	0x3b263159	0.0025359003
79	0x3a8bf7bd	0.001067869
80	0x3ab67633	0.0013920724
81	0x3b62b781	0.003459424
82	0x3a50a1f9	0.0007958706
83	0x3b326d19	0.0027225672
84	0x3b115280	0.0022174418
85	0x3b3f73e1	0.0029213356
86	0x3aac8901	0.0013163389
87	0x3ab5100f	0.001381399
88	0x3b55bf90	0.00326154
89	0x3ad32e39	0.0016111798
90	0x3a8da2bd	0.0010805946
91	0x3b466ccd	0.0030277253
92	0x3b2c3a9e	0.0026280056
93	0x3ba8956e	0.0051447665
94	0x3b304de8	0.0026901904
95	0x3b578aff	0.0032889245
96	0x3a894b96	0.0010474797
97	0x3a23ec6c	0.0006253186
98	0x3a88ae21	0.0010427871
99	0x3b150edd	0.0022744455
100	0x3b3e0903	0.002899707
101	0x3b115782	0.0022177403
102	0x3a34bac6	0.00068942865
103	0x3afafd1f	0.0019148922
104	0x3aae5966	0.0013301789
105	0x3b23d2b1	0.0024997408
106	0x3ba2bd0d	0.0049663843
107	0x3b5277aa	0.0032114782
108	0x3ad1fad6	0.001602019
109	0x3ad43220	0.0016189255
110	0x3a47035f	0.000759175
111	0x3b328a9a	0.0027243258
112	0x3ad4d119	0.0016236632
113	0x3aad9079	0.0013241909
114	0x3aa73bfe	0.0012758968
115	0x3a24b9d5	0.00062837946
116	0x3a9bf8ca	0.0011899706
117	0x3a2e2371	0.00066428544
118	0x3ac2b7fb	0.0014855856
119	0x3ba17cec	0.004928222
120	0x3b1d20d2	0.0023975861
121	0x3aaa3619	0.0012986093
122	0x3b350109	0.0027619025
123	0x3b353851	0.0027651975
124	0x3a37d5f2	0.00070127763
125	0x3b4f5186	0.0031634285
126	0x3b196c79	0.0023410602
127	0x3a4f8840	0.0007916726
