PeMS/spdn_pems03212864.pth (torch, 405137 bytes, 62 tensors)

weight f4 [128, 7, 1, 1]
0.29162133 -0.2785261 0.18667059 -0.33889797 -0.17316991 0.28582892 -0.09642909 0.076015376
-0.17737906 0.12408459 -0.36062166 0.36604723 -0.11767134 -0.095792145 -0.0076696803 -0.10088351
-0.0038159078 0.08858953 0.035561785 0.17101966 -0.36183882 0.052640464 0.23961355 0.30252844
-0.18514651 0.32633677 -0.40459102 -0.23852497 -0.17488368 0.09754935 0.04103729 -0.33366832
-0.11456478 -0.18415408 0.38025242 -0.10179465 0.038764138 0.049185336 -0.26461643 0.17099999
-0.2436847 0.14719203 -0.10501406 0.14183602 0.20382988 0.036097076 0.10980732 -0.21128066
-0.1563166 -0.019830486 -0.21601845 0.08344956 -0.1425537 0.025840906 -0.022693831 0.07933168
-0.08490321 -0.056617096 0.21337232 0.26796356 0.14997931 -0.30106947 0.14408293 -0.21549386
0.2462989 -0.1971685 -0.05191083 -0.14756094 0.07122405 0.41007364 0.15271078 -0.03270013
0.28181106 -0.33038855 -0.35900247 0.091445565 0.30567715 -0.44002178 0.2622972 0.03214019
0.033272594 0.03383407 0.00042182198 0.20440055 -0.16327481 -0.2813123 -0.31953722 0.039245255
0.044091165 0.36961782 0.31501254 0.27916342 0.06840364 0.28937757 -0.12332947 -0.18848172
0.18819042 -0.2422027 0.12311959 0.23055589 0.074170254 -0.16580905 0.07208999 -0.22296576
-0.24594325 -0.15820776 0.100459754 -0.048869714 -0.08546582 0.0977255 0.17021081 -0.15155749
0.29859236 0.19510107 0.242387 0.26220953 -0.3317494 -0.042185284 -0.28037447 0.27578574
-0.11477419 -0.42538217 -0.19596721 0.013520459 0.07531299 0.21588787 -0.07416562 -0.15199266
-0.20310096 0.479844 -0.07930576 0.36106002 -0.23389518 0.43349767 0.18549798 -0.36971447
-0.19746189 0.012292912 -0.20935173 0.24331938 0.26067266 -0.15539 0.36822096 -0.17109475
-0.053834364 -0.18713616 -0.20139457 -0.14482461 -0.049211632 -0.25332165 -0.06628479 0.2975771
0.11155767 0.280623 0.32791293 -0.004282667 -0.20146234 0.22233568 0.09406128 0.0724898
-0.30891433 -0.2069899 0.28241253 -0.13092016 -0.05549258 -0.008388728 0.19470288 -0.26305556
0.32590526 0.1806839 -0.03985157 0.16900332 -0.15946352 -0.30284363 -0.41192442 -0.23135342
-0.32285732 0.19030306 0.13395123 -0.006420362 0.12319017 0.17278415 0.18479064 0.091435954
-0.2157568 0.015886234 0.21388106 0.3519152 0.20763491 -0.3678461 0.22809364 0.36537516
0.31001872 0.033545263 0.11359376 0.070005454 -0.40213892 -0.13725178 0.0443076 0.2687496
0.1050209 -0.1278554 0.09299364 -0.12702473 0.05538744 0.040925544 0.17939481 -0.2401231
0.12791638 -0.15752749 0.022720657 0.21254118 0.3590124 0.3409116 -0.0133015625 -0.28987962
-0.15730204 -0.38276896 0.14961287 -0.1927722 -0.079865694 -0.033420112 0.035400838 0.23852296
-0.18687756 -0.17538264 0.18029651 0.08483054 0.013245041 -0.053642347 0.031192899 0.20333198
-0.08980752 0.15979482 -0.042448595 0.15881538 0.13096538 -0.3929181 0.36502963 -0.00012654377
0.028872067 -0.04036181 -0.25208065 0.2202783 -0.15348506 -0.2001444 0.26373315 0.00126983
0.18836029 -0.39135784 0.3416332 0.17219414 -0.23360664 -0.3164114 0.089931026 -0.16909704
00000000: 644f 953e f99a 8ebe 9326 3f3e 0984 adbe
00000010: 7453 31be 2b58 923e 9d7c c5bd f3ad 9b3d
00000020: dba2 35be 1020 fe3d 67a3 b8be 8b6a bb3e
00000030: acfd f0bd ac2e c4bd f151 fbbb 049c cebd
00000040: 4f14 7abb 6d6e b53d 3ca9 113d c71f 2f3e
00000050: f042 b9be 879d 573d 415d 753e 02e5 9a3e
00000060: 0c97 3dbe 9d15 a73e 8e26 cfbe e43f 74be
00000070: b514 33be f4c7 c73d b816 283d 93d6 aabe
00000080: f0a0 eabd e392 3cbe 72b0 c23e b779 d0bd
00000090: 25c7 1e3d 9076 493d ce7b 87be 9f1a 2f3e
000000a0: 7b88 79be 82b9 163e 9d11 d7bd 763d 113e
000000b0: c8b8 503e 87da 133d a9e2 e03d f559 58be
000000c0: 7511 20be 8b73 a2bc f133 5dbe 9ae7 aa3d
000000d0: 99f9 11be 4fb0 d33c 6ae8 b9bc a678 a23d
000000e0: bce1 adbd 54e7 67bd 467e 5a3e 8532 893e
000000f0: 2d94 193e c725 9abe 7a8a 133e 6caa 5cbe
00000100: c735 7c3e 8ae6 49be 73a0 54bd 371a 17be
00000110: eadd 913d 2cf5 d13e 3760 1c3e 92f0 05bd
00000120: 8a49 903e b028 a9be 2ccf b7be d047 bb3d
00000130: b781 9c3e 894a e1be d24b 863e 6fa5 033d
00000140: d848 083d 9895 0a3d fd27 dd39 614e 513e
00000150: 8331 27be 2a08 90be 629a a3be a2bf 203d
00000160: f098 343d 8c3e bd3e 5349 a13e 82ee 8e3e
00000170: 3517 8c3d 4c29 943e 2994 fcbd 5a01 41be
00000180: fdb4 403e fc03 78be 2026 fc3d d816 6c3e
00000190: 93e6 973d d9c9 29be eba3 933d 2351 64be
000001a0: 8cd8 7bbe 3701 22be d8bd cd3d 9c2b 48bd
000001b0: b408 afbd 4f24 c83d be4b 2e3e e331 1bbe
000001c0: 19e1 983e 93c8 473e 4c34 783e 5440 863e
000001d0: 0fdb a9be 7aca 2cbd 3e8d 8fbe ca33 8d3e
000001e0: bb0e ebbd b1cb d9be a1ab 48be ea84 5d3c
000001f0: b23d 9a3d b611 5d3e 25e4 97bd f7a3 1bbe
00000200: b3f9 4fbe 1dae f53e 0f6b a2bd dcdc b83e
00000210: 3882 6fbe 68f3 dd3e 2ff3 3d3e 374b bdbe
00000220: 7333 4abe 3668 493c 4d60 56be b728 793e
00000230: e376 853e 8e1e 1fbe 7587 bc3e 7633 2fbe
00000240: 6c81 5cbd 9fa0 3fbe 613a 4ebe e74c 14be
00000250: 2392 49bd 60b3 81be 52c0 87bd 075c 983e
00000260: 5978 e43d d1ad 8f3e 34e4 a73e 9d55 8cbb
00000270: 254c 4ebe f7ab 633e 33a3 c03d 8875 943d
00000280: 052a 9ebe 29f5 53be 6098 903e ef0f 06be
00000290: 304c 63bd e070 09bc 3160 473e 38af 86be
000002a0: 0edd a63e 3305 393e 663b 23bd 350f 2d3e
000002b0: 684a 23be 520e 9bbe c2e7 d2be e9e7 6cbe
000002c0: 8e4d a5be cede 423e 832a 093e e661 d2bb
000002d0: 214b fc3d 54ee 303e c239 3d3e c642 bb3d
000002e0: 5aef 5cbe d923 823c a303 5b3e 3b2e b43e
000002f0: 3f9e 543e 5356 bcbe 6191 693e 7412 bb3e
00000300: c6ba 9e3e c266 093d d8a3 e83d 055f 8f3d
00000310: 27e5 cdbe bb8b 0cbe e37b 353d 8c99 893e
00000320: 3315 d73d 87ec 02be 7373 be3d c512 02be
00000330: f1dd 623d 8ba1 273d 46b3 373e d4e2 75be
00000340: 83fc 023e e34e 21be ac20 ba3c 65a4 593e
00000350: 79d0 b73e f78b ae3e ccee 59bc 1a6b 94be
00000360: c913 21be 4bfa c3be 1e34 193e 1366 45be
00000370: a090 a3bd 87e3 08bd 7800 113d 5d3f 743e
00000380: d55c 3fbe 8297 33be a69f 383e a2bb ad3d
00000390: ba01 593c 14b8 5bbd 4088 ff3c 4236 503e
000003a0: 01ed b7bd 41a1 233e 94de 2dbd 80a0 223e
000003b0: ca1b 063e 902c c9be 2ae5 ba3e d6b0 04b9
000003c0: 1d85 ec3c 6d52 25bd b710 81be a290 613e
000003d0: 302b 1dbe a7f2 4cbe 0808 873e 6d70 a63a
000003e0: 85e1 403e 0e60 c8be 8cea ae3e a953 303e
000003f0: 9436 6fbe ad00 a2be c22d b83d c627 2dbe

bias f4 [128]
-0.061973915 -0.3321102 -0.15970774 -0.34952208 0.18589781 -0.2227667 -0.15407193 -0.3577433
-0.24822871 -0.481258 -0.020721829 -0.22365674 -0.4203813 -0.39924225 -0.10179786 -0.07551889
-0.18983965 -0.27467176 -0.38697 -0.34478825 0.005735168 -0.39609596 -0.051985517 -0.32071927
0.143736 -0.1361685 -0.06914442 0.03151361 -0.0153437285 -0.12927166 0.19038533 0.18427193
-0.16431244 -0.18580802 -0.11543133 -0.10963493 -0.19496612 -0.09853343 -0.08823223 -0.14733264
0.019279407 -0.26596323 -0.11267532 -0.2599499 -0.25008667 -0.14604995 0.16724963 -0.44464296
-0.11848576 -0.38234514 -0.19027862 -0.054179795 0.027537744 -0.4229478 -0.27667394 0.09081303
-0.4453482 -0.15418237 0.40896794 -0.37786862 0.116410375 -0.23940895 -0.24013427 0.10404784
-0.13933326 0.38247192 0.0013355977 -0.19741452 -0.324089 -0.19679919 -0.51202154 -0.3267686
0.1326561 -0.2083027 0.03988985 -0.051713664 -0.22793466 0.25431752 -0.31679308 0.16404168
-0.33939108 -0.08655144 -0.21302488 -0.24199282 0.35445696 -0.016401974 -0.08615292 0.20410344
0.006748285 0.14210646 -0.1655627 -0.25717032 -0.26589778 -0.06618137 -0.2705651 0.39829355
-0.22958995 -0.2748886 -0.4193566 -0.24193496 -0.43485567 -0.08617644 -0.031378783 -0.14876164
-0.2320878 0.22305365 0.21894018 -0.075482585 -0.2979552 -0.15174314 -0.36401758 0.056769833
0.08042994 -0.124238126 -0.1325513 -0.31727132 -0.6009708 -0.10564607 -0.27238348 -0.31362352
-0.26169077 -0.20620677 -0.35651767 -0.34371012 -0.1945189 -0.20034121 0.19203208 -0.23911229
00000000: 5cd8 7dbd 590a aabe 6d8a 23be 8ff4 b2be
00000010: ff5b 3e3e f41c 64be 08c5 1dbe 212a b7be
00000020: ab2f 7ebe 7367 f6be d3c0 a9bc 4606 65be
00000030: 383c d7be 7b69 ccbe 657b d0bd a6a9 9abd
00000040: 5365 42be c7a1 8cbe ef20 c6be 1688 b0be
00000050: 13ee bb3b 17cd cabe c4ee 54bd 5135 a4be
00000060: 882f 133e c16f 0bbe 979b 8dbd 6a14 013d
00000070: 4364 7bbc ca5f 04be 5ff4 423e c8b1 3c3e
00000080: 8541 28be 7544 3ebe 4367 ecbd 4788 e0bd
00000090: 33a5 47be e5cb c9bd 19b3 b4bd 5ede 16be
000000a0: d9ef 9d3c 552c 88be 51c2 e6bd 2718 85be
000000b0: 5c0b 80be 1e8e 15be 7d43 2b3e 3ea8 e3be
000000c0: aaa8 f2bd bec2 c3be 66d8 42be a2eb 5dbd
000000d0: d696 e13c 9d8c d8be 35a8 8dbe 2ffc b93d
000000e0: ae04 e4be fce1 1dbe 3f64 d13e ff77 c1be
000000f0: 9068 ee3d 9f27 75be c2e5 75be 0917 d53d
00000100: 61ad 0ebe 5cd3 c33e 390f af3a 0827 4abe
00000110: feee a5be ba85 49be d813 03bf 374e a7be
00000120: 00d7 073e 4e4d 55be 8a63 233d b5d1 53bd
00000130: b467 69be e835 823e b432 a2be 8bfa 273e
00000140: abc4 adbe e241 b1bd 3223 5abe f7cc 77be
00000150: 627b b53e 6f5d 86bc f170 b0bd 7e00 513e
00000160: b820 dd3b 5b84 113e 4589 29be d4ab 83be
00000170: c123 88be 198a 87bd 8287 8abe 22ed cb3e
00000180: a119 6bbe 33be 8cbe e9b5 d6be ccbd 77be
00000190: 67a5 debe 467d b0bd 0a87 00bd f954 18be
000001a0: 6da8 6dbe 2d68 643e db31 603e 9d96 9abd
000001b0: 958d 98be 8e62 1bbe 8360 babe 7c87 683d
000001c0: 74b8 a43d 8f70 febd 87bb 07be 6371 a2be
000001d0: 39d9 19bf f75c d8bd d975 8bbe 4393 a0be
000001e0: 55fc 85be de27 53be 7c89 b6be c6fa afbe
000001f0: f62f 47be 3f26 4dbe 0fa4 443e dad9 74be

weight f4 [4, 16]
0.18352745 0.5268837 0.095887624 -0.20653348 -0.17621802 -0.41016802 1.585359 -0.14354548
0.5788939 -0.08367961 0.466509 0.058276974 0.09234587 0.1742422 0.75744027 -0.23486513
-0.22228843 -0.19286601 -0.027704163 0.028970798 -0.9102334 0.19731076 0.89483106 -0.18988155
0.039616905 0.13553347 -0.48456272 0.39711484 -0.0867157 -0.13219205 -1.1528683 -0.2794799
0.26732752 0.74894977 -0.18165833 -0.50296354 -0.5334405 -0.5521682 -0.88310504 -0.19376737
0.9192341 -0.13739349 0.71523345 -0.07666239 0.41909635 -0.007207199 -0.29234993 -0.2219791
-0.6805057 -0.7959395 0.038290188 0.22869983 0.48636803 0.65063274 0.87799996 0.41566223
-0.5615201 0.17005843 -0.9544501 0.24824564 -0.0039976165 -0.23924449 0.00016359123 -0.34682372
00000000: 9fee 3b3e dae1 063f bb60 c43d 837d 53be
00000010: 7f72 34be 8b01 d2be 0bed ca3f 96fd 12be
00000020: 6432 143f 3760 abbd 45da ee3e d6b3 6e3d
00000030: d51f bd3d 8c6c 323e 9be7 413f 7c80 70be
00000040: 949f 63be ab7e 45be d7f3 e2bc 2b54 ed3c
00000050: 0e05 69bf d50b 4a3e a613 653f 4f70 42be
00000060: 5645 223d 49c9 0a3e 9b18 f8be a352 cb3e
00000070: 0098 b1bd 5a5d 07be 3091 93bf fd17 8fbe
00000080: 27df 883e 2cbb 3f3f a404 3abe 38c2 00bf
00000090: 8e8f 08bf e55a 0dbf 2c13 62bf f46a 46be
000000a0: ed52 6b3f e1b0 0cbe 8a19 373f 2c01 9dbd
000000b0: cc93 d63e 5e2a ecbb e4ae 95be 7d4e 63be
000000c0: 9f35 2ebf b1c2 4bbf 2cd6 1c3d 4a30 6a3e
000000d0: 3b05 f93e de8f 263f 9bc4 603f aed1 d43e
000000e0: c8bf 0fbf cc23 2e3e d756 74bf 1b34 7e3e
000000f0: 70fe 82bb 82fc 74be b089 2b39 e192 b1be

weight f4 [4, 16]
-0.5719577 0.027372373 -0.07242016 -0.00028489676 -1.0705173 0.0887565 -0.71909964 -1.2638873
0.12370536 -0.42661756 0.01377891 0.07126237 -0.7219646 0.22719069 -0.6576568 -0.57528406
0.18251945 -0.55297905 -0.063531704 0.22833817 -0.41026053 0.24731664 -1.1074046 0.13478358
-0.051762167 0.2969915 0.04366047 -0.018794296 -0.6088955 0.004447864 0.102308325 1.40052
-0.20616151 -0.15313636 0.03823748 -0.16683663 -0.35083187 0.17566772 0.8104023 -0.23809126
-0.115687445 0.22487211 -0.17137215 0.10824002 -0.23988909 -0.024533536 1.4014504 -0.19511318
0.21710703 -0.05200212 -0.09945341 -0.08659974 -0.048430093 0.008174065 -1.1011488 0.20438795
-0.23765336 0.07967183 -0.11169764 0.0126985675 0.629629 -0.025199762 -1.1559556 0.30357432
00000000: d26b 12bf 073c e03c 0551 94bd 325e 95b9
00000010: b606 89bf f8c5 b53d ea16 38bf 0fc7 a1bf
00000020: 3c59 fd3d 9e6d dabe f0c0 613c 01f2 913d
00000030: acd2 38bf ada4 683e 325c 28bf d145 13bf
00000040: 61e6 3a3e 0990 0dbf e91c 82bd 7bd1 693e
00000050: ab0d d2be 9340 7d3e 6fbf 8dbf b504 0a3e
00000060: 9104 54bd 450f 983e 52d5 323d 7ff6 99bc
00000070: 93e0 1bbf 63bf 913b 0787 d13d 3d44 b33f
00000080: 011c 53be c7cf 1cbe e79e 1c3d 39d7 2abe
00000090: 3ca0 b3be 3de2 333e 8676 4f3f 32ce 73be
000000a0: 8aed ecbd e044 663e 2e7c 2fbe f2ac dd3d
000000b0: 7ca5 75be 8efa c8bc ba62 b33f c0cb 47be
000000c0: 4e51 5e3e 2d00 55bd 3bae cbbd 345b b1bd
000000d0: a25e 46bd 83ec 053c 72f2 8cbf 134b 513e
000000e0: 675b 73be fc2a a33d bbc1 e4bd a70d 503c
000000f0: 5e2f 213f bb6f cebc 5af6 93bf 186e 9b3e

weight f4 [4, 16]
-0.0819797 -0.43592185 0.15543309 0.19004886 0.18909726 -0.7621215 0.13109699 -0.11509408
-0.005954727 -0.5168955 -0.14955035 -0.47078508 -0.63789785 -1.5150732 0.22396635 -0.04438741
0.032459628 0.30947763 -0.07746461 -0.34442356 -0.13386784 0.5392327 -0.11417856 0.06922379
-0.14035337 0.4178216 0.024280127 0.28837362 0.34945345 1.7621233 -0.26587325 0.058404986
-0.38548666 -0.22768283 -0.24816673 0.13740946 0.102714024 -1.6500556 0.48840463 -0.116107896
-0.053396653 0.4814644 0.17582442 0.04583888 0.2490081 0.6887067 0.0852447 -0.07014462
-0.0056865346 -0.06504335 0.1103797 -0.08608702 -0.29843825 1.546763 0.02339952 0.016802143
-0.027721008 -0.44156522 0.03639362 -0.04686256 -0.26842466 -0.61795044 -0.26838392 0.11537605
00000000: f9e4 a7bd 2631 dfbe da29 1f3e 2b9c 423e
00000010: b6a2 413e 651a 43bf 4a3e 063e 72b6 ebbd
00000020: df1f c3bb 4353 04bf ba23 19be be0a f1be
00000030: 464d 23bf ebed c1bf 6f57 653e 93cf 35bd
00000040: 63f4 043d da73 9e3e c4a5 9ebd 4958 b0be
00000050: a714 09be 270b 0a3f 73d6 e9bd 34c5 8d3d
00000060: cbb8 0fbe b6ec d53e 1ee7 c63c b5a5 933e
00000070: 90eb b23e 428d e13f 8a20 88be 113a 6f3d
00000080: 825e c5be b025 69be 6b1f 7ebe 11b5 0c3e
00000090: bb5b d23d 0635 d3bf 2c10 fa3e fac9 edbd
000000a0: 73b6 5abd 8082 f63e 510b 343e 8dc1 3b3d
000000b0: fbfb 7e3e 154f 303f c694 ae3d fca7 8fbd
000000c0: 1c56 babb 7335 85bd c10e e23d 644e b0bd
000000d0: e6cc 98be 54fc c53f 5ab0 bf3c a6a4 893c
000000e0: 2b17 e3bc d614 e2be 7a11 153d f5f2 3fbd
000000f0: f56e 89be 0032 1ebf 9e69 89be 474a ec3d

weight f4 [4, 16]
-0.10859232 0.03793896 0.16941012 0.09026496 0.015009522 -0.5383559 -0.12309709 -0.06399804
0.0033783992 -0.07019261 -0.29758498 -0.067926586 0.028070362 1.8511149 0.08824833 -0.08123864
0.038258586 0.012623778 0.20906892 0.027860928 -0.08531216 0.80109394 -0.047250662 -0.02580551
-0.042631168 0.085275084 -0.016427254 -0.20272517 0.021559073 -1.8598912 0.0034178996 -0.20575897
0.08163794 -0.17182612 0.16827404 0.08075215 0.03822319 1.761752 0.21828713 -0.078314506
-0.051518 -0.17733929 0.07441335 -0.12231118 0.17597479 0.590278 0.10011811 0.032889117
0.06562799 0.13113867 -0.13479127 0.05220885 -0.01646763 -1.7266876 0.13944443 -0.0006338328
-0.2867518 -0.26605347 0.0699657 -0.06252109 0.019218376 -0.5868975 0.08724241 -0.009878484
00000000: a665 debd e265 1b3d d979 2d3e d6dc b83d
00000010: 80ea 753c b1d1 09bf 541a fcbd 6811 83bd
00000020: 2268 5d3b 25c1 8fbd 0f5d 98be 181d 8bbd
00000030: d1f3 e53c 55f1 ec3f 8abb b43d 7260 a6bd
00000040: 09b5 1c3d f6d3 4e3c 2a16 563e 9a3c e43c
00000050: 24b8 aebd 7e14 4d3f e989 41bd 1466 d3bc
00000060: 059e 2ebd b4a4 ae3d 7392 86bc 3097 4fbe
00000070: a79c b03c ea10 eebf d7fe 5f3b 7bb2 52be
00000080: cb31 a73d 30f3 2fbe 0850 2c3e 6261 a53d
00000090: eb8f 1c3d 1781 e13f a986 5f3e 5b63 a0bd
000000a0: 8a04 53bd 6e98 35be 0766 983d 497e fabd
000000b0: bc32 343e 761c 173f b90a cd3d bdb6 063d
000000c0: f867 863d 3749 063e b906 0abe f2d8 553d
000000d0: 20e7 86bc 1904 ddbf 85ca 0e3e cd27 26ba
000000e0: 22d1 92be 2938 88be 2d4a 8f3d 0f0b 80bd
000000f0: db6f 9d3c ea3e 16bf 26ac b23d 5dd9 21bc

weight f4 [4, 16]
-0.3677029 -0.45140678 -0.095061764 -0.5387433 -0.09960001 -0.00983538 -0.00013324426 0.0004511576
0.15199932 0.38154426 -0.0028985012 -0.38372004 -0.3153893 -0.5844162 -0.5829166 -0.3603634
-0.09738515 1.6337692 -0.054965507 0.23131791 0.14627758 0.017017677 0.005068128 0.0017094085
0.11819453 -0.8299894 -0.16947497 -0.050441753 0.036649387 -0.14463519 -0.08124722 -0.18657981
0.53678125 -0.96077245 -0.10953545 -0.19515856 -0.05796667 -0.011754737 -0.004586116 -0.00043767935
0.18908295 -0.9907659 0.0241801 -0.06298445 -0.025749944 -0.16786478 -0.08245618 0.0005996304
0.41578367 0.5769714 0.75798655 -0.045043267 0.0110073695 0.005515525 -0.00018273843 -0.001530371
-0.7672953 1.0916537 -0.65683514 0.09881135 0.0055540996 0.07824048 0.045315377 -0.017481958
00000000: 8e43 bcbe ca1e e7be beaf c2bd 15eb 09bf
00000010: 17fb cbbd 9324 21bc 7cb7 0bb9 5989 ec39
00000020: b6a5 1b3e c559 c33e c8f4 3dbb f476 c4be
00000030: b57a a1be 4d9c 15bf 063a 15bf 8d81 b8be
00000040: de71 c7bd 591f d13f 8323 61bd 9ade 6c3e
00000050: cac9 153e a868 8b3c 8a12 a63b 3b0e e03a
00000060: f90f f23d 2f7a 54bf d98a 2dbe 039c 4ebd
00000070: ab1d 163d 3f1b 14be f164 a6bd c70e 3fbe
00000080: 7f6a 093f 2ff5 75bf 1f54 e0bd a5d7 47be
00000090: 756e 6dbd f196 40bc 2147 96bb 5478 e5b9
000000a0: f69e 413e d6a2 7dbf 5815 c63c fefd 80bd
000000b0: 8cf1 d2bc bfe4 2bbe c9de a8bd 8430 1d3a
000000c0: 99e1 d43e 66b4 133f 680b 423f 4a7f 38bd
000000d0: 4158 343c 94bb b43b 799d 3fb9 bb96 c8ba
000000e0: 776d 44bf 4fbb 8b3f 5926 28bf 9b5d ca3d
000000f0: 2aff b53b 8b3c a03d 9e9c 393d 5336 8fbc

weight f4 [4, 16]
0.22250308 0.31081888 -1.302235 -0.073982455 0.01000069 0.0048861476 0.002682267 -3.991596e-05
-0.18496005 0.17721494 0.42336333 0.028402677 -0.0028759865 0.0005466478 0.00079482363 0.000803341
-0.056302767 -1.4165548 -0.1583437 -0.24306588 -0.03416203 -0.0005473351 -9.963484e-05 -0.00030276744
0.15236992 -0.83800954 0.04812647 0.09596832 -0.0013152576 -0.0010518031 -0.0011672808 -0.0011680106
-0.22955607 -0.052855056 -0.1629558 0.15615693 0.023522787 0.0076465337 0.0023899912 -0.00032069845
0.33284414 1.0387051 -0.08071933 -0.08944702 -0.005891455 -0.0002874748 -0.00045595504 -0.0004619667
-0.24221951 0.7121186 -0.38433796 -0.10396594 -0.019997632 -0.008048618 -0.0017935286 0.00091554056
0.13089207 -1.1314176 -0.5633673 0.082242265 0.0071308967 -0.00045903982 -0.00028575407 -0.0002801258
00000000: d9d7 633e a723 9f3e a3af a6bf 1d84 97bd
00000010: efd9 233c fa1b a03b f9c8 2f3b 706b 27b8
00000020: 2b66 3dbe d577 353e 14c3 d83e bbac e83c
00000030: 0c7b 3cbb ea4c 0f3a b65b 503a 4d97 523a
00000040: bb9d 66bd ab51 b5bf da24 22be 43e6 78be
00000050: 7ced 0bbd 097b 0fba 0cf3 d0b8 c2bc 9eb9
00000060: dc06 1c3e cb87 56bf 4320 453d 0a8b c43d
00000070: b964 acba a8dc 89ba 72ff 98ba ef17 99ba
00000080: bf10 6bbe 8b7e 58bd e3dd 26be 9ae7 1f3e
00000090: dcb2 c03c c68f fa3b 66a1 1c3b 6b23 a8b9
000000a0: 8c6a aa3e 4af4 843f 2d50 a5bd 0030 b7bd
000000b0: 1b0d c1bb 37b8 96b9 400d efb9 1f34 f2b9
000000c0: 6408 78be 684d 363f f2c7 c4be 18ec d4bd
000000d0: 13d2 a3bc 5ade 03bc d514 ebba e300 703a
000000e0: 9208 063e 4bd2 90bf d738 10bf a26e a83d
000000f0: 4caa e93b 48ab f0b9 43d1 95b9 d9dd 92b9

weight f4 [4, 16]
0.024368651 -0.9994117 0.37480032 -0.21544252 -0.014632115 -0.0014386441 -0.0012173963 9.2119255e-05
-0.5538116 -1.591335 0.36719623 -0.17012887 -0.016837016 0.034291845 -0.036887612 0.07776407
0.19944187 -1.230475 0.025462225 0.25803643 0.015122608 0.00088326604 0.0020974707 0.00057905377
-0.016281525 1.3093798 -0.38561305 0.30356148 0.29417798 0.28544745 0.37517464 0.26104042
-0.17632902 0.098028645 0.5920364 0.008513761 -0.011914201 0.0012882332 -0.00014746095 4.2604202e-05
-0.4674006 1.4927503 -0.16885987 0.0882756 -0.13186856 -0.113570325 0.046705507 0.11940813
-0.083441794 -1.100253 -0.1113254 0.2441474 0.007291269 -0.00053260796 0.0022394692 0.0005682455
0.31239378 1.1607803 -0.3277844 0.15934165 0.14358763 0.33695263 0.16287462 0.39264163
00000000: c4a0 c73c 72d9 7fbf d4e5 bf3e f79c 5cbe
00000010: 8abb 6fbc e390 bcba 0b91 9fba 2630 c138
00000020: 99c6 0dbf deb0 cbbf 2501 bc3e 4336 2ebe
00000030: c8ed 89bc 9b75 0c3d 7717 17bd c542 9f3d
00000040: 7d3a 4c3e 3480 9dbf 2896 d03c 5a1d 843e
00000050: d1c4 773c fb8a 673a b875 093b a4cb 173a
00000060: d560 85bc c299 a73f 136f c5be 696c 9b3e
00000070: 7f9e 963e 2b26 923e e416 c03e 17a7 853e
00000080: 988f 34be 3ec3 c83d b38f 173f 4d7d 0b3c
00000090: c833 43bc efd9 a83a bf9f 1ab9 eab1 3238
000000a0: 224f efbe 7112 bf3f 9ae9 2cbe d6c9 b43d
000000b0: 8d08 07be 8f97 e8bd 464e 3f3d 408c f43d
000000c0: 88e3 aabd 17d5 8cbf 92fe e3bd c701 7a3e
000000d0: 99eb ee3b b79e 0bba 0fc4 123b 4ff6 143a
000000e0: 14f2 9f3e 7394 943f 5bd3 a7be 752a 233e
000000f0: a308 133e 0e85 ac3e 9bc8 263e 5308 c93e

weight f4 [4, 16]
0.22658622 -0.8907249 -0.06544527 0.18284388 0.027462874 0.0073643634 0.0004717043 -7.828106e-07
0.46572545 1.1360883 -0.5645679 -0.03956505 -0.0020210943 0.00056379946 0.0005713854 0.0005713528
-0.10935573 1.6007164 -0.46012577 0.0028993443 -0.0050493376 -0.0045768716 -3.8311173e-05 0.00014385628
0.10308487 0.6035898 0.5573623 -0.004104353 0.001855564 0.00051276997 0.0005064676 0.0005062394
0.25069684 1.018171 0.10703357 -0.052784514 -0.011911718 -0.0028178578 0.0005221293 1.2969381e-05
0.44754246 -0.6001119 0.13939612 0.014172367 0.00023816788 -0.00033769774 -0.00033412702 -0.0003339123
0.01615039 1.4074961 -0.3261984 -0.011154412 -0.009620485 -0.0042356565 0.000105884224 9.526148e-05
-0.30407685 0.5992457 0.22769168 0.0048610964 0.0020223078 0.0008154622 0.00081043394 0.00080962176
00000000: 3806 683e 8c06 64bf 2b08 86bd 6d3b 3b3e
00000010: d2f9 e03c c250 f13b 144f f739 5622 52b5
00000020: 9173 ee3e 576b 913f 8687 10bf f60e 22bd
00000030: 5674 04bb f1cb 133a 06c9 153a d6c6 153a
00000040: e6f5 dfbd 46e4 cc3f 9b95 ebbe ed02 3e3b
00000050: ea74 a5bb 95f9 95bb 4fb0 20b8 20d8 1639
00000060: 291e d33d dc84 1a3f 4caf 0e3f cf7d 86bb
00000070: 6536 f33a 696b 063a 77c4 043a 27b5 043a
00000080: 565b 803e 6d53 823f 6b34 db3d 9334 58bd
00000090: 5e29 43bc cfab 38bb 81df 083a 1197 5937
000000a0: 4924 e53e efa0 19bf dbbd 0e3e 3733 683c
000000b0: b4bc 7939 060d b1b9 c52d afb9 f310 afb9
000000c0: d34d 843c d528 b43f 7a03 a7be ffc0 36bc
000000d0: 3d9f 1dbc 43cb 8abb 290e de38 1ec7 c738
000000e0: f6af 9bbe 2b68 193f 0228 693e d549 9f3b
000000f0: b288 043b bec4 553a 4d73 543a cc3c 543a

weight f4 [128, 1, 1, 1]
0.050424587 0.053607 0.037230756 -0.053390726 0.049451184 0.031300344 0.036098573 0.045093648
-0.049498502 -0.039798323 0.05331851 -0.08243545 0.03253006 -0.02346309 0.033136442 0.021071143
-0.02895224 0.0387406 -0.038640086 -0.044390228 0.0337494 -0.040396824 -0.030398332 0.060330104
0.048766043 -0.04636606 0.037634715 0.034666672 0.024233455 0.029459069 -0.045139104 0.02814253
0.02355243 0.03466931 -0.033704974 -0.032118324 0.04695214 -0.026050733 -0.0527007 0.040431328
-0.06196779 0.037354823 -0.039246175 0.052349173 -0.05301326 0.0276472 -0.05526307 0.046994723
-0.037277583 0.035447534 0.0347151 0.048220642 0.037695665 0.044728324 -0.03172598 -0.052200135
0.05270285 -0.022639714 0.06123678 -0.04004897 0.04977518 -0.03149408 -0.02753089 0.07661502
-0.042406876 -0.030032549 -0.055814724 -0.032971956 -0.06549547 0.052131046 -0.032196783 -0.04333433
0.038430497 -0.049475282 0.047535826 -0.046162732 -0.045794044 0.04405174 0.043040924 -0.04042813
-0.0318612 -0.042307153 0.056830212 -0.03761034 -0.048847128 0.030930052 -0.04404705 -0.053439613
-0.032625206 -0.051755637 -0.039109882 -0.039516218 0.027576977 -0.046651952 0.03075016 -0.052009765
-0.034592286 -0.041827716 -0.055132847 0.049490836 0.03672591 0.029963534 0.05024719 -0.031100385
0.052513152 -0.04706336 0.05697189 0.023173163 0.029818758 0.042254563 0.039201986 0.045108706
-0.04426635 -0.03336315 -0.043184835 -0.035579998 0.056206655 0.05126399 0.035678614 -0.03912874
0.034116838 -0.03145866 -0.05375518 0.06531395 -0.044325378 -0.043830108 0.054564524 -0.034653038
00000000: 038a 4e3d 0393 5b3d 477f 183d 3cb0 5abd
00000010: 538d 4a3d ca34 003d 19dc 133d 1eb4 383d
00000020: f1be 4abd 9103 23bd 8364 5a3d ebd3 a8bd
00000030: 3d3e 053d ab35 c0bc 14ba 073d 649d ac3c
00000040: 3f2d edbc 77ae 1e3d 1145 1ebd 87d2 35bd
00000050: d03c 0a3d 2477 25bd ec05 f9bc b31c 773d
00000060: e7be 473d 56ea 3dbd dc26 1a3d a4fe 0d3d
00000070: 3d85 c63c 2554 f13c c8e3 38bd 2a8b e63c
00000080: 07f1 c03c 6801 0e3d 3a0e 0abd 818e 03bd
00000090: e350 403d 5968 d5bc b0dc 57bd 529b 253d
000000a0: f0d1 7dbd 5f01 193d 99c0 20bd 166c 563d
000000b0: 6f24 59bd 617c e23c 875b 62bd 8a7d 403d
000000c0: 61b0 18bd 6f31 113d 6c31 0e3d 0283 453d
000000d0: c566 1a3d 0c35 373d 1af3 01bd cfcf 55bd
000000e0: f2de 573d ec76 b9bc 6bd3 7a3d 640a 24bd
000000f0: 0fe1 4b3d f0ff 00bd 7688 e1bc 56e8 9c3d
00000100: d5b2 2dbd d206 f6bc fb9d 64bd 9a0d 07bd
00000110: 7d22 86bd 5d87 553d c6e0 03bd 577f 31bd
00000120: 4c69 1d3d 98a6 4abd edb4 423d 2215 3dbd
00000130: 8992 3bbd 996f 343d ae4b 303d f897 25bd
00000140: e480 02bd 444a 2dbd ccc6 683d 4d0d 1abd
00000150: ed13 48bd 0561 fd3c ae6a 34bd 7fe3 5abd
00000160: 02a2 05bd b8fd 53bd af31 20bd c2db 21bd
00000170: 1de9 e13c 1e16 3fbd c2e7 fb3c 3108 55bd
00000180: a4b0 0dbd 8a53 2bbd fbd2 61bd e7b6 4a3d
00000190: e86d 163d 1676 f53c ffcf 4d3d 3cc6 febc
000001a0: 0818 573d 83c5 40bd 5b5b 693d a5d5 bd3c
000001b0: 7846 f43c 1f13 2d3d 4392 203d e8c3 383d
000001c0: a250 35bd cca7 08bd 95e2 30bd 55bc 11bd
000001d0: f338 663d 31fa 513d bd23 123d 7545 20bd
000001e0: 19be 0b3d ccda 00bd 642e 5cbd 52c3 853d
000001f0: 878e 35bd 3387 33bd 0d7f 5f3d 58f0 0dbd

bias f4 [128]
2.6309368e-05 8.641232e-06 1.6743314e-05 -0.00010348179 -1.4668378e-05 -6.862368e-05 7.6543365e-06 1.8335488e-05
-5.3976037e-05 2.9204646e-05 -2.3640845e-05 -6.072402e-06 -3.313682e-05 -0.00019883194 7.507346e-06 -2.4441476e-07
0.00012198668 -6.574289e-05 -6.311487e-05 -3.847597e-05 6.295959e-05 -1.9149633e-05 -0.00033147368 -2.8474067e-06
3.7580783e-05 -3.575785e-06 3.5892233e-05 -6.8422514e-06 0.00020750606 -5.917015e-06 0.00017093049 9.036152e-05
-2.5268164e-06 -7.982103e-06 -3.0036545e-05 -7.340652e-05 -1.5806485e-05 -2.3851505e-06 -0.00017627636 1.28618085e-05
4.7257876e-05 2.162177e-05 -8.079055e-05 -5.5707795e-05 0.00010259026 -0.00018227866 -3.9301763e-06 1.4348603e-05
-9.264462e-05 0.0002561347 2.6665972e-05 2.8533857e-05 -1.6987078e-05 -4.7071284e-05 4.015815e-05 5.3966527e-05
-0.000102649654 0.00017816048 -4.4543027e-05 -4.7241618e-05 2.361771e-05 -1.6796085e-06 2.3438075e-05 -9.726729e-06
-1.3737059e-05 0.00048704277 0.00010072525 1.7746692e-05 -1.4269091e-05 -1.2750485e-05 0.00013338406 0.00012093517
7.443883e-05 1.6959179e-05 -0.00020974557 1.4740882e-05 5.6777694e-06 1.3542514e-05 -6.463776e-06 2.1942073e-05
-3.2261873e-05 -1.1714053e-05 0.00013221528 1.3412727e-05 -9.740979e-05 -2.798807e-05 8.186525e-07 -2.0632551e-05
-1.3256588e-06 -0.00013867099 -4.458928e-05 -5.3522517e-06 1.7816064e-05 0.00032129546 -2.6440284e-05 4.4825792e-05
-2.1450694e-06 -1.3370886e-05 -1.3038987e-05 3.8078283e-06 0.000100153506 -5.3105587e-06 -0.000117759795 2.2214914e-05
7.4837e-05 -0.00012024976 0.00020102998 -4.8626375e-06 4.7230726e-05 -2.4208714e-05 -1.1409351e-05 -0.00012232001
4.9074624e-06 5.1988764e-06 -3.6829795e-06 7.1264994e-06 6.614247e-05 1.3675962e-05 1.2125569e-05 -1.072861e-05
2.9637627e-06 9.696483e-06 1.3742215e-06 4.9571145e-06 3.681932e-05 -0.00018772879 -8.802401e-05 -2.6547941e-05
00000000: f0b2 dc37 cff9 1037 fe73 8c37 5d04 d9b8
00000010: 3418 76b7 0fea 8fb8 206b 0037 29cf 9937
00000020: 5464 62b8 80fc f437 5450 c6b7 89c1 cbb6
00000030: 64fc 0ab8 8b7d 50b9 9ce7 fb36 1c38 83b4
00000040: 1ad3 ff38 72df 89b8 8a5c 84b8 4261 21b8
00000050: 2c09 8438 86a3 a0b7 a5c9 adb9 1316 3fb6
00000060: 0fa0 1d38 85f7 6fb6 fe8a 1638 7e96 e5b6
00000070: fc95 5939 c68a c6b6 ce3b 3339 7980 bd38
00000080: 6092 29b6 dfea 05b7 fdf6 fbb7 d3f1 99b8
00000090: 2b98 84b7 9310 20b6 d3d6 38b9 0cc9 5737
000000a0: c236 4638 6660 b537 196e a9b8 caa7 69b8
000000b0: ba25 d738 0e22 3fb9 f5df 83b6 c8ba 7037
000000c0: 344a c2b8 d149 8639 bdb0 df37 fe5b ef37
000000d0: 797f 8eb7 686e 45b8 7c6f 2838 1e5a 6238
000000e0: 9d45 d7b8 97d0 3a39 b6d3 3ab8 4d25 46b8
000000f0: a51e c637 e96e e1b5 e29c c437 fc2f 23b7
00000100: 3878 66b7 c659 ff39 753c d338 bbde 9437
00000110: 4765 6fb7 ebea 55b7 03dd 0b39 939e fd38
00000120: 0b1c 9c38 8f43 8e37 26ef 5bb9 9b4f 7737
00000130: ab83 be36 a834 6337 6ae3 d8b6 3e10 b837
00000140: ec50 07b8 7987 44b7 45a3 0a39 3907 6137
00000150: 7c48 ccb8 ecc7 eab7 5fc1 5b35 1114 adb7
00000160: 4aed b1b5 3668 11b9 6005 3bb8 7e97 b3b6
00000170: b573 9537 8c73 a839 14cc ddb7 5403 3c38
00000180: 03f4 0fb6 8553 60b7 06c2 5ab7 fe89 7f36
00000190: 8109 d238 5a31 b2b6 cff5 f6b8 2a5a ba37
000001a0: cff1 9c38 992e fcb8 93cb 5239 bd29 a3b6
000001b0: 9b19 4638 d113 cbb7 ca6a 3fb7 0743 00b9
000001c0: c8aa a436 0272 ae36 1b29 77b6 2a20 ef36
000001d0: f8b5 8a38 cf71 6537 ec6e 4b37 07ff 33b7
000001e0: 0ee5 4636 14ae 2237 e471 b835 4a55 a636
000001f0: 726e 1a38 10d9 44b9 8899 b8b8 45b3 deb7

weight f4 [128]
0.74871457 0.7961275 0.70267385 0.7244841 0.81573826 0.9164023 0.5118996 0.80783343
0.86141956 0.54901004 0.76658547 0.8956129 0.59098005 0.9022558 0.73754466 0.25291175
0.80844176 0.6793891 0.61345655 0.73978776 0.9453314 0.7849433 0.9402736 0.90345556
0.75400114 0.6413595 0.5414991 0.5366273 0.8198021 0.40433973 0.8099177 0.86304337
0.38839805 0.69616354 0.7029784 0.9456132 0.6854647 0.29642072 0.7546402 0.59467965
0.86166066 0.6421129 0.7709799 1.0364623 0.84471136 0.8566055 0.95524246 0.797355
1.011121 0.9359069 1.0569069 0.8599487 0.63096493 0.64030194 0.7451798 0.75870764
0.8655089 0.72886395 0.8304131 0.74556416 0.7356922 0.2970836 0.47523847 0.8415889
0.66929704 1.0845207 0.745316 0.5734796 0.87055683 0.8615026 0.9640321 0.90416193
0.92090607 0.5299091 0.8976697 0.7191413 0.71694696 0.8574063 0.62935144 0.9319327
0.87687194 0.77821255 0.73973846 0.50561166 0.904085 0.67727154 0.48372206 0.76842016
0.33923548 0.85687405 0.7806413 0.45640945 0.54283595 1.0307158 0.6600594 0.63234484
0.3890496 0.57023907 0.6959048 0.86427706 0.9220289 0.54750377 0.8360069 0.55715984
0.82157844 0.84757173 0.90622663 0.2701414 0.90856254 0.6576406 0.4858606 0.8546099
0.71989805 0.39831495 0.39362055 0.3811057 0.7270535 0.8102919 0.6136449 0.6378033
0.46554235 0.95964724 0.8042005 0.90502673 0.9973901 0.7811732 0.8590308 0.48578143
00000000: c2ab 3f3f 03cf 4b3f 6fe2 333f ca77 393f
00000010: 39d4 503f 5799 6a3f da0b 033f 2cce 4e3f
00000020: fe85 5c3f ec8b 0c3f f23e 443f e346 653f
00000030: 784a 173f 3cfa 663f bacf 3c3f a67d 813e
00000040: 0af6 4e3f 72ec 2d3f 7d0b 1d3f bb62 3d3f
00000050: 3d01 723f 0bf2 483f c5b5 703f dd48 673f
00000060: 3806 413f 2330 243f af9f 0a3f 6860 093f
00000070: 8dde 513f 9e05 cf3e c456 4f3f 69f0 5c3f
00000080: 1cdc c63e c637 323f 64f6 333f b513 723f
00000090: 9d7a 2f3f 75c4 973e 1a30 413f ed3c 183f
000000a0: cb95 5c3f 8361 243f f05e 453f ccaa 843f
000000b0: 013f 583f 804a 5b3f c58a 743f 751f 4c3f
000000c0: 6a6c 813f 9897 6f3f ba48 873f 9925 5c3f
000000d0: eb86 213f d4ea 233f 1ac4 3e3f aa3a 423f
000000e0: fe91 5d3f d496 3a3f f495 543f 4bdd 3e3f
000000f0: 5356 3c3f 571b 983e 7552 f33e 5f72 573f
00000100: 0d57 2b3f 93d1 8a3f 08cd 3e3f 8fcf 123f
00000110: d0dc 5e3f 6f8b 5c3f cfca 763f 2877 673f
00000120: 80c0 6b3f 1fa8 073f aecd 653f a519 383f
00000130: d689 373f fb7e 5b3f 2d1d 213f 2493 6e3f
00000140: ae7a 603f f038 473f 805f 3d3f c46f 013f
00000150: 1d72 673f ab61 2d3f 6baa f73e 2fb7 443f
00000160: 46b0 ad3e 195c 5b3f 1cd8 473f 80ae e93e
00000170: 4cf7 0a3f 7fee 833f a7f9 283f 5ae1 213f
00000180: 8231 c73e 30fb 113f d126 323f 4341 5d3f
00000190: 160a 6c3f 3529 0c3f 8c04 563f 07a2 0e3f
000001a0: f752 523f 76fa 583f 78fe 673f f94f 8a3e
000001b0: 8e97 683f 225b 283f b8c2 f83e b7c7 5a3f
000001c0: 3d4b 383f f0ef cb3e a288 c93e 4920 c33e
000001d0: 2e20 3a3f 4a6f 4f3f d517 1d3f 1447 233f
000001e0: 915b ee3e 71ab 753f 15e0 4d3f d5af 673f
000001f0: f554 7f3f f8fa 473f 71e9 5b3f 58b8 f83e

bias f4 [128]
-0.06296533 -0.14289723 -0.17138429 -0.086965 -0.034019906 -0.13458462 -0.19497237 -0.13461176
-0.13167201 -0.2767286 -0.05818782 -0.06377244 -0.1533097 -0.052413672 -0.24845912 -0.099908
-0.20729375 -0.17259803 -0.354384 -0.105709694 -0.14939675 -0.06362822 -0.09092146 -0.16118552
-0.055512175 -0.1972367 -0.027705587 0.056471195 -0.20461684 -0.065885685 -0.06264322 -0.17134485
-0.09582237 -0.05942352 -0.3036338 -0.092067085 -0.12280764 -0.06911116 -0.09958961 -0.039528247
-0.11582534 -0.22585711 -0.047433265 -0.07737386 -0.11974607 -0.15309966 -0.067050025 -0.16200766
-0.042330097 -0.038574643 -0.2098682 -0.15333053 -0.10463714 -0.21060039 -0.112892285 -0.059013568
-0.11231236 -0.3682783 0.08927322 -0.15765579 -0.12942511 -0.098353714 -0.07594176 -0.093102425
-0.17161071 0.038224842 -0.06458476 -0.25599563 -0.16381939 -0.13670442 -0.18652473 0.0008497289
-0.16341375 -0.1514743 -0.006640218 -0.14685644 -0.145018 -0.028325688 -0.1662469 -0.12939385
-0.21164876 -0.1635416 -0.09064976 -0.23252569 0.058096133 -0.22970942 -0.18787482 0.017454363
-0.21603158 -0.07972793 -0.17267221 -0.010308936 -0.048102718 0.059654977 -0.3489498 0.11116744
-0.1913185 -0.032693516 -0.2628073 -0.36075795 -0.13679531 -0.07571909 -0.041302342 -0.113842815
-0.20719239 -0.10219332 0.0019006268 -0.10870055 -0.24303964 -0.19920915 -0.19574483 -0.10386409
-0.08526322 -0.14630084 -0.2130004 -0.1133664 -0.33463842 -0.10368672 -0.07006158 -0.13608913
-0.14135976 -0.046838637 -0.1326958 -0.01771236 0.022241287 -0.22762077 0.023910504 -0.08476791
00000000: f8f3 80bd a753 12be 5d7f 2fbe b51a b2bd
00000010: 7558 0bbd 8dd0 09be d6a6 47be aad7 09be
00000020: 07d5 06be 5faf 8dbe 5a56 6ebd 209b 82bd
00000030: 38fd 1cbe b8af 56bd 116c 7ebe 919c ccbd
00000040: d044 54be 8abd 30be d271 b5be 537e d8bd
00000050: 76fb 18be 834f 82bd 0835 babd d10d 25be
00000060: bc60 63bd 6bf8 49be d4f6 e2bc 574e 673d
00000070: 1487 51be 13ef 86bd 174b 80bd 0675 2fbe
00000080: 853e c4bd 1466 73bd e475 9bbe ab8d bcbd
00000090: 9282 fbbd 278a 8dbd a3f5 cbbd 5fe8 21bd
000000a0: d635 edbd 1647 67be 6249 42bd 3076 9ebd
000000b0: 6d3d f5bd 28c6 1cbe 8651 89bd 56e5 25be
000000c0: 5362 2dbd 7200 1ebd b0e7 56be ae02 1dbe
000000d0: ff4b d6bd a1a7 57be 1234 e7bd 36b8 71bd
000000e0: 0604 e6bd f98e bcbe e1d4 b63d 8570 21be
000000f0: 0488 04be ac6d c9bd 5a87 9bbd 7cac bebd
00000100: b8ba 2fbe a791 1c3d 0445 84bd dc11 83be
00000110: 45c0 27be 3efc 0bbe 5700 3fbe 57c0 5e3a
00000120: ef55 27be 141c 1bbe 3096 d9bb 8961 16be
00000130: 997f 14be 460b e8bc a13c 2abe d27f 04be
00000140: 74ba 58be 7377 27be 95a6 b9bd 371b 6ebe
00000150: 36f6 6d3d f238 6bbe 4262 40be 74fc 8e3c
00000160: 6237 5dbe 6648 a3bd fcd0 30be d0e6 28bc
00000170: 5b07 45bd c758 743d 8ca9 b2be c1ab e33d
00000180: ffe8 43be a3e9 05bd ae8e 86be 44b5 b8be
00000190: 1214 0cbe 9c12 9bbd a52c 29bd 6c26 e9bd
000001a0: 3e2a 54be bb4a d1bd 741e f93a 659e debd
000001b0: 62df 78be 7cfd 4bbe 5571 48be b2b6 d4bd
000001c0: 7c9e aebd e3cf 15be c71c 5abe a52c e8bd
000001d0: ba55 abbe b459 d4bd 727c 8fbd f35a 0bbe
000001e0: 9dc0 10be dfd9 3fbd 68e1 07be 8319 91bc
000001f0: 5c33 b63c 6b15 69be f6df c33c cc9a adbd

running_mean f4 [128]
0.00277019 0.0029095062 0.0020667817 -0.0029300211 0.00273308 0.0016848185 0.0019465464 0.0024712307
-0.0026863196 -0.0021094522 0.002934509 -0.0044487673 0.0017638828 -0.0012636656 0.0017915886 0.0011675913
-0.0015932183 0.0021029592 -0.0020802717 -0.0024403706 0.0018337762 -0.0022062 -0.0017485544 0.003242077
0.002639628 -0.0024938348 0.0020461371 0.0018873375 0.001303059 0.0016238112 -0.0024860865 0.0015795736
0.0012993327 0.0018580507 -0.0018656157 -0.0018368155 0.0025503023 -0.0014166821 -0.0028602665 0.0022137954
-0.0032848392 0.002032354 -0.0022065002 0.0030140397 -0.0029240916 0.001543881 -0.0030157112 0.0025624414
-0.0016477965 0.0019764863 0.0017486307 0.0025597513 0.0020775439 0.0024430044 -0.0017557242 -0.0028016015
0.002847235 -0.0012621265 0.0032692885 -0.002199146 0.0027372683 -0.001681363 -0.001490026 0.0040658675
-0.0022906237 -0.0015886138 -0.0029690533 -0.0018098071 -0.0035316618 0.0027583474 -0.0017126201 -0.0023717112
0.0019240067 -0.0026200016 0.0025373467 -0.0024861936 -0.0025089022 0.002397376 0.002358151 -0.0021738713
-0.0017611928 -0.0023080334 0.0030802148 -0.0020525474 -0.0026749738 0.001700908 -0.00234744 -0.0028852439
-0.0017544695 -0.002838298 -0.0021477598 -0.0021103483 0.0014841085 -0.002546948 0.001658586 -0.002797736
-0.001916553 -0.0022469987 -0.0030323633 0.0026977344 0.0019234257 0.0016280608 0.0027417317 -0.0017008247
0.0028851917 -0.002595029 0.0030236046 0.0012661304 0.0016491135 0.0022831287 0.0021233591 0.0024493253
-0.0023107438 -0.0018009451 -0.002292602 -0.0018956366 0.0031197444 0.0027609982 0.0019201189 -0.0021178892
0.0018639973 -0.0018133182 -0.0029389577 0.0035016441 -0.0024498147 -0.0024300679 0.002985634 -0.0018679529
00000000: 138c 353b 6aad 3e3b d872 073b 9905 40bb
00000010: 791d 333b 21d5 dc3a 4223 ff3a 5ff4 213b
00000020: f70c 30bb bc3e 0abb e450 403b f7c6 91bb
00000030: 1632 e73a 95a1 a5ba bdd3 ea3a dd09 993a
00000040: 89d3 d0ba cdd1 093b 2b55 08bb a0ee 1fbb
00000050: 525b f03a e595 10bb c02f e5ba 0779 543b
00000060: 9cfd 2c3b 9b6f 23bb 7c18 063b 8a60 f73a
00000070: 68cb aa3a 10d6 d43a 9ced 22bb b209 cf3a
00000080: 5f4e aa3a d689 f33a ad87 f4ba 4dc1 f0ba
00000090: f922 273b f7af b9ba 4f73 3bbb 5315 113b
000000a0: 7546 57bb 3e31 053b ee9a 10bb 3287 453b
000000b0: 1ea2 3fbb 0d5c ca3a 3da3 45bb a2ee 273b
000000c0: e0fa d7ba f087 013b 4f32 e53a 80c1 273b
000000d0: 6727 083b d01a 203b 5420 e6ba 139b 37bb
000000e0: ad98 3a3b f06d a5ba 8f41 563b 8c1f 10bb
000000f0: be63 333b 2e61 dcba fa4c c3ba f83a 853b
00000100: 4a1e 16bb 0939 d0ba 7394 42bb 0d37 edba
00000110: 7473 67bb 64c5 343b ff79 e0ba b66e 1bbb
00000120: f42e fc3a 55b4 2bbb 9d49 263b 68ef 22bb
00000130: 656c 24bb 4c1d 1d3b 358b 1a3b 8277 0ebb
00000140: d3d7 e6ba 6042 17bb 6edd 493b 0884 06bb
00000150: 9d4e 2fbb 00f1 de3a 82d7 19bb 5c16 3dbb
00000160: 3af6 e5ba bd02 3abb 6ec1 0cbb c54d 0abb
00000170: 6b86 c23a b2ea 26bb e964 d93a 395a 37bb
00000180: d934 fbba 6242 13bb 9dba 46bb 79cc 303b
00000190: 751b fc3a a864 d53a a0ae 333b 35ee deba
000001a0: 7c15 3d3b 5d11 2abb ab27 463b 49f4 a53a
000001b0: 1127 d83a 8ba0 153b 0e28 0b3b dc84 203b
000001c0: d96f 17bb b10d ecba 7b3f 16bb 0277 f8ba
000001d0: a074 4c3b ddf1 343b 80ac fb3a 49cc 0abb
000001e0: 5f51 f43a ddac edba 879b 40bb d77b 653b
000001f0: 128d 20bb c641 1fbb a0aa 433b 19d6 f4ba

running_var f4 [128]
0.002505109 0.0028246876 0.0014689126 0.002782662 0.0024655585 0.0009904444 0.0012463114 0.0019993882
0.002414194 0.0016002969 0.0029392901 0.006575769 0.0010429383 0.00056337303 0.0011623532 0.000477818
0.0008326977 0.0014733515 0.0015012035 0.0018892668 0.0011297715 0.0016247611 0.0009105286 0.0035867803
0.002380278 0.0020004974 0.0013793543 0.0011881482 0.0005760615 0.0009341152 0.0020156 0.0008309418
0.00057075795 0.0011413146 0.0011779756 0.001014757 0.0021641848 0.0006722918 0.0025668337 0.0015462805
0.0036866937 0.001387882 0.001521129 0.0027074595 0.0028202685 0.00077680754 0.0029280707 0.0021528013
0.0013802171 0.0012594836 0.0012073684 0.0023096816 0.0014178028 0.001912263 0.001035842 0.0025858174
0.002809061 0.00052516913 0.003748752 0.0015739977 0.0023855653 0.0008914638 0.00073167484 0.0056797434
0.0017973512 0.00089732365 0.00303628 0.0010862399 0.004261559 0.00268613 0.0010404078 0.0018832393
0.0014202038 0.0021451816 0.002208067 0.0020505246 0.0021498867 0.0018084128 0.0018197548 0.001602219
0.0010018739 0.0018026171 0.0032000155 0.0013622333 0.002311983 0.0009601001 0.0017999221 0.0027545213
0.0009854704 0.002654522 0.0015477331 0.001422071 0.0006903816 0.0021553123 0.0009607725 0.002580619
0.0011803835 0.0016802109 0.0030996932 0.002363542 0.0013341208 0.0008549533 0.0024073932 0.0010200249
0.0027224484 0.002163216 0.0032163344 0.00054943794 0.0009008945 0.0017725392 0.0014952681 0.0021166354
0.0018678257 0.0010483052 0.0017281958 0.0011731599 0.0031534166 0.0025210502 0.0012868007 0.0015012865
0.0012197676 0.00096943084 0.00290332 0.0041483813 0.0020304099 0.0018072133 0.0029193673 0.0011553114
00000000: c12c 243b 651e 393b 8788 c03a 525d 363b
00000010: 3595 213b cdd1 813a 455b a33a 2b08 033b
00000020: 7437 1e3b 0ec1 d13a 1ba1 403b 8c79 d73b
00000030: 34b3 883a 53af 133a 1a5a 983a a583 fa39
00000040: 6649 5a3a 791d c13a 08c4 c43a 46a1 f73a
00000050: d714 943a f0f5 d43a 8ab0 6e3a 3010 6b3b
00000060: 70fe 1b3b c71a 033b 73cb b43a a3bb 9b3a
00000070: d502 173a 69df 743a 2818 043b 8fd3 593a
00000080: eb9e 153a 2a98 953a 4d66 9a3a 9801 853a
00000090: ffd4 0d3b bd3c 303a 5338 283b 90ac ca3a
000000a0: 759c 713b 98e9 b53a 9f60 c73a a26f 313b
000000b0: 41d4 383b aca2 4b3a e0e4 3f3b 0316 0d3b
000000c0: 67e8 b43a 4215 a53a 9040 9e3a 075e 173b
000000d0: 91d5 b93a e6a4 fa3a 17c5 873a d176 293b
000000e0: 3918 383b 81ab 093a 9fad 753b 994e ce3a
000000f0: 2557 1c3b 1fb1 693a decd 3f3a 241d ba3b
00000100: 1995 eb3a 5f3a 6b3a 53fc 463b 2a60 8e3a
00000110: 8ca4 8b3b c909 303b 4b5e 883a 06d7 f63a
00000120: 2226 ba3a 2d96 0c3b 38b5 103b 1862 063b
00000130: 1de5 0c3b 4408 ed3a d784 ee3a 8c01 d23a
00000140: 4f51 833a cb45 ec3a 5ab7 513b f78c b23a
00000150: a384 173b 3aaf 7b3a 5deb eb3a 3385 343b
00000160: e62a 813a 7df7 2d3b 4edd ca3a c964 ba3a
00000170: bafa 343a 2440 0d3b 5adc 7b3a 9a1f 293b
00000180: 19b7 9a3a 863a dc3a 3924 4b3b a8e5 1a3b
00000190: aadd ae3a f21e 603a 5bc5 1d3b 5bb2 853a
000001a0: 1b6b 323b bec4 0d3b 23c9 523b 2808 103a
000001b0: 022a 6c3a 8c54 e83a dffc c33a 40b7 0a3b
000001c0: d5d1 f43a 4967 893a a184 e23a b7c4 993a
000001d0: 8da9 4e3b 3438 253b dea9 a83a d1c6 c43a
000001e0: 9ce0 9f3a 6721 7e3a a045 3e3b 25ef 873b
000001f0: a010 053b 04e0 ec3a db52 3f3b d16d 973a

weight f4 [64, 896, 1, 1]
-0.045622084 -0.16264221 -0.0031766992 -0.0053122607 0.028586518 -0.026001958 -0.06221638 -0.023970192
0.04698945 -0.00019241111 -0.06444147 0.042217642 0.034215722 -0.12082255 -0.026064489 -0.005652845
0.01103086 0.046739805 -0.080449164 0.0062030656 -0.00400031 0.004329658 -0.08737984 -0.17125225
-0.026903866 -0.04746005 -0.026961733 -0.009060822 -0.103933305 0.0075835995 -0.06472346 0.012176534
0.010304015 -0.004260942 -0.050213117 -0.04055557 0.042971995 0.022767307 0.046190348 -0.04825473
0.010877677 -0.004596062 -0.013968513 -0.037000623 0.00048730505 -0.11943095 -0.0040211044 -0.09467378
0.016356662 -0.1544713 -0.0055047697 -0.0281552 0.0034994364 -0.15548766 -0.021228401 0.050715286
0.013322288 -0.055368397 -0.12248444 -0.014298918 0.026088145 -0.009164491 -0.022187764 -0.007887663
0.043247323 0.09745619 0.04795839 0.014109394 -0.015249159 -0.10196645 0.034143526 0.05323237
0.03717438 0.016212415 0.002554821 0.018173642 -0.02000637 -0.034115512 0.024636239 -0.020129256
0.017785423 0.041649226 0.03460996 -0.036718924 0.024531595 -0.011642085 0.028717477 -0.078328505
-0.021112004 0.0018891805 -0.05758841 -0.040391974 -0.022710616 0.07733274 0.010365015 -0.08192127
0.005662577 0.010147801 0.008808192 -0.051236477 -0.050742578 -0.05370574 -0.02492503 0.0054306877
0.034903586 0.034877367 0.068239465 0.0033965576 -0.08510685 0.03253755 0.0037299385 -0.084241375
0.07414741 -0.011094834 -0.016543806 -0.039064217 -0.1298919 0.019900993 0.025587821 0.0064937975
0.009942276 -0.010306553 -0.034717564 -0.086742245 -0.009316137 -0.16366288 0.035306722 0.009162585
0.000820322 -0.007533154 -0.007462501 -0.22522134 0.038395233 6.521526e-05 -0.0698381 0.04837866
-0.03961876 0.04768986 0.08548 -0.07245438 0.020463336 -0.013490525 -0.02432038 0.0033907741
-0.0508522 0.007587562 0.006194332 0.047207445 0.006501688 0.045771595 -0.09263937 0.029453676
-0.07977494 -0.003430183 -0.02814001 0.015639594 -0.012356645 0.0024611081 -0.007071356 0.015302066
-0.008610038 -0.047314707 0.08978758 0.036656514 0.026983636 -0.007037235 -0.0063600773 -0.062197085
-0.11192604 -0.08159879 -0.10201953 -0.017845683 -0.0032781963 -0.0074649374 -0.023571089 -0.042508844
-0.028333027 -0.03957364 0.058509007 0.014526584 -0.014080869 -0.07365 0.035270188 -0.025776945
0.027004296 0.024215167 -0.20620663 -0.038979482 0.0112608215 0.002349729 0.011747748 0.0029228183
-0.017609326 0.036354665 0.019865267 -0.013365628 -0.03040376 -0.09595875 -0.010555224 0.025282279
0.041126452 -0.013262424 0.0024550685 -0.04934762 0.0065153213 -0.014980266 0.1265689 -0.0558955
0.00662461 -0.007966509 -0.05905881 -0.08817516 -0.03817756 0.0061973063 -0.0051419386 -0.04779369
-0.047039364 0.057260726 0.0530403 -0.007872149 -0.0029178474 -0.04029023 0.04430994 -0.07983216
0.004454063 -0.02209863 -0.016519723 -0.0028944043 -0.07910285 -0.009514738 -0.037964046 -0.00085626106
-0.061009742 -0.062311534 -0.039032582 0.0058810236 0.036701966 -0.030768443 0.041854765 -0.10206863
-0.120529436 0.0134508135 -0.06474239 0.0055864356 -0.11017951 -0.022134664 0.003725841 0.010537647
-0.0090681 -0.029405935 -0.09629915 0.026131783 -0.04494196 -0.014676123 0.11352666 0.007812163
00000000: 39de 3abd ae8b 26be 2b30 50bb 7912 aebb
00000010: 462e ea3c 0f02 d5bc 9ad6 7ebd 235d c4bc
00000020: 0278 403d f7c1 49b9 e4f9 83bd 68ec 2c3d
00000030: c925 0c3d d071 f7bd 3285 d5bc 803b b9bb
00000040: c8ba 343c 3d72 3f3d 88c2 a4bd 1643 cb3b
00000050: 0815 83bb cedf 8d3b 34f4 b2bd c05c 2fbe
00000060: 7f65 dcbc 7865 42bd dade dcbc d873 14bc
00000070: fcda d4bd d87f f83b bc8d 84bd 1680 473c
00000080: 2cd2 283c 5f9f 8bbb 45ac 4dbd 991d 26bd
00000090: 6703 303d 8182 ba3c 1732 3d3d c0a6 45bd
000000a0: 4938 323c 909a 96bb 31dc 64bc f78d 17bd
000000b0: fa7c ff39 3798 f4bd 78c3 83bb 54e4 c1bd
000000c0: 68fe 853c b92d 1ebe 5b61 b4bb bca5 e6bc
000000d0: cd56 653b 2838 1fbe 2fe7 adbc d5ba 4f3d
000000e0: ba45 5a3c f9c9 62bd 1fd9 fabd 0246 6abc
000000f0: ceb6 d53c a926 16bc 1dc3 b5bc 423b 01bc
00000100: 1b24 313d 1c97 c73d 0470 443d 162b 673c
00000110: 9cd7 79bc c9d3 d0bd 15da 0b3d 300a 5a3d
00000120: 2a44 183d e6cf 843c c96e 273b e4e0 943c
00000130: 66e4 a3bc b5bc 0bbd f0d1 c93c 1ce6 a4bc
00000140: bcb2 913c 6198 2a3d 2cc3 0d3d 9566 16bd
00000150: 7cf6 c83c 72be 3ebc ea40 eb3c b26a a0bd
00000160: 15f3 acbc 619e f73a d3e1 6bbd 0e72 25bd
00000170: 9d0b babc a160 9e3d 06d2 293c 57c6 a7bd
00000180: 248d b93b f642 263c 3c50 103c 57dd 51bd
00000190: 73d7 4fbd 8dfa 5bbd 942f ccbc e9f3 b13b
000001a0: 10f7 0e3d 92db 0e3d 22c1 8b3d c898 5e3b
000001b0: 804c aebd 1846 053d fc71 743b be86 acbd
000001c0: 99da 973d 1bc7 35bc e086 87bc cd01 20bd
000001d0: 6202 05be 6807 a33c 8d9d d13c ecc9 d43b
000001e0: eee4 223c d1dc 28bc 0134 0ebd eba5 b1bd
000001f0: b6a2 18bc 3e97 27be c89d 103d ab1e 163c
00000200: e10a 573a add8 f6bb ff87 f4bb 6ca0 66be
00000210: 5244 1d3d 2dc4 8838 4707 8fbd b428 463d
00000220: 4847 22bd 7156 433d 2310 af3d f662 94bd
00000230: baa2 a73c 5d07 5dbc 893b c7bc c037 5e3b
00000240: 654a 50bd 15a1 f83b d3f9 ca3b 985c 413d
00000250: 1d0c d53b ff7a 3b3d b6b9 bdbd d648 f13c
00000260: 0b61 a3bd eccc 60bb e185 e6bc 9b1e 803c
00000270: 8773 4abc 8b4a 213b d5b6 e7bb 84b5 7a3c
00000280: 1e11 0dbc 11cd 41bd 8de2 b73d 2425 163d
00000290: c90c dd3c 9b98 e6bb 3268 d0bb 5fc2 7ebd
000002a0: 7b39 e5bd 441d a7bd 9eef d0bd 1c31 92bc
000002b0: 02d7 56bb 6f9c f4bb 2818 c1bc c11d 2ebd
000002c0: aa1a e8bc f817 22bd 24a7 6f3d e900 6e3c
000002d0: 72b3 66bc d0d5 96bd 7977 103d 2c2a d3bc
000002e0: 1d38 dd3c e35e c63c d527 53be f3a8 1fbd
000002f0: 4f7f 383c e9fd 193b a079 403c c18c 3f3b
00000300: 6f41 90bc a1e8 143d 7cbc a23c 82fb 5abc
00000310: 4e11 f9bc 0586 c4bd d1ef 2cbc c81c cf3c
00000320: 3674 283d a34a 59bc 37e5 203b bb20 4abd
00000330: 7a7e d53b ca6f 75bc 479b 013e aef2 64bd
00000340: 4213 d93b f685 02bc a7e7 71bd 2e95 b4bd
00000350: 1360 1cbd c612 cb3b b57d a8bb 51c3 43bd
00000360: 59ac 40bd 398a 6a3d c940 593d 30fa 00bc
00000370: 5b39 3fbb 5e07 25bd 577e 353d 0b7f a3bd
00000380: 63f3 913b 3008 b5bc 5f54 87bc 0cb0 3dbb
00000390: ad00 a2bd b4e3 1bbc 3080 1bbd b576 60ba
000003a0: 5ae5 79bd 613a 7fbd a1e0 1fbd 9ab5 c03b
000003b0: cd54 163d 1a0e fcbc e76f 2b3d 5c09 d1bd
000003c0: 23d8 f6bd cd60 5c3c a897 84bd 6b0e b73b
000003d0: cca5 e1bd c153 b5bc 3d2d 743b 18a6 2c3c
000003e0: 5e92 14bc b7e4 f0bc 7d38 c5bd 5212 d63c
000003f0: 1015 38bd 1f74 70bc aa80 e83d 2cfd ff3b

bias f4 [64]
0.076933 0.052119818 -0.26801082 -0.10894016 -0.019732337 -0.03609553 -0.027533669 -0.02488802
-0.04136601 -0.025576342 0.03822111 -0.06754256 -0.027467033 -0.2308494 0.10031911 0.020182798
-0.09316842 -0.10620491 -0.077892095 0.028717123 -0.07921458 -0.10919333 0.089314975 -0.052121237
0.03089476 -0.07000599 -0.023727857 0.0051277727 0.024524987 -0.046330854 -0.059256572 0.037540104
-0.061562013 -0.12945336 0.025851747 0.022209648 -0.04874241 0.016917428 0.010790698 0.052094568
-0.080194734 -0.02086929 -0.025691826 -0.05000186 -0.039130364 -0.04412127 -0.06383594 0.06614851
-0.08575509 -0.039409198 -0.05469733 0.03746591 -0.04779952 -0.011524996 -0.023010349 -0.022957865
-0.058808614 0.04057993 0.028383149 0.0009870507 -0.05985779 -0.050550368 -0.041204717 0.04534268
00000000: 0c8f 9d3d 977b 553d b738 89be 051c dfbd
00000010: b6a5 a1bc e8d8 13bd 4a8e e1bc f6e1 cbbc
00000020: 686f 29bd 7a85 d1bc bd8d 1c3d c153 8abd
00000030: 8b02 e1bc c963 6cbe 1b74 cd3d 6556 a53c
00000040: 16cf bebd f681 d9bd e485 9fbd 2c40 eb3c
00000050: 413b a2bd c1a0 dfbd c5ea b63d 147d 55bd
00000060: 0217 fd3c 4d5f 8fbd ec60 c2bc e006 a83b
00000070: a0e8 c83c 6cc5 3dbd 05b7 72bd a7c3 193d
00000080: 7328 7cbd 6c8f 04be 0bc7 d33c 02f1 b53c
00000090: 1fa6 47bd 6b96 8a3c 78cb 303c 1d61 553d
000000a0: 233d a4bd 13f6 aabc aa77 d2bc c0ce 4cbd
000000b0: 2947 20bd 81b8 34bd 6bbc 82bd df78 873d
000000c0: 5da0 afbd 8a6b 21bd 4f0a 60bd db75 193d
000000d0: 6ec9 43bd 56d3 3cbc 3380 bcbc 2212 bcbc
000000e0: 4de1 70bd 2437 263d c783 e83c ed5f 813a
000000f0: 712d 75bd e70d 4fbd 47c6 28bd 3fb9 393d
