PeMS/spdn_pems08212864.pth (torch, 405137 bytes, 62 tensors)

weight f4 [128, 7, 1, 1]
000000 9b b5 8b be 95 f4 8c 3e 31 ce 81 3d 29 66 e0 3c
       -0.2728699 0.2753035 0.06338156 0.027392464
000010 97 e0 bc bc 34 8d 42 bd f1 78 01 3e 77 d2 ef be
       -0.023056312 -0.047497943 0.12643792 -0.4684026
000020 6d 8e 8e 3e b7 78 0a 3e f8 d1 b1 3d 72 07 07 3d
       0.27843037 0.13522612 0.086826265 0.032966085
000030 bb 2b 88 be ca ce 61 bd 44 a9 2d 3e 9a de e2 bd
       -0.26595864 -0.05512885 0.16959101 -0.11077614
000040 d0 25 0a be cb 88 20 3e ff 98 8a bd 91 9c ea bd
       -0.13490987 0.15677182 -0.06767463 -0.11455644
000050 6f 5c 8b 3e 23 e3 70 3e 30 94 b4 be 96 dd c6 3c
       0.2721896 0.23524146 -0.35269308 0.024275582
000060 b5 86 e2 be 04 0d 9e 3d 11 d7 26 3e 72 96 0b 3e
       -0.44243398 0.07717326 0.16292979 0.13631609
000070 ff d3 61 be ba 23 c9 bb e9 1b 26 3d a1 b7 81 be
       -0.22053526 -0.006138292 0.04055396 -0.2533541
000080 7f 21 0f 3d 1d f9 80 3e b7 b6 1d be 20 dd 87 3e
       0.034944054 0.25190058 -0.15401731 0.26535892
000090 e2 84 86 3e 98 9f 41 3e e3 63 97 be 3d 45 51 3e
       0.26273257 0.18908536 -0.29568395 0.20436569
0000a0 58 da c5 be c0 73 96 be e9 ce 64 be ff 76 1e 3e
       -0.38643146 -0.29385185 -0.22344555 0.15475081
0000b0 24 bd a0 3e 51 95 7f be 57 6b 4b 3e f6 52 46 bc
       0.31394303 -0.24959303 0.19865166 -0.01210474
0000c0 99 cc 00 3e b0 c3 7d be 17 6a e6 bc e9 cf 77 be
       0.12578048 -0.2478168 -0.02812676 -0.24200405
0000d0 b8 9d 1d be ec 83 63 be ac b5 f7 3d 2a d8 b2 3e
       -0.15392196 -0.22218293 0.12095198 0.34930545
0000e0 c5 b1 08 be 6e 6f 6b bd 13 47 bb bd 45 c2 12 3e
       -0.13349064 -0.057479315 -0.09144416 0.1433192
0000f0 d5 a4 f2 bc 32 2e e8 bd 75 ac d9 bd bc 68 b1 3d
       -0.029619614 -0.11336936 -0.10628597 0.086625546
000100 fc 2b 24 be 37 61 0c bd 83 59 14 be 8e ac 8b be
       -0.16032404 -0.0342724 -0.14487271 -0.27280086
000110 1e 64 6f 3e 6f f9 2a 3e b0 f3 19 3e 3e 49 33 3e
       0.23378035 0.16696714 0.15034366 0.17508408
000120 f6 cb 38 3e bf ed 7b bc 0d 63 2b be 9d 12 46 3e
       0.18046555 -0.015376507 -0.16737004 0.19343038
000130 9d 23 3e be 6f d1 9d 3e e5 3f ee 3d 47 83 46 3e
       -0.18568273 0.30823848 0.11633281 0.19386016
000140 f0 07 31 bc 27 77 aa 3e bc 11 b2 be 9b 2c b7 be
       -0.010805115 0.3329403 -0.34779155 -0.3577622
000150 d8 dd 12 be 84 49 92 be 99 f0 4d 3d 10 6c a7 3e
       -0.14342439 -0.28571713 0.05027828 0.32699633
000160 c4 44 1a 3e a8 c3 df 3c 2b 73 87 be 8d 02 c0 bd
       0.15065295 0.027314976 -0.26455054 -0.093754865
000170 09 1d a8 b8 1c e8 22 be 62 05 10 be 44 7c 99 be
       -8.0162725e-05 -0.15908855 -0.14064553 -0.2997762
000180 53 f9 97 3d 55 b8 aa 3e b0 4c 8b be da 5d 31 3e
       0.07420602 0.3334376 -0.27206945 0.17320958
000190 bf c1 57 3d 7e 71 ae bb 98 ab 12 bc e1 c3 33 3e
       0.052675005 -0.005323588 -0.008952044 0.1755519
0001a0 6f ea 8b 3e 9c 53 45 3e 86 a0 85 be 10 6e b2 be
       0.27327296 0.19270176 -0.26099032 -0.34849596
0001b0 3a 2b a6 be 2b e0 8a 3e ac 24 8b 3e 8d 56 f5 bd
       -0.32454854 0.27124152 0.27176416 -0.11979399
0001c0 88 24 af bd 41 58 79 be 70 15 2b 3e f9 91 18 be
       -0.0855189 -0.24350072 0.16707397 -0.14899434
0001d0 d3 76 dc 3e 98 89 47 3e 50 40 5c bd b5 d5 2d 3e
       0.43059406 0.19486082 -0.05377227 0.16976054
0001e0 f8 f4 0e 3e f1 11 8f bd 77 8a 80 3e 37 f5 83 be
       0.13960636 -0.06985844 0.2510564 -0.25773022
0001f0 98 10 df be 03 3f 25 be 42 1c 8b 3e 9d 86 13 3e
       -0.43567348 -0.16137318 0.27169997 0.1440682
000200 96 b4 c2 3d 94 32 30 3e b5 31 8a be c3 ad e1 3d
       0.095071 0.17206794 -0.26991048 0.110194705
000210 59 8e ab be e9 b1 a7 bc 97 38 54 3e 5f 9e 89 3d
       -0.3350704 -0.020470576 0.20724712 0.0671966
000220 55 2e 73 3e e8 cc 76 ba a1 b2 51 be 13 e9 7a be
       0.23748143 -0.00094146887 -0.20478298 -0.24502973
000230 ff e4 12 bd 77 84 13 3e c6 2d 68 3e 36 3a 7f 3e
       -0.03586292 0.14406 0.22673711 0.2492455
000240 b8 67 92 be 3b 3f c6 be 1c ae b9 be 42 81 b5 be
       -0.28594756 -0.38720116 -0.36265647 -0.35450178
000250 cf 4b 4f 3e 9c ce a7 bd 39 3c 31 be 5e 6a a7 3d
       0.20243762 -0.081937045 -0.1730813 0.08174585
000260 14 3e 52 3e f2 e9 f9 bd 5b 52 8e bd d4 fe 84 be
       0.20531493 -0.12202825 -0.06949302 -0.25975668
000270 63 10 c4 3c 4f a2 ad bd a0 f0 cd 3d fc 65 64 3e
       0.023933595 -0.084782235 0.10055661 0.22304529
000280 34 f5 f4 3d b9 7e 37 bd a2 39 8c bc 2e 24 82 be
       0.11960831 -0.044798587 -0.017117325 -0.25418228
000290 6c 90 d7 3e 5f fe 96 be 6a 5e a2 3c 8d 73 d7 3e
       0.42102373 -0.29490945 0.01982041 0.42080346
0002a0 8e 98 8c 3e 52 ff 41 3e a9 43 8d be 93 aa 9d 3d
       0.2746014 0.18945053 -0.27590683 0.0769855
0002b0 c6 1b ef be 5d c9 9b 3d 87 0c d2 bc ea cc aa 3d
       -0.46700877 0.076067664 -0.02564074 0.083398655
0002c0 36 a0 41 3e d2 69 42 be 1d f0 39 bc 4e 04 6b be
       0.18908772 -0.1898568 -0.011348751 -0.22950861
0002d0 6a 53 77 3e 39 2c 07 3e 6b 0a 2e 3e 25 19 91 3e
       0.24152914 0.13200463 0.16996162 0.28339496
0002e0 c5 c3 5d 3e bb 57 2b be e7 84 98 bd 88 ab 0f be
       0.21656711 -0.16732685 -0.07447224 -0.14030278
0002f0 50 fe 97 3e 13 63 b8 3d 73 03 73 bd 09 09 1d be
       0.29686213 0.09003272 -0.05932946 -0.15335478
000300 ed 62 af 3d 99 f9 9b bd 35 a9 79 3e a4 1c 96 be
       0.085637905 -0.07615966 0.24380954 -0.29318726
000310 f8 1e 59 be 16 f2 10 3e 00 f7 90 3e 77 f1 1e 3e
       -0.2120322 0.14154848 0.28313446 0.15521799
000320 c0 89 d4 bd 90 36 85 be 16 68 96 be 47 f4 08 3e
       -0.10377836 -0.2601819 -0.29376286 0.13374434
000330 3b ff 35 3d 18 28 86 3e 33 b4 fa bd 06 da 3a be
       0.04443286 0.26202464 -0.122414015 -0.18247232
000340 1d 48 4f be 6d c8 37 3e c8 e6 83 3e 5c c5 ce bd
       -0.20242353 0.1794755 0.2576201 -0.10096237
000350 e7 28 9b 3e e0 e1 22 bc 70 a3 79 be 38 e6 63 bd
       0.30304644 -0.009941548 -0.24378753 -0.055639476
000360 1f aa 12 3e 3f ce da 3c b3 d3 27 3e a9 b9 fc bd
       0.14322709 0.026709674 0.1638935 -0.12340099
000370 b5 2b 3b be a2 d7 06 be 32 3b 9c bd a9 78 2f be
       -0.18278392 -0.13168195 -0.07628478 -0.17135872
000380 5c 40 fc bd a9 d1 4f bc 21 ae b9 3e 9a 1b 65 3e
       -0.12316963 -0.012684264 0.36265662 0.2237381
000390 a8 b1 4f be d8 9f 73 be ee 7f 5f 3e 68 1e 84 3e
       -0.20282614 -0.23791444 0.21826145 0.25804448
0003a0 34 32 8a be 84 6d 65 3e 03 3d b7 be 16 f9 1a 3d
       -0.26991427 0.22405058 -0.35788736 0.037835203
0003b0 22 98 a0 be 0a 01 3c 3e a4 bc 61 3e 8d 14 8b 3d
       -0.31366068 0.18359771 0.22044617 0.06791029
0003c0 39 c9 9c bd c1 50 38 be 00 a1 86 3e fb 20 47 bd
       -0.07655568 -0.17999555 0.26294708 -0.048615437
0003d0 93 48 c8 3d 04 62 c2 bd ff 18 3d be f8 03 bb 3e
       0.097794674 -0.09491351 -0.18466567 0.36526465
0003e0 61 86 93 3c 1d dd d1 3e 2d d5 92 be 69 2b aa 3d
       0.018008413 0.4098901 -0.28678265 0.08309061
0003f0 a6 63 ed bc af 78 1d 3e 2f a4 c9 3b b6 c9 b2 be
       -0.02897818 0.15378068 0.0061536054 -0.34919518

bias f4 [128]
000000 06 d8 56 3d 7e 81 cc bd 3d 93 2e be 9d 2f fe 3d
       0.05245211 -0.09985636 -0.17048354 0.12411425
000010 4f c7 06 3d 5d 05 1a bd d4 a9 01 3e 02 3e b7 3e
       0.03290492 -0.03760277 0.1266244 0.35789496
000020 e3 99 99 be c0 4a e1 bd 94 2c 02 be 59 b7 4e 3e
       -0.3000022 -0.110005856 -0.12712318 0.20187129
000030 40 2c 2b be 10 5e 4b 3e f9 bc f6 be b7 39 89 be
       -0.16716099 0.19860101 -0.4819105 -0.26801845
000040 76 e4 a7 be 8f fb 02 be ca 06 74 3e 10 d0 03 be
       -0.3279149 -0.12791274 0.23830715 -0.12872338
000050 ca f7 22 be a4 d9 86 3e 47 9a 57 bc d6 c0 78 be
       -0.15914837 0.26337922 -0.013159341 -0.24292311
000060 83 04 81 be 65 46 bf be e0 8f b4 be d6 f7 77 be
       -0.25198755 -0.37358394 -0.35266018 -0.24215636
000070 cb 61 1d 3d d4 03 78 be de 49 6b be c9 4e f9 3d
       0.03842334 -0.2422021 -0.22977397 0.1217323
000080 dd b0 b0 be 52 14 11 be 24 58 31 3c f0 74 99 bc
       -0.34509936 -0.14167908 0.010824237 -0.018732518
000090 9e 4e db be 84 e7 83 3e 17 be 3e be 83 34 b0 bd
       -0.42833418 0.2576257 -0.18627201 -0.08603766
0000a0 83 f5 33 bc 69 f4 67 3e 01 95 ee 3d ab 37 13 3e
       -0.0109838275 0.22651829 0.11649514 0.14376704
0000b0 e8 f8 a9 be 26 94 fa 3d e0 6d c2 be 09 a0 77 3e
       -0.33197713 0.12235288 -0.37974453 0.24182142
0000c0 11 5f 41 be f5 b6 b2 be f0 65 4c be 29 5d a5 be
       -0.18883921 -0.3490521 -0.19960761 -0.32297638
0000d0 58 d0 69 be 92 21 ed bd f6 b5 87 3d b7 c1 b2 bd
       -0.22833383 -0.11578669 0.06626503 -0.087283544
0000e0 c0 6e 50 3e ec f2 06 be 3a bf 15 3d cf 52 bf bd
       0.20354748 -0.13178605 0.03655932 -0.09341966
0000f0 c3 a1 bc b9 d9 18 22 3e 44 c8 d4 be 7d d6 c8 be
       -0.00035978676 0.15829791 -0.4155904 -0.39226142
000100 5f 80 0f be 35 2c 3d be 0b 2d 83 be ad 62 3b be
       -0.14013813 -0.18473895 -0.25620303 -0.1829936
000110 19 ec 1b be 6a c2 6d 3e 34 03 c8 be 36 c1 0b 3e
       -0.15226783 0.23218694 -0.39064944 0.13647923
000120 57 58 4e be aa 86 68 be b9 03 e1 be be ba c0 be
       -0.20150886 -0.2270762 -0.43948153 -0.37642473
000130 18 6d 73 3e 3c 32 03 3e 11 f4 b1 be 1c 4e 35 be
       0.23772085 0.12812132 -0.3475652 -0.17705578
000140 ef 0a 57 be fc b9 d4 bd 5d c6 6f be f8 ca 87 be
       -0.21000265 -0.10387036 -0.23415513 -0.2652204
000150 8f 69 85 bd a9 9a 30 be 09 1c dc 3d 5e 65 49 be
       -0.06514274 -0.17246498 0.10747535 -0.19667575
000160 28 44 61 3e 4a 24 8c 3e 0f 46 84 3e 56 f1 4c 3e
       0.21998656 0.27371436 0.258347 0.20013937
000170 f9 ea c4 bd f9 ba 8b 3e f1 7b 29 3e b7 ce 99 3d
       -0.0961513 0.27291086 0.16551186 0.07510131
000180 f7 fb 22 be 49 9a b5 be 57 69 02 be 32 5b 19 3e
       -0.1591643 -0.35469273 -0.12735496 0.14976195
000190 f7 f7 72 be 1a b2 ff 3d 39 ab 00 3e 5d 79 95 3d
       -0.23727404 0.12485142 0.12565316 0.07298539
0001a0 a4 ed c1 be da 77 bd bd 40 46 8b be 85 f7 c6 be
       -0.37876618 -0.092513755 -0.27202034 -0.38860717
0001b0 43 aa 09 be 66 dc 7c bd f5 f1 59 3d 47 96 1f be
       -0.13443856 -0.061733626 0.053209264 -0.1558467
0001c0 1f f2 d5 bd 7f c7 d4 be 23 a3 b8 bc e5 8c 0e 3e
       -0.104465716 -0.41558453 -0.022538727 0.13920934
0001d0 7a 68 88 bd 12 3c 9e 3e 6d be 5d 3d 17 67 46 3e
       -0.06660552 0.30905205 0.054136682 0.19375263
0001e0 79 ce 7f 3d 80 15 27 3c 28 6c 05 be 15 25 19 be
       0.062452767 0.010197997 -0.1302954 -0.14955552
0001f0 d9 c9 bc be 97 c6 a5 be 06 3f cc be 5d c3 00 3e
       -0.36872748 -0.32378075 -0.39891833 0.12574525

weight f4 [4, 16]
000000 3b 24 17 3e 08 cb e3 be 0a 2c 84 3e 01 e1 a0 3d
       0.14759915 -0.44490838 0.2581485 0.07855416
000010 25 25 0d 3c ed 19 74 3d bb 77 3e be 55 f8 41 3c
       0.008614813 0.059595037 -0.18600361 0.011838992
000020 d7 92 2f bd cf 9e 33 be 05 fd f9 3e ea b9 ca bf
       -0.042864647 -0.1754105 0.4882585 -1.5837986
000030 af ac fd bd 5e 20 d9 3e 6e 0c 41 be c5 9a 5b be
       -0.123864524 0.42407507 -0.18852398 -0.21445759
000040 cd 6e c4 3c 32 9b fb bc c0 65 37 be 9b fe 8f bf
       0.023978615 -0.030713651 -0.17909908 -1.1249574
000050 9c 7c 2b 3e 8f 1d a0 bd 9a ac 15 3f 6d 72 b3 3c
       0.16746753 -0.07818138 0.58466494 0.021905148
000060 93 85 ed bd a4 11 3e 3e 55 fc 16 be dc 96 42 bf
       -0.11597743 0.18561417 -0.14744695 -0.76011443
000070 2e b9 42 3e df 96 03 bd 99 b8 04 3c 9c cd b7 be
       0.19015953 -0.032126304 0.008100652 -0.35899055
000080 5c b2 81 3e a4 e1 44 3e 79 b8 02 3e 61 aa 87 3f
       0.2533139 0.192267 0.12765683 1.059887
000090 48 56 b8 bc 4b c7 96 bd 94 9c 2f bf 7b 37 f9 bd
       -0.02250208 -0.07362231 -0.68598294 -0.12168785
0000a0 35 6c c6 be 26 1f 52 3b 55 5c b7 3e 58 ad 86 be
       -0.3875443 0.0032062023 0.3581263 -0.26304126
0000b0 a3 3c db bd c8 7a 7a 3e 77 c5 a3 3e 7c 3c db be
       -0.10704925 0.244609 0.3198659 -0.42819583
0000c0 fa 9e de be 80 06 09 be 95 fa 8e bd a5 a6 8a bf
       -0.43480664 -0.13381386 -0.069813885 -1.0832106
0000d0 ba 80 03 3e 26 74 47 bd 90 ea a2 3e 95 77 47 3e
       0.12842074 -0.048694752 0.31819582 0.1947921
0000e0 70 86 eb bd 84 dd 09 3d 3e f0 e8 bd 3c 90 a9 bd
       -0.11500251 0.03365852 -0.113739476 -0.08279464
0000f0 ca 37 9a 3d d9 2a 07 be 56 76 0c be 67 dc 16 3f
       0.07530172 -0.13199939 -0.13717017 0.5893006

weight f4 [4, 16]
000000 11 ea 8d 3e 88 4e 66 bd ae b5 18 bc 0e 41 81 3f
       0.2771764 -0.056227237 -0.00932066 1.0097978
000010 fa 17 b1 bd 0c 9a 18 3e 6c 20 d1 be b2 8c 20 be
       -0.08647151 0.14902514 -0.40845048 -0.15678671
000020 5f bd f7 3e ab 31 be bd de 8b 4f 3e 50 c2 a6 3f
       0.48386666 -0.09286817 0.20268199 1.302805
000030 50 17 b8 be 5c 06 11 3e 05 d3 ba bd ac 25 b5 3e
       -0.35955286 0.14162582 -0.0912228 0.35380304
000040 1f d7 12 bf 6a 2c b1 3e bf c1 48 3d 01 4d a0 3f
       -0.573595 0.34604198 0.049012896 1.25235
000050 fb 5d 1a 3e 3b da e0 3e 47 3f b3 bc 27 9f 90 be
       0.15074913 0.43916497 -0.021880759 -0.28246424
000060 2a 88 ee 3e 8a af 09 bd 15 1f f0 3c 32 89 20 be
       0.4658826 -0.033614673 0.029311696 -0.15677336
000070 05 37 11 3e a2 78 c9 bd 49 72 66 3e 0b 6f 0c 3f
       0.14181145 -0.09837462 0.22504534 0.5485694
000080 f1 47 7d 3e c5 90 3e bf f2 7d 1b 3e 25 7d 57 bf
       0.24734475 -0.7443965 0.15184763 -0.8417533
000090 9e c4 9e bd 38 6b 3b be 3f ea da 3e 0e e9 fe 3d
       -0.077523455 -0.1830262 0.4275684 0.124467954
0000a0 b9 d1 09 3e 55 85 33 3e a5 b6 ad 3d 42 85 7e 3f
       0.13458909 0.17531331 0.08482102 0.99422085
0000b0 06 5e d7 be 0a cf 00 be f2 c5 90 be d4 e7 b8 3d
       -0.42063922 -0.12578979 -0.2827602 0.09028593
0000c0 13 d1 16 be ed f5 b0 3e bf b1 e4 3c 7c 24 68 3f
       -0.14728193 0.34562626 0.027916787 0.9068067
0000d0 ba 21 55 be 72 ff 55 bd 55 67 f1 be 92 8b 2f 3e
       -0.20813647 -0.052245565 -0.4714915 0.17143086
0000e0 17 aa 8a 3e be 2f 18 be 93 37 26 be 43 e4 42 bf
       0.27082893 -0.14861962 -0.16232137 -0.7612955
0000f0 ed e2 23 3e 53 02 1d 3e 27 70 30 3d 8f fa a2 3d
       0.16004534 0.15332918 0.043075707 0.079579465

weight f4 [4, 16]
000000 2d 52 a5 bc fc 7d d9 3e 20 40 ff bc 04 43 15 be
       -0.020180786 0.4247893 -0.031158507 -0.14576346
000010 ee c0 50 3f a2 e5 e8 3d c5 58 a1 bc 47 56 b0 bd
       0.8154439 0.11371924 -0.019695649 -0.08610206
000020 75 43 10 3d 3a bf c3 be 8e d7 01 3e 4e 78 54 bd
       0.035220582 -0.38231832 0.12679884 -0.051872544
000030 dd bb 72 bf 94 59 2c 3e 73 d2 69 3b 53 8b 86 bd
       -0.94817907 0.16831046 0.0035678416 -0.06569543
000040 d1 cb 1d be 6a 15 95 3f 1b f2 4e be 56 a7 ac 3d
       -0.15409781 1.164716 -0.20209543 0.08430354
000050 6a a5 7a bf 5b 13 b4 be 5e 47 eb 3d 3d fe f4 bb
       -0.9790865 -0.35171017 0.114882216 -0.0074765966
000060 70 6a 8c bd 3f e5 35 3f 2a b6 3d bd 92 c8 ba bd
       -0.06856239 0.71052927 -0.046316303 -0.09120287
000070 1e 9d 56 bf 18 15 09 be 99 ad 23 3c 5f 74 a5 3e
       -0.8383349 -0.13386953 0.009990119 0.32315347
000080 11 b2 c0 3d cb 96 22 bf 01 6d 8d 3e 6b 5c 34 3e
       0.094089635 -0.6351134 0.27622226 0.1761338
000090 3b 30 d7 be 87 4b 62 bd fd 50 80 3e 26 5f ee bd
       -0.42028984 -0.05524781 0.2506179 -0.11639242
0000a0 00 5b 7b be b0 9e 1e 3f 75 38 8a be 85 80 53 3d
       -0.24546432 0.6196089 -0.26996198 0.051636238
0000b0 ce 25 b1 3f 3b f2 af 3c b9 ae 6c 3d ed 11 1d be
       1.3839662 0.02147781 0.057783816 -0.1533887
0000c0 d9 d9 32 3e fb 12 9f be 5a ba 35 3e 26 9e 83 3e
       0.17465915 -0.31069168 0.17746869 0.25706595
0000d0 49 20 7b bf 68 fb 42 be ce 97 3b bd 59 10 8e 3d
       -0.9809614 -0.19041216 -0.04579907 0.06936712
0000e0 3a 5e 84 3e b7 3d 16 3f 70 11 a7 3d e0 75 cb 3d
       0.2585314 0.5868792 0.08157623 0.09934592
0000f0 d2 6f 2d 3f 56 47 80 be 0f 0f 02 3e 6f 0b ab 3d
       0.6774875 -0.25054425 0.12701057 0.0835179

weight f4 [4, 16]
000000 e5 c2 de 3d ec c3 1b 3f 12 07 e1 3e 61 f7 71 3d
       0.10877017 0.6084583 0.43950707 0.05907381
000010 83 8c 4a bf 87 1d c8 3a 14 5d be bc f1 cd ca bd
       -0.79120654 0.0015267589 -0.023237742 -0.099025615
000020 27 40 6a 3c 14 ec ba 3e d0 28 eb bb 0e a4 fd bd
       0.014297522 0.36508238 -0.007176496 -0.123848066
000030 52 5a 4d bf 50 bd ed bd c4 76 37 bd 24 10 f8 bd
       -0.8021594 -0.11608374 -0.044790998 -0.121124536
000040 d3 94 94 3d ff 6e 15 bf 6f f7 2f 3d d3 05 42 bf
       0.072549485 -0.5837249 0.04296058 -0.7579014
000050 cf c0 c5 be 93 08 2d 3f af bd b8 3d ca 97 27 3d
       -0.38623664 0.6759121 0.09020554 0.04091624
000060 ae e2 73 bd 99 52 90 3f e5 7f 93 3c 7b 95 05 bf
       -0.05954235 1.1275207 0.01800532 -0.52181214
000070 d9 be 53 3f d4 79 6d 3e 41 90 cf be 74 ff 5b bd
       0.82713085 0.23191005 -0.40539744 -0.053710416
000080 f0 7b ab bd 8e f8 46 bf a9 fc 9f be 49 6d 83 bc
       -0.083732486 -0.77723014 -0.31247452 -0.016043322
000090 48 56 69 3f 54 ce 29 bc 30 9c 88 bd e1 4a 20 bd
       0.9114728 -0.010364134 -0.066704154 -0.03913391
0000a0 1d 77 18 3e 66 7d 2e bf ef a8 a0 be c6 42 0d 3f
       0.14889188 -0.6816009 -0.31378886 0.55180013
0000b0 9c 88 9e 3e c5 84 be 3e 9f ef 8f 3e be 24 87 bd
       0.309636 0.3721067 0.28112504 -0.06598805
0000c0 a3 2b b3 be 8c df 36 bf ca ee 48 be 99 ec 02 3d
       -0.3499423 -0.71434855 -0.19622341 0.03196392
0000d0 35 31 1a 3f ea 66 a0 3e 50 bb 28 3a 2c b9 81 3e
       0.60231334 0.31328517 0.0006436603 0.25336587
0000e0 54 12 5b bd da 56 9c be fd ba be bb 5b 02 a9 3d
       -0.053484276 -0.30535012 -0.0058206306 0.082524024
0000f0 74 6d 74 3f b0 07 45 3e 66 ea 2a be 68 f3 0e bc
       0.9547951 0.19241214 -0.16690978 -0.008725025

weight f4 [4, 16]
000000 4a 25 a7 be 55 6d c8 3f e8 4a 26 3d f0 64 1d be
       -0.32645637 1.5658365 0.04059878 -0.15370536
000010 76 b9 dd bb c6 d0 2b ba 91 70 ea 38 3f fb 3d b9
       -0.0067664934 -0.0006554242 0.000111789566 -0.00018118041
000020 27 73 ba be f5 fd 2d bf 7f bd 46 3f db ae 15 3e
       -0.3641598 -0.6796563 0.776329 0.14617483
000030 53 66 0a bd d0 f0 c7 bd e0 9c 3a bd fc 7c 08 be
       -0.03378899 -0.09762728 -0.045559764 -0.13328928
000040 3d 66 0a be ec b3 74 bf bf 26 ba 3e be 5b 83 3e
       -0.13515563 -0.9558704 0.36357686 0.2565593
000050 97 1f 43 3c 14 cf 90 3a e2 b7 0c ba 2c 07 3e 39
       0.011909387 0.0011048042 -0.0005367977 0.00018122484
000060 78 6b 71 bd ab 1e 3f bf e0 30 18 bf db 5b b0 3e
       -0.05894038 -0.7465617 -0.5944958 0.3444508
000070 b3 4c fe 3e 6c 0d fa 3e 38 4a 01 3f b3 84 b1 3e
       0.49667892 0.48838365 0.50503874 0.34671554
000080 f8 92 15 bf 99 4e 84 3f 65 ab e3 be 9e c6 7c bd
       -0.5842738 1.0336486 -0.444667 -0.061712854
000090 3e 23 9a bb d4 51 b2 3a b9 06 88 ba 5b cf 94 b9
       -0.004703908 0.0013604709 -0.001037798 -0.00028383252
0000a0 71 3f 4b 3f 93 89 8a bf 67 71 73 be eb 47 86 be
       0.7939368 -1.0823234 -0.23773728 -0.26226744
0000b0 69 55 ba be 5c e5 a3 bd 85 38 8b be 88 12 a9 bd
       -0.36393288 -0.08002731 -0.27191558 -0.08255488
0000c0 b9 1e fb 3c 7e db cb 3f fc 4d d4 be af 91 11 be
       0.030654298 1.5926359 -0.41465747 -0.1421573
0000d0 f0 77 1c bb d8 36 81 39 b1 d9 2c b8 b7 ed 60 b9
       -0.00238752 0.0002464566 -4.1210737e-05 -0.0002145086
0000e0 e2 0a 2e 3d d9 7f 04 bf 19 1d b4 3e 1d 73 9e be
       0.042490847 -0.5175758 0.3517845 -0.309472
0000f0 ad 62 9e be 1d 1f 91 bd 89 3a eb bd 68 e7 fe bd
       -0.3093466 -0.070860125 -0.11485774 -0.12446481

weight f4 [4, 16]
000000 cc 66 70 3e 27 66 7a bf 63 81 b6 3e b7 b7 7e 3d
       0.23476714 -0.9781212 0.3564559 0.062186923
000010 0c 09 07 3c ca f2 7f ba e1 3f 0f b9 37 25 ac 38
       0.008241903 -0.00097636564 -0.0001366134 8.208531e-05
000020 bc be af 3e 93 2e a2 bf 80 ee 89 be 80 0e 17 bc
       0.34325206 -1.2670463 -0.26939774 -0.009219766
000030 63 1b 2d b9 c6 3a 35 b6 27 6e 25 35 a4 e1 4e 35
       -0.00016508768 -2.7005312e-06 6.162758e-07 7.706933e-07
000040 ca a0 13 3e 60 b6 9f be 51 08 92 bd 8b 51 bc 3d
       0.14416805 -0.3119383 -0.071304925 0.091952406
000050 2c 22 f8 3b 54 46 4b 3b 16 5c e5 38 54 1f 14 b8
       0.007572433 0.003101726 0.00010936723 -3.5315126e-05
000060 02 7f 21 3d 0d 0e 8f 3f 33 03 0d be 3e f5 85 bc
       0.039427765 1.1176163 -0.13770752 -0.016352292
000070 3c 96 dd ba 37 d9 ae ba df 4e ae ba b3 3b ae ba
       -0.0016905735 -0.0013339882 -0.0013298652 -0.0013292938
000080 e6 3d 22 3e 05 67 67 bf 04 8e 0e be 1b 57 2d 3a
       0.15843925 -0.9039157 -0.13921362 0.0006612406
000090 e3 c3 96 ba e9 28 4d 3a 2d 1a 22 b9 73 88 05 b9
       -0.0011502471 0.00078262255 -0.00015459275 -0.000127347
0000a0 90 5c 2b bf 38 2a 23 bf d0 9f 54 3d b7 79 20 3a
       -0.66938114 -0.63736296 0.05191022 0.00061216526
0000b0 c2 ef 15 ba f4 f4 67 b9 1a f4 62 b9 96 2b 63 b9
       -0.00057196256 -0.00022121129 -0.00021643974 -0.00021664644
0000c0 81 10 0b be f3 76 60 bf 4b 22 e7 3d 02 1b 10 3c
       -0.13580514 -0.876815 0.11285838 0.008795502
0000d0 3a 3a 07 3b e4 fb c9 ba 1e 7d 49 b9 52 71 d1 37
       0.002063407 -0.0015410152 -0.00019215464 2.496751e-05
0000e0 1a 0c 66 3d 97 c6 a3 bf e2 0e 94 3c b6 9d 07 bb
       0.056163885 -1.279498 0.018073503 -0.0020693368
0000f0 c1 51 62 b7 f6 eb b1 38 4f 94 b6 38 3e 8a b8 38
       -1.34896845e-05 8.483969e-05 8.706061e-05 8.799553e-05

weight f4 [4, 16]
000000 d4 91 20 bd cc c9 a4 3e 5b 85 25 be 13 d2 46 3f
       -0.039201573 0.3218521 -0.16164152 0.776643
000010 1c 77 46 be a0 9d f4 bd 14 98 7c be 78 a2 ea 3e
       -0.19381374 -0.11944127 -0.24667388 0.4582708
000020 de a9 13 3c 26 43 4b 3e 56 79 ab 3e 41 6c 93 3d
       0.009012667 0.19849834 0.3349101 0.07198382
000030 89 af 1f be 70 67 08 3e a3 89 af bf c5 3b 9d 3f
       -0.15594305 0.13320708 -1.3713878 1.2283865
000040 59 73 bf be 0b b0 54 be 8f c8 65 3d 60 36 ef be
       -0.3739269 -0.2077028 0.05609947 -0.46721172
000050 1e a0 b3 3f 08 fa 0f bf c6 41 a8 bf fa 7e 1d 3f
       1.4033239 -0.5624089 -1.3145072 0.61521876
000060 31 ac 6d 3e ee 12 03 be 29 01 b0 3e 25 b3 cb 3d
       0.23210217 -0.1280019 0.34375885 0.099462785
000070 2a 27 1a 3f 2f 37 c3 3d 38 d7 c8 ba 86 ff c3 bd
       0.6021601 0.0953201 -0.0015322929 -0.095702216
000080 16 91 17 be 10 5b 00 bf 6c f5 f2 3e d4 4b 3a 3f
       -0.1480144 -0.5013895 0.47452867 0.72771955
000090 af 72 d5 be ac d6 59 3d ef e7 75 3f 80 90 ca be
       -0.4168906 0.053183243 0.9605703 -0.3956337
0000a0 ff 94 c0 3c 64 73 2c 3e 3c a2 c0 3c 70 c6 06 bf
       0.023508547 0.16840893 0.02351486 -0.5264654
0000b0 f5 3e 60 3e 82 83 95 bf 86 6e 95 3f 63 b4 21 bf
       0.21899016 -1.1680758 1.1674354 -0.63165873
0000c0 02 04 0e be 5a 75 c0 3e bc 72 ba be 65 67 a6 bd
       -0.13868716 0.37589532 -0.3641566 -0.0812519
0000d0 3d cd 7f 3e bc 92 9e bf 82 1e d4 3f eb 9c 5c bf
       0.24980636 -1.238853 1.657181 -0.8617694
0000e0 67 51 fe bd ae 0a 09 be bf a5 96 bc 16 79 08 bf
       -0.1241787 -0.1338298 -0.01838958 -0.5330976
0000f0 37 84 33 3f f6 a7 1b be 62 d4 4d bf 73 7a 27 3f
       0.7012362 -0.15200791 -0.80402195 0.6542122

weight f4 [4, 16]
000000 ff 79 0b 3d f4 ae 0c be 82 ee 52 be 03 16 42 bf
       0.03405189 -0.13738614 -0.20598796 -0.7581484
000010 e0 cd 0b 3f 29 d1 71 3e ed 9d 51 bf 15 94 65 3f
       0.54611015 0.23614945 -0.818816 0.8967908
000020 47 45 77 bc fb 5b 0e 3c 00 1c bd 3d 37 53 ab 3e
       -0.015092201 0.008688922 0.09233856 0.33461925
000030 b5 cc 35 3e 45 76 cf be d6 53 8a 3f d1 00 8f bf
       0.17753871 -0.4051992 1.0806835 -1.1172124
000040 05 63 b2 3d 7b d6 98 bc 6b ca 3d be 70 51 18 3d
       0.08710293 -0.01865696 -0.18534248 0.03718704
000050 9f 6d 9d bf 46 f1 39 3e 92 e7 83 3f 71 e8 2d bf
       -1.2299079 0.18158445 1.0305045 -0.679328
000060 97 b0 d0 be 9d 6b 62 be df df 08 3e 6e 67 be be
       -0.40759727 -0.22111364 0.1336665 -0.37188286
000070 d7 c6 10 bf 73 73 67 3e ff 05 a6 3f 5d 4f 35 bf
       -0.56553406 0.22602634 1.297058 -0.70824224
000080 e3 41 1b 3e 15 b5 68 3d f3 15 98 3c 3e 97 05 bd
       0.15161853 0.05681332 0.018565154 -0.03261494
000090 84 4f 2a be 89 64 de be e1 00 db 3d ac ce 9e ba
       -0.16631895 -0.43436077 0.10693527 -0.0012116036
0000a0 23 b3 c1 be f2 32 a5 bb b9 aa 2b 3f 26 bd 0c 3f
       -0.37831983 -0.0050414735 0.6705738 0.5497612
0000b0 1c 14 95 3d 55 9a 44 3f c6 a0 c5 bf 39 20 6f 3f
       0.07279226 0.7679799 -1.5439689 0.9340854
0000c0 11 ab 61 3e 42 39 71 be bd 07 56 3d 6b f1 aa 3e
       0.22037913 -0.23556998 0.052253474 0.33387312
0000d0 ca 4e 28 bc 70 56 8c 3f cb 86 d2 bf df b6 8a 3f
       -0.010272691 1.0963879 -1.6447386 1.0837058
0000e0 d0 80 d7 bd b4 c6 b8 be 62 38 36 3e f2 83 bf 3e
       -0.10522616 -0.36089098 0.17794946 0.37405354
0000f0 b7 0b 6a bf 06 6c 4a 3f 64 f5 e6 be 2b 34 94 3e
       -0.91424125 0.7907108 -0.45109093 0.2894605

weight f4 [128, 1, 1, 1]
000000 b3 21 74 bd 11 17 1f 3d 05 09 55 bd f5 70 3f 3d
       -0.05960245 0.038840357 -0.052010555 0.046738584
000010 32 62 2a 3d db c9 3a bd c9 61 7a bd e7 5c 3d 3d
       0.041597553 -0.04560266 -0.06112841 0.046231177
000020 42 34 14 3d 97 ed fe bc 83 f2 5a 3d 33 cc 84 3d
       0.03618265 -0.031119151 0.053453933 0.064842604
000030 1e 9a 3b 3d 93 a0 02 3d 0e 5e 2f bd 8f ac 5a 3d
       0.045801274 0.031891417 -0.042814307 0.05338722
000040 64 5e ec bc 92 0f 15 3d 78 12 85 bd 6c fd 3a bd
       -0.028853603 0.036391802 -0.06497663 -0.04565184
000050 b3 2c 03 3d c4 eb 22 3d c0 55 4c bd 40 bf 40 bd
       0.03202505 0.039775625 -0.049886465 -0.04705739
000060 ac 75 6f 3d c4 88 12 bd 49 b1 62 3d 0e f5 f7 3c
       0.05846183 -0.03577496 0.055344854 0.030268218
000070 d3 61 3b bd 34 52 09 bd e0 32 a3 bc 67 cc 47 3d
       -0.04574759 -0.03352566 -0.01992172 0.048778918
000080 fd 85 12 bd 89 a4 fa 3c 3a 67 2b bd 22 d5 d1 bc
       -0.035772312 0.030596035 -0.04184649 -0.025614325
000090 34 a9 b5 bc 28 9d 32 bd a4 b3 1a bd 9a 50 37 bd
       -0.022175409 -0.043606907 -0.037768975 -0.044754602
0000a0 fc a1 43 bd 3f 92 15 bd 04 e2 51 3d 02 7e 2f bd
       -0.047761902 -0.036516424 0.051240936 -0.04284478
0000b0 cc d9 94 bc 0e f8 32 bd 7e 0c a2 3c cc 22 1e bd
       -0.01817026 -0.043693595 0.019781347 -0.038607404
0000c0 f5 77 49 3d a6 27 8c bd d1 cf e5 3c 49 3d 37 3d
       0.049186666 -0.068435 0.028053196 0.04473618
0000d0 b6 23 53 bd 26 42 4f bd 74 f2 fc bc 8c 63 31 bd
       -0.05154773 -0.050600193 -0.03087733 -0.043307826
0000e0 6d 04 33 bd c2 81 97 bc e4 5c 17 3d 73 75 1d bd
       -0.043705393 -0.01849449 0.03695382 -0.038442086
0000f0 0b 51 49 bd bc 11 24 bd cc 48 17 3d 07 cd dd bc
       -0.049149554 -0.040055975 0.03693466 -0.027075304
000100 02 e9 22 bd 67 b4 2d bd f1 a9 fc 3c 1f d1 1e bd
       -0.039772995 -0.042408373 0.030842753 -0.038773652
000110 61 c1 34 bd a4 20 28 bd c4 36 31 bd 00 a3 e3 3c
       -0.044129733 -0.041046754 -0.04326512 0.027787685
000120 e8 bf 2f bd 38 67 d8 bc 8a eb 0e bd 8a 4d 58 bd
       -0.042907625 -0.026416406 -0.034892596 -0.052808322
000130 0c 23 3e 3d dc 2d 32 bd 35 30 25 bd 4e e9 0c 3d
       0.046420142 -0.043500766 -0.040329177 0.034402184
000140 48 8f f3 bc a5 10 97 bc ab 61 ea 3c db fb 4f 3d
       -0.029731408 -0.018440554 0.028611025 0.050777297
000150 c9 6e 8f 3d e0 78 23 3d 94 76 0c 3d 24 45 fa 3c
       0.070035525 0.039910197 0.034292772 0.030550547
000160 38 e0 4f 3d a6 98 52 3d ba f1 49 3d 73 a3 51 bd
       0.05075094 0.05141511 0.049302794 -0.051181268
000170 ba c6 12 bd 02 22 f1 bc bc 13 e2 3c c4 43 a7 3c
       -0.03583405 -0.029435162 0.0275973 0.020418055
000180 13 86 5b bd 8f 32 0a bd a6 08 65 bc a7 f8 2c bd
       -0.05359466 -0.033739623 -0.013979113 -0.04222932
000190 78 ca 18 bd af 99 38 3d e0 4f 30 bd 24 14 62 bd
       -0.037302464 0.04506844 -0.043044925 -0.05519499
0001a0 26 a5 05 bd 8b e4 0a bd 50 37 fa 3c ff 0a ef bc
       -0.0326282 -0.03390936 0.030543953 -0.029180048
0001b0 63 ba 1e bd 21 48 5c 3d ec aa 40 bd 44 77 d0 3c
       -0.03875197 0.053779725 -0.047038004 0.025447495
0001c0 14 ae b0 3c b4 02 05 3d 63 2c 3c 3d 4a cc 12 bd
       0.021567382 0.03247328 0.045940768 -0.035839356
0001d0 08 3c 01 3d ee d7 53 bd f2 4d 55 3d f7 16 75 3d
       0.03155139 -0.0517196 0.052076288 0.059836354
0001e0 ba 7a 43 bd a1 16 24 3d d3 54 3e bd f0 e7 79 bc
       -0.047724463 0.040060643 -0.046467613 -0.015253052
0001f0 af 76 7b 3d f4 52 10 3d 95 83 5c 3d 36 b7 06 bd
       0.061392482 0.03523536 0.053836424 -0.032889567

bias f4 [128]
000000 49 3a a0 39 1b 3a a7 b8 50 e8 76 b7 f4 9d 3d b7
       0.00030561004 -7.9740035e-05 -1.4716832e-05 -1.1302054e-05
000010 1c 4f 1c 37 59 2e f5 38 e9 3d 0a b8 67 83 c1 b8
       9.316744e-06 0.00011691143 -3.2959422e-05 -9.227433e-05
000020 f1 95 8d b8 8b d4 51 38 fc 1d ee 38 6a df 1c 39
       -6.751333e-05 5.002743e-05 0.000113543094 0.00014960548
000030 0a be 51 38 c6 88 36 b9 da 88 63 38 44 dc 37 38
       5.000647e-05 -0.00017407825 5.424847e-05 4.383574e-05
000040 48 ad dd 38 e7 a9 a8 b8 88 67 25 b9 08 5d a6 b6
       0.00010570377 -8.042511e-05 -0.00015774195 -4.958016e-06
000050 22 ea 11 37 95 bc 6d 39 02 cb fd b6 c4 61 be 37
       8.697187e-06 0.00022672334 -7.563621e-06 2.269529e-05
000060 cb 62 4f 39 d6 0c 11 ba d1 e4 96 b8 eb 13 88 36
       0.00019777862 -0.0005533224 -7.195178e-05 4.0554346e-06
000070 92 70 5f 37 49 47 9b 35 85 f0 7c 38 64 fd c2 b8
       1.3318046e-05 1.1569147e-06 6.0305483e-05 -9.2978386e-05
000080 e9 ef 94 39 11 08 91 38 f6 06 ea 38 4e 4c 6a 38
       0.00028407507 6.915641e-05 0.00011159286 5.586101e-05
000090 ac 48 53 b8 4a cd 30 38 89 4a 31 39 ef 6d 37 b7
       -5.0374e-05 4.215286e-05 0.00016907802 -1.0933246e-05
0000a0 9b 2f c9 37 1e 01 4c 39 5a f6 f0 38 02 f2 34 b8
       2.3983235e-05 0.00019455372 0.00011489978 -4.314073e-05
0000b0 91 ec 15 39 8c 66 7c b9 ae 82 90 39 59 45 d1 b8
       0.00014297875 -0.00024070794 0.00027563184 -9.9788136e-05
0000c0 09 0c 33 39 98 0f e5 b8 c3 1d ca 39 4e 59 1b b8
       0.00017075254 -0.000109224755 0.00038550617 -3.703805e-05
0000d0 ce 97 d3 b7 6a 7e e3 b7 96 bd 3e 39 0b 2f fc b6
       -2.522385e-05 -2.7119375e-05 0.00018190438 -7.5156618e-06
0000e0 25 c5 2c 38 46 8a 0a b7 7f c2 7f 37 96 d9 8b b8
       4.11916e-05 -8.257635e-06 1.5244469e-05 -6.668565e-05
0000f0 b4 ae 78 b8 25 18 1c 37 e0 df ff 38 c7 dd 34 37
       -5.9290513e-05 9.303946e-06 0.000122010475 1.0780473e-05
000100 d3 4a e3 b7 8a 7c d2 b8 7f 62 12 b9 34 5d 31 b9
       -2.7095351e-05 -0.000100367775 -0.00013960338 -0.00016914756
000110 7f 78 b8 b5 fc b4 f9 37 26 d0 52 ba de 3e 4d b7
       -1.3744137e-06 2.976739e-05 -0.0008041881 -1.223359e-05
000120 f2 68 6b b9 e7 40 b6 39 44 6b 47 38 f8 53 85 b7
       -0.00022450442 0.000347621 4.7545196e-05 -1.5893937e-05
000130 8d a4 5d ba 8a 73 13 b9 dc c4 06 b9 75 e9 62 38
       -0.0008455001 -0.00014062054 -0.00012852572 5.4100023e-05
000140 6b 57 1c b9 c0 f2 b8 b8 bc ac d4 b8 03 83 a5 b8
       -0.00014909885 -8.8190194e-05 -0.00010141122 -7.892216e-05
000150 be 55 fe b9 d1 fa e6 36 82 ca 5b b9 42 82 be 37
       -0.00048510538 6.883733e-06 -0.00020960908 2.2710421e-05
000160 b4 79 6f b8 35 1a 35 38 02 c2 07 ba 2f 13 91 b7
       -5.7095385e-05 4.317817e-05 -0.0005178751 -1.729428e-05
000170 ec c8 11 b4 93 45 10 39 35 7d 93 3a be aa 84 b9
       -1.3577272e-07 0.00013758829 0.0011252525 -0.00025304215
000180 0c da 99 b7 36 0c 6e 39 de d9 be b7 7b 46 c3 38
       -1.8340557e-05 0.00022701998 -2.2751217e-05 9.3114526e-05
000190 11 8c 48 38 0b 22 9f 37 12 58 2f 39 f0 d5 1a 37
       4.7814163e-05 1.897013e-05 0.0001672211 9.2289265e-06
0001a0 8c 27 a2 37 31 da 1a 37 fe 1c 8b 38 64 59 70 b7
       1.933032e-05 9.229917e-06 6.633437e-05 -1.4325928e-05
0001b0 2b fe ce 39 36 80 99 b8 56 28 c5 38 f7 43 09 38
       0.00039480752 -7.31949e-05 9.401205e-05 3.2726643e-05
0001c0 39 b5 3c 38 a4 fd 70 37 63 43 54 b8 1a 12 26 39
       4.499147e-05 1.436417e-05 -5.0607498e-05 0.00015837737
0001d0 2e 71 21 38 03 09 95 38 50 d8 80 37 38 d2 89 38
       3.8490798e-05 7.106552e-05 1.5359517e-05 6.571825e-05
0001e0 c4 39 48 b8 f5 e5 11 39 2a dc 53 38 35 5d b3 38
       -4.7737514e-05 0.00013913943 5.0511364e-05 8.552746e-05
0001f0 2f 3c 34 38 59 ce 0a b8 d1 22 68 b4 ff 49 7c b7
       4.2971395e-05 -3.309394e-05 -2.161935e-07 -1.5037599e-05

weight f4 [128]
000000 65 1f 67 3f 93 72 56 3f d2 f8 44 3f e6 d8 3c 3f
       0.9028228 0.83768576 0.7694217 0.7376846
000010 21 da 63 3f f6 8b 54 3f 95 43 61 3f 31 8c 6a 3f
       0.89004713 0.83026063 0.87993747 0.91620165
000020 2e 06 4a 3f 62 92 18 3f 2e fb 54 3f 7c 68 70 3f
       0.7891568 0.5959836 0.8319577 0.9390943
000030 68 cd 79 3f a2 aa 80 3f d6 ae 62 3f 5d 2e 74 3f
       0.9757905 1.0052073 0.8854803 0.95383245
000040 80 a9 57 3f 26 f3 5b 3f be 91 84 3f d3 86 1e 3f
       0.8424301 0.8591789 1.0356977 0.61924475
000050 a9 39 65 3f 6b 23 7c 3f 05 aa 53 3f 5b 4d 47 3f
       0.8954111 0.98491544 0.82681304 0.7785241
000060 bc 4c 5d 3f 1e 86 6c 3f 2e 5c 58 3f c4 6f 47 3f
       0.8644521 0.92392147 0.84515655 0.77904916
000070 c6 40 2f 3f 8c 23 11 3f 3d b1 73 3f 99 d5 81 3f
       0.6845821 0.56694865 0.9519232 1.014331
000080 a1 ba 6c 3f 49 75 46 3f d4 b6 80 3f 2c f7 61 3f
       0.92472273 0.7752271 1.0055795 0.8826778
000090 97 ca 67 3f fe 76 72 3f 52 a6 77 3f 76 f8 57 3f
       0.905435 0.9471282 0.9673816 0.84363496
0000a0 4e a1 36 3f 82 83 82 3f b1 65 74 3f 7a 6f 18 3f
       0.7133988 1.0196383 0.9546767 0.595451
0000b0 ac 62 6a 3f b8 a4 6c 3f b3 e5 69 3f a2 ab 77 3f
       0.9155681 0.9243884 0.9136612 0.96746266
0000c0 ea 08 82 3f b4 b8 6e 3f f9 ed 7d 3f a2 d5 5a 3f
       1.015897 0.93250585 0.9919124 0.8548223
0000d0 b3 53 7a 3f 84 d7 44 3f 9d cf 76 3f 2a 0f 56 3f
       0.97783965 0.7689135 0.9641054 0.8361689
0000e0 aa 25 81 3f bc 91 1d 3f 72 75 4d 3f e9 de 42 3f
       1.0089619 0.615505 0.8025733 0.76121384
0000f0 a7 f6 44 3f df b1 5d 3f 1a 2b 7b 3f e4 f2 4e 3f
       0.7693886 0.86599535 0.9811264 0.8083937
000100 83 52 5a 3f 8c 8e 89 3f 2a ae 4c 3f dc 89 43 3f
       0.8528215 1.0746627 0.79953253 0.7638223
000110 e7 89 43 3f 7e 8c 54 3f 60 88 86 3f ff 3a 6f 3f
       0.763823 0.83026874 1.0510368 0.93449396
000120 95 91 57 3f 52 57 58 3f f5 01 33 3f 95 00 5a 3f
       0.84206516 0.8450824 0.6992486 0.8515714
000130 5b 8f 83 3f bc fe 4a 3f 41 6b 58 3f 8d c6 51 3f
       1.0278124 0.79294944 0.84538656 0.8194359
000140 11 78 72 3f 29 24 7c 3f fd ce 81 3f c7 cc 74 3f
       0.94714457 0.98492676 1.0141293 0.95624965
000150 10 c6 3f 3f 76 2f 57 3f e7 48 6b 3f 8a 19 46 3f
       0.74911594 0.84056795 0.91908115 0.7738272
000160 8e 56 65 3f d2 92 58 3f d7 f5 7d 3f e2 82 25 3f
       0.89585197 0.8459903 0.99203247 0.64652836
000170 66 80 19 3f 31 cc 71 3f d4 da 79 3f 62 06 80 3f
       0.59961545 0.94452196 0.9759953 1.0001948
000180 15 26 58 3f 9e 1b 7b 3f 98 73 18 3f b4 14 72 3f
       0.8443311 0.98089015 0.5955138 0.9456284
000190 98 8d 54 3f 3d d3 57 3f 98 c8 86 3f 91 69 59 3f
       0.83028555 0.843067 1.0529966 0.84926707
0001a0 41 4d 31 3f 90 e3 13 3f 83 97 2f 3f 50 41 6b 3f
       0.69258505 0.5776911 0.68590564 0.91896534
0001b0 e8 58 7c 3f 4c 0a 50 3f 59 b2 64 3f 9f 55 39 3f
       0.9857316 0.8126571 0.89334637 0.7239627
0001c0 93 c9 2c 3f d1 ed 81 3f 58 62 42 3f 90 17 79 3f
       0.6749508 1.0150701 0.7593131 0.9730158
0001d0 4f 8b 25 3f 1c 3d 4e 3f d9 3d 5b 3f 77 51 6f 3f
       0.64665693 0.80561996 0.8564125 0.9348368
0001e0 24 60 35 3f 1f d2 71 3f 73 56 32 3f 1c a6 5e 3f
       0.70849824 0.94461244 0.6966316 0.8697221
0001f0 2c 9e 70 3f 8d cb 4c 3f fd ed 5f 3f b0 62 20 3f
       0.9399135 0.79998094 0.87472516 0.62650585

bias f4 [128]
000000 1c 4e 72 bd 10 70 e7 bd 36 fd 14 be 32 e3 01 be
       -0.059156522 -0.11300671 -0.14549717 -0.12684324
000010 f9 71 1f be 68 bf e4 bd fb 26 9b bd a3 17 cc 3c
       -0.15570821 -0.1116932 -0.07575794 0.024913615
000020 0c d2 17 bd 10 b8 32 be e4 61 7e bd e1 ac 07 bd
       -0.03706555 -0.17453027 -0.062105075 -0.033123855
000030 20 e7 f4 bd be c3 09 be 3c 99 fc bd 38 b0 1c bd
       -0.11958146 -0.13453576 -0.12333915 -0.038253993
000040 31 a4 43 bd f7 45 4b bd 74 73 a4 bd 27 2d 16 be
       -0.047764007 -0.04962727 -0.080298334 -0.14665662
000050 0d 67 14 bd b5 b0 c0 bc 94 77 2c 3d 15 7d 46 be
       -0.03623109 -0.02352176 0.042106226 -0.19383653
000060 97 98 b8 bc d8 8c b6 bd b6 94 dd bc d5 b4 51 be
       -0.022533698 -0.089135826 -0.02704845 -0.20479138
000070 eb ff 38 bd d2 ed 1c be a5 f5 50 bd e8 cf 05 be
       -0.045165937 -0.15325096 -0.051015515 -0.13067591
000080 1b 26 7a bd aa 0a 04 be ce 30 ac bd 03 5b a4 bd
       -0.061071496 -0.12894693 -0.08407746 -0.080251716
000090 b9 82 c6 bd 2e 28 57 3a 9f bb 12 be 3a e6 0e be
       -0.09692902 0.00082075864 -0.14329384 -0.13955012
0000a0 f9 1a 87 bd f1 cb 6a bd 8c 01 dd bd c2 c6 e5 bd
       -0.065969415 -0.0573234 -0.10791311 -0.11219551
0000b0 ad da 01 be 66 1e d1 bd ae ab fe bd de 2c 48 3b
       -0.12681074 -0.10210876 -0.12435089 0.003054432
0000c0 22 22 07 be 0c 98 32 be 4d ed 23 be 0a 0d 03 bc
       -0.13196614 -0.17440814 -0.16008492 -0.007998714
0000d0 79 98 c1 bc 8c e2 59 bd f0 87 08 bd 20 d9 05 be
       -0.023632275 -0.053194568 -0.033332765 -0.13071108
0000e0 de 93 bc bd e1 9f 03 be 02 bc 02 3d c8 c9 af bd
       -0.09207891 -0.12853958 0.03191758 -0.085834086
0000f0 0f f3 c1 bd 46 0a 69 bd 42 e8 5e bd 4b 54 7e bd
       -0.09470188 -0.056894563 -0.054420717 -0.062092107
000100 2c e7 c4 bd ba 2f 0d be 2b 15 f1 bd f1 1a 02 be
       -0.09614405 -0.13787737 -0.117716156 -0.1270559
000110 50 ad e3 3c 90 b9 15 bd 65 70 12 be f8 5a 37 3d
       0.027792603 -0.03655392 -0.14300688 0.04476449
000120 9c 0e 18 be 07 60 18 bd bb 34 d5 bd 40 75 0c bd
       -0.14849323 -0.037200954 -0.10410448 -0.034291506
000130 2b 9c 88 bd dc 4d b0 bd 08 ca f4 bd 1c 51 ed bd
       -0.06670412 -0.086086005 -0.11952597 -0.11587736
000140 b0 11 db bd b9 76 48 be 7a b8 3f be 9f 31 2a be
       -0.10696733 -0.19576539 -0.18722716 -0.16620491
000150 9f b7 2f be b3 cf 51 be b1 38 b4 bd 0e 89 d1 bd
       -0.1715989 -0.20489387 -0.087998755 -0.10231219
000160 1d 4d f4 bc e6 51 9e bd e1 94 ed 3d 46 d0 24 3d
       -0.029821927 -0.07730465 0.11600662 0.040237688
000170 a7 de b0 bd cf 3c c2 3c 0a b9 74 3d 33 6a 31 bd
       -0.086362176 0.023710636 0.05974678 -0.04331417
000180 e5 0d d8 bd de 4f 61 bc 2c 83 0f be 9f 22 c8 bd
       -0.10549525 -0.013751952 -0.14014882 -0.097722284
000190 1d cf 71 bd 7a 66 a9 bd 3c 5c e7 3d 3e 3b c8 bd
       -0.05903541 -0.08271499 0.11296889 -0.097769246
0001a0 0a 01 f3 bd 3a d7 3c bd d5 ab a1 bd 10 25 48 bd
       -0.118654326 -0.046103694 -0.078941025 -0.04886347
0001b0 06 c7 23 3d 18 82 04 be c7 19 33 be 4b 9e 18 be
       0.039984725 -0.12940252 -0.17490302 -0.14904134
0001c0 ea 07 40 be f6 bb 7d bd 9b 63 e6 bc 17 3e f6 bd
       -0.18753019 -0.06194683 -0.028123667 -0.120235614
0001d0 10 f0 67 be 17 35 2e bd 3f be 04 bd 74 01 a5 bd
       -0.2265017 -0.0425311 -0.032407995 -0.08056918
0001e0 90 32 a4 bd f3 3b 37 bd 26 52 1b 3d 51 d7 77 be
       -0.080174565 -0.044734906 0.03792014 -0.2420323
0001f0 ef 66 c8 bc f4 60 3d be 80 f4 59 bd 30 93 1f be
       -0.024463145 -0.18494016 -0.05321169 -0.15583491

running_mean f4 [128]
000000 af db a1 3a 0f a0 2e ba 2f 45 67 3a 68 51 4c ba
       0.0012348796 -0.0006661424 0.000882226 -0.0007794113
000010 0a de 26 ba bc a1 30 3a 36 e5 8b 3a c9 50 45 ba
       -0.0006365484 0.00067379675 0.0010673169 -0.00075269915
000020 a8 2a 20 ba 0b 3a 09 3a 49 ca 74 ba 6e 55 90 ba
       -0.0006109872 0.00052347843 -0.0009338004 -0.0011011788
000030 61 bb 5a ba b6 1a 1e ba 85 48 52 3a 4d ce 73 ba
       -0.00083439617 -0.0006031202 0.00080216705 -0.00093004556
000040 83 e7 04 3a d0 d4 36 ba f3 48 91 3a bc 66 51 3a
       0.00050698983 -0.00069744606 0.0011084363 0.0007988026
000050 ce 1c 16 ba 3e df 64 ba 85 b3 5d 3a 99 eb 41 3a
       -0.0005726338 -0.00087307754 0.00084572315 0.00073974725
000060 db 72 5f ba be 8c 0a 3a 50 bd 7c ba 44 e3 08 ba
       -0.00085238897 0.00052852544 -0.0009641247 -0.00052218535
000070 d7 76 43 3a 95 f0 11 3a 89 ad aa 39 a7 c3 57 ba
       0.0007456368 0.00055671606 0.0003255422 -0.00082307536
000080 42 cc 18 3a 56 bb 12 ba 96 4a 41 3a 2e 88 ea 39
       0.00058287766 -0.0005597373 0.000737348 0.0004473342
000090 f5 1b 98 39 62 7a 4b 3a 24 7d 49 3a 17 83 4e 3a
       0.0002901253 0.0007762072 0.0007686189 0.000787781
0000a0 8f 9d 52 3a a0 4a 14 3a a6 2a 5d ba 33 e6 3a 3a
       0.00080343423 0.0005656872 -0.0008436836 0.0007129639
0000b0 b9 b7 b0 39 d9 a6 3b 3a 45 13 0f b9 84 70 1c 3a
       0.0003370622 0.0007158346 -0.00013644721 0.0005967694
0000c0 6c 13 55 ba ba 8b 92 3a 4f 69 d1 b9 6a e3 4c ba
       -0.0008128199 0.0011180558 -0.00039942047 -0.000781587
0000d0 1e 01 75 3a 33 cf 65 3a 2c bb d8 39 e9 08 3b 3a
       0.0009346175 0.0008766532 0.00041338184 0.00071348116
0000e0 df 6d 51 3a 86 90 b1 39 b7 f5 1d ba 2e 97 27 3a
       0.00079890894 0.0003386775 -0.0006025689 0.0006393072
0000f0 3f 6e 56 3a aa bc 35 3a 50 b7 10 ba 45 78 f0 39
       0.000817988 0.0006932715 -0.000552048 0.00045865975
000100 d8 c0 33 3a 1c 9b 27 3a 0e b8 12 ba 07 6b 23 3a
       0.0006857044 0.00063936575 -0.00055968843 0.0006233905
000110 5a 16 42 3a b5 62 49 3a 59 52 3d 3a f0 5d 05 ba
       0.00074038433 0.000768225 0.00072220486 -0.0005087545
000120 cb 27 44 3a 76 ad e7 39 41 f2 13 3a 47 4f 50 3a
       0.0007482736 0.00044188992 0.00056437036 0.00079463836
000130 10 7d 6a ba d3 1d 3c 3a 93 cd 37 3a 5c 54 17 ba
       -0.00089450274 0.0007176075 0.0007011529 -0.00057727634
000140 66 80 23 3a 27 1e 9a 39 49 71 33 ba 77 b9 7c ba
       0.00062370894 0.00029395634 -0.0006845189 -0.00096406735
000150 25 b4 97 ba 79 b2 2f ba 35 f7 46 ba d6 32 0b ba
       -0.0011574073 -0.0006702315 -0.00075899373 -0.00053100043
000160 66 f0 5f ba c2 91 61 ba aa 0f 65 ba 00 da 61 3a
       -0.0008542597 -0.00086047885 -0.0008737991 0.00086155534
000170 d3 94 22 3a 2e 29 11 3a cc 0a ba b8 76 fd 1d b9
       0.0006201986 0.0005537447 -8.871182e-05 -0.00015067108
000180 00 73 69 3a cb 3e 2a 3a ce 1f 82 39 44 36 81 3a
       0.0008905381 0.0006494342 0.0002481923 0.0009858091
000190 41 5f 26 3a bf aa 4a ba 2e c2 1e 3a 69 de 6f 3a
       0.00063465914 -0.00077311316 0.00060561567 0.0009150268
0001a0 98 07 10 3a 3d 9c 14 3a ee c7 0b ba 9f 67 f0 39
       0.00054942956 0.0005669033 -0.0005332221 0.0004585357
0001b0 15 27 4c 3a f7 d4 78 ba f4 f9 54 3a 00 a8 f6 b9
       0.0007787806 -0.00094921835 0.0008124404 -0.00047045946
0001c0 01 f7 cb b9 0f ce c8 b9 7e 99 51 ba 34 de 1c 3a
       -0.0003890321 -0.00038300498 -0.00079955894 0.00059840386
0001d0 15 80 08 ba e3 f0 5e 3a a8 3a 4d ba 5c 7e 80 ba
       -0.0005207074 0.0008504523 -0.000782887 -0.0009803283
0001e0 2c e0 54 3a 1f b1 24 ba 1e a3 48 3a 5a 7e 94 39
       0.00081205624 -0.00062824966 0.0007653701 0.000283229
0001f0 9d 6f 8b ba 9e 01 18 ba df 64 72 ba c6 78 1f 3a
       -0.0010638122 -0.0005798581 -0.00092465983 0.00060833653

running_var f4 [128]
000000 a7 2e 5d 3b 43 e7 c8 3a 91 30 2b 3b 35 37 05 3b
       0.003374973 0.001532771 0.0026121477 0.0020327095
000010 3d 74 e0 3a f7 32 03 3b a0 62 71 3b ef 0f 07 3b
       0.0017124485 0.002001939 0.0036832467 0.0020608862
000020 90 e8 a6 3a fa 12 78 3a f2 ab 33 3b e1 ab 88 3b
       0.0012734104 0.0009463277 0.002741572 0.00417088
000030 ab 4f 07 3b e4 18 81 3a 0a f0 e2 3a 37 ec 33 3b
       0.002064685 0.0009849337 0.0017313969 0.0027454027
000040 fb 26 52 3a ed 16 b4 3a 42 7a 8b 3b 9e 0f 04 3b
       0.0008016673 0.0013739743 0.0042565176 0.002015091
000050 b4 51 89 3a 71 91 cb 3a a7 9c 23 3b c9 67 00 3b
       0.001047662 0.0015531016 0.0024965198 0.001959311
000060 26 e8 5c 3b eb a1 9f 3a 87 73 44 3b f4 fd 5d 3a
       0.0033707707 0.0012178993 0.0029976086 0.0008468323
000070 77 b7 05 3b ff 5b 8b 3a 4c 07 dc 39 b7 cc 1a 3b
       0.0020403543 0.0010632275 0.00041967107 0.0023620555
000080 67 e8 a3 3a 19 ab 70 3a 2a 1e df 3a df 02 2d 3a
       0.0012505174 0.0009180769 0.0017022539 0.0006599854
000090 d9 9e 02 3a f6 13 f6 3a e7 72 b1 3a 41 4c f7 3a
       0.00049827766 0.0018774259 0.0013538272 0.001886733
0000a0 4f 89 11 3b 88 32 a8 3a 3d 81 2d 3b e0 f0 e1 3a
       0.0022207086 0.0012832442 0.0026474737 0.0017237924
0000b0 53 8b ab 39 f7 71 f0 3a cf 3c d2 39 24 5b b8 3a
       0.00032719466 0.0018344511 0.00040099627 0.0014065248
0000c0 6e 59 19 3b 56 e6 96 3b 65 f0 4c 3a 13 45 02 3b
       0.0023399252 0.004605095 0.0007817804 0.0019877597
0000d0 30 42 2c 3b d6 7a 1e 3b df 19 73 3a 1a 24 f0 3a
       0.0026284568 0.0024182103 0.00092735694 0.0018321306
0000e0 88 df f4 3a 83 7c a9 39 4d 9f b0 3a 05 a4 c6 3a
       0.001868234 0.0003232696 0.001347521 0.0015155083
0000f0 04 4b 18 3b c4 a5 d0 3a 57 d7 b3 3a 87 67 3e 3a
       0.0023238072 0.0015918543 0.0013720792 0.00072633516
000100 fc 32 cb 3a d9 04 e7 3a f8 16 70 3a 1c ce ba 3a
       0.0015502865 0.0017625346 0.0009158696 0.0014252099
000110 8e 98 f5 3a 70 46 e2 3a e8 9a ed 3a a5 ef 48 3a
       0.0018737481 0.0017263424 0.0018127831 0.00076651043
000120 13 01 e8 3a 24 fe 32 3a fd 08 95 3a a3 08 35 3b
       0.0017700515 0.0006828031 0.0011370477 0.0027623556
000130 7b 0c 08 3b 53 80 fc 3a 7f aa d4 3a ea 58 9f 3a
       0.0020759392 0.0019264318 0.0016225128 0.0012157236
000140 1d 70 5e 3a c1 4e b7 39 89 51 4f 3a b3 ba 1e 3b
       0.0008485334 0.00034963156 0.0007908573 0.0024220168
000150 4a 8a 9b 3b 97 e9 c9 3a ee 2a 98 3a 69 ad 6a 3a
       0.00474671 0.0015404698 0.0011609474 0.0008952232
000160 85 25 26 3b fb 1d 27 3b 85 29 1b 3b 58 9d 2a 3b
       0.0025351953 0.0025500047 0.002367587 0.0026033726
000170 17 72 a2 3a 03 f5 5a 3a 21 00 3b 3a 06 28 cf 39
       0.001239362 0.00083525496 0.0007133503 0.00039511936
000180 fa d8 36 3b bb a5 90 3a a7 bd 51 39 c4 98 dd 3a
       0.0027900324 0.001103572 0.00020002444 0.001690649
000190 2d c4 b0 3a b2 eb ff 3a 9e eb e3 3a 13 64 47 3b
       0.0013486199 0.0019525199 0.0017388945 0.003042464
0001a0 a8 23 89 3a 0a d8 91 3a 56 34 6e 3a dc 72 57 3a
       0.0010462897 0.0011127007 0.0009086778 0.00082187145
0001b0 34 b1 bd 3a 9f 1e 37 3b d7 14 0e 3b b9 9c 31 3a
       0.0014472366 0.0027941836 0.0021679902 0.00067753677
0001c0 6a 44 06 3a fd e1 85 3a fc dc 0c 3b e8 3f a2 3a
       0.0005121889 0.0010214444 0.0021494022 0.0012378665
0001d0 75 6e 7e 3a e2 14 29 3b c0 87 2b 3b fd 49 66 3b
       0.00097057904 0.00257998 0.0026173443 0.0035139315
0001e0 9f 3b 12 3b 53 1e d2 3a 87 8f 0b 3b b8 56 64 39
       0.002231337 0.0016030766 0.0021295266 0.0002177608
0001f0 cd 0c 71 3b 88 f3 9c 3a ea 1a 3c 3b 78 1a 7c 3a
       0.0036781312 0.0011974433 0.0028702565 0.0009616981
