UCTB/bike_chicago60212864.pth (torch, 405137 bytes, 62 tensors)

weight f4 [128, 7, 1, 1]
0	0x3aec5cd0	0.0018033031
1	0x3b03ead0	0.0020128973
2	0x3afe53ed	0.0019403674
3	0x3b0b5bd8	0.002126446
4	0x3b0b6e53	0.0021275475
5	0x3af1ac15	0.0018438125
6	0x3aece6ce	0.0018074156
7	0x3652d236	3.1414797e-06
8	0x36297ddb	2.525622e-06
9	0x364d1ae3	3.056303e-06
10	0x369093f5	4.308759e-06
11	0x3690bc97	4.313489e-06
12	0x369fdbfb	4.7641784e-06
13	0x36a8a859	5.0263884e-06
14	0xbcbc494a	-0.022984166
15	0xbc72e065	-0.014824008
16	0xbc7b619f	-0.015343099
17	0xbc2f6506	-0.010705238
18	0xbc2fa6f7	-0.01072096
19	0xbc807131	-0.015678974
20	0xbc893309	-0.016747968
21	0xbaa1ceaf	-0.0012344922
22	0x3b166d14	0.00229532
23	0x3a36a59a	0.00069674256
24	0x3a5a5d98	0.00083299866
25	0x3a48d990	0.0007661814
26	0xba46a006	-0.0007576946
27	0xba8b1c51	-0.0010613297
28	0x3b65e6dd	0.0035080232
29	0x3bc3ce73	0.0059755384
30	0x3ba693b7	0.005083527
31	0x3bd08025	0.0063629323
32	0x3bd00034	0.0063476805
33	0x3b7dfdbe	0.0038755978
34	0x3b74f93b	0.0037379998
35	0x3a57ee8a	0.0008237144
36	0x3a3af7b3	0.0007132247
37	0x3a3345dd	0.00068387185
38	0x3a2d4667	0.0006609917
39	0x3a2d8d9f	0.00066205295
40	0x3a2812bc	0.0006411483
41	0x3a219e6f	0.0006165271
42	0x393375e4	0.00017114688
43	0x3ba142d6	0.0049212975
44	0x3adbd427	0.00167716
45	0x3b022c55	0.001986285
46	0x3aeef72c	0.0018231622
47	0xb8d5237a	-0.000101632395
48	0xb9b169cb	-0.00033838893
49	0xb412227b	-1.3609854e-07
50	0xb28bde9c	-1.628296e-08
51	0xb280c419	-1.4990336e-08
52	0xb427ae66	-1.5616533e-07
53	0xb426f233	-1.5548066e-07
54	0xb3ec665f	-1.10082276e-07
55	0xb3d760bf	-1.0029316e-07
56	0x397c6755	0.00024071087
57	0x3971840f	0.00023032747
58	0x396e9352	0.0002275233
59	0x396964cf	0.00022258166
60	0x3969b87e	0.0002228934
61	0x396e6549	0.0002273518
62	0x396a14a5	0.0002232367
63	0xbc8c6795	-0.017139236
64	0xbb605063	-0.0034227602
65	0xbc1b3cd8	-0.0094749555
66	0xbc569dba	-0.013099128
67	0xbc52fd18	-0.012877725
68	0xbc4db67c	-0.012555715
69	0xbc65f39c	-0.014035132
70	0x3d221d9c	0.03957902
71	0x3d182ec7	0.037153985
72	0x3cef9e3c	0.029250257
73	0x3cdc08d1	0.026859673
74	0x3cdf2dd8	0.02724354
75	0x3cb977eb	0.02264019
76	0x3cf40a6c	0.029790126
77	0xbcdd6019	-0.027023362
78	0xbc8fd62f	-0.017558185
79	0xbc8699d7	-0.016430778
80	0xbc2d0324	-0.010559831
81	0xbc2c1db2	-0.010505127
82	0xbc7ea0d0	-0.01554127
83	0xbc8c8c8e	-0.017156865
84	0xbcb68fae	-0.022285309
85	0xbcbf5e2a	-0.02336033
86	0xbcbac1af	-0.022797434
87	0xbc8d234e	-0.017228749
88	0xbc8c5072	-0.017128203
89	0xbcae7d4e	-0.021299984
90	0xbcb56438	-0.022142515
91	0x3382b2da	6.0861296e-08
92	0x339340ff	6.8570436e-08
93	0x339e1b32	7.362395e-08
94	0x33870206	6.2867954e-08
95	0x33871422	6.2900895e-08
96	0x33912481	6.758729e-08
97	0x33959c4e	6.966785e-08
98	0xb6e4c06c	-6.8173304e-06
99	0x365716c4	3.2050748e-06
100	0x3678d3a2	3.7078066e-06
101	0x367d97cb	3.7788293e-06
102	0x36806234	3.8261296e-06
103	0x36015f9c	1.927815e-06
104	0x362379ac	2.4359715e-06
105	0x38c2aec3	9.283193e-05
106	0x38dca586	0.000105212486
107	0x38d75963	0.000102686485
108	0x38b099a7	8.420954e-05
109	0x38b0521d	8.407629e-05
110	0x38c17a4d	9.2257374e-05
111	0x38c2a270	9.280897e-05
112	0xbc4fceeb	-0.01268361
113	0xbc25f504	-0.010129217
114	0xbc580114	-0.013183851
115	0xbc85ed71	-0.016348572
116	0xbc814557	-0.015780134
117	0xbcad2554	-0.021135963
118	0xbcaa9947	-0.020825041
119	0x3670bb92	3.5871967e-06
120	0x367cdb49	3.7678567e-06
121	0x367d0273	3.7701363e-06
122	0x36616c10	3.3590513e-06
123	0x36617b67	3.3599442e-06
124	0x367311c0	3.6220154e-06
125	0x36717be0	3.5983903e-06
126	0x34539df5	1.9708371e-07
127	0x3593a161	1.0999321e-06
128	0x35971160	1.1255433e-06
129	0x350a57e9	5.153693e-07
130	0x35099cd0	5.126467e-07
131	0x350ed651	5.3210994e-07
132	0x350bd6b2	5.209396e-07
133	0x3ce73079	0.028221356
134	0x3d0dfa4d	0.034662534
135	0x3ce46c2a	0.027883608
136	0x3ca3b213	0.019982373
137	0x3ca0d86e	0.019634452
138	0x3ca4b19c	0.020104222
139	0x3cb2f49e	0.021845158
140	0x3824da6e	3.9304075e-05
141	0x3816e919	3.5979876e-05
142	0x3815869f	3.5649744e-05
143	0x381412a7	3.530332e-05
144	0x38142370	3.5318953e-05
145	0x3817d5b0	3.6200217e-05
146	0x3813a7bc	3.5203746e-05
147	0x37a36da0	1.9482162e-05
148	0x37944d18	1.7678874e-05
149	0x378ffdfb	1.7165197e-05
150	0x37855b60	1.5897385e-05
151	0x37856db0	1.5905913e-05
152	0x378ba989	1.6649037e-05
153	0x3789ce0f	1.6427626e-05
154	0xbcd66d60	-0.026175201
155	0xbcbbe47a	-0.022936095
156	0xbcad4f9a	-0.021156121
157	0xbc835b5a	-0.01603477
158	0xbc834fbd	-0.016029233
159	0xbcaa77aa	-0.020809013
160	0xbcb7bc08	-0.022428527
161	0xaeb4081d	-8.1868935e-11
162	0x31de3e4b	6.4681323e-09
163	0x31eaebcd	6.8371038e-09
164	0x31891d46	3.9905528e-09
165	0x3188f8ec	3.98642e-09
166	0x31a2e6a5	4.741042e-09
167	0x31a2cdeb	4.7382307e-09
168	0xb5c3bc1f	-1.4583383e-06
169	0xb5bdacee	-1.4131926e-06
170	0xb5bf61a3	-1.4259025e-06
171	0xb5a5b554	-1.2346231e-06
172	0xb5a5a414	-1.2341211e-06
173	0xb5b7e6f8	-1.3701783e-06
174	0xb5b8af05	-1.3760006e-06
175	0x36b687da	5.439838e-06
176	0x36abc45c	5.1190564e-06
177	0x36b8f093	5.511634e-06
178	0x36b61219	5.4261295e-06
179	0x36b61b08	5.4271695e-06
180	0x36cc7f5c	6.0945003e-06
181	0x36ca372e	6.026493e-06
182	0xb9b50fd1	-0.00034534794
183	0xb7ef1946	-2.8502789e-05
184	0xb82f46b1	-4.1789088e-05
185	0xb7ea58d5	-2.793634e-05
186	0xb7f284c9	-2.8910481e-05
187	0xb88a479d	-6.593692e-05
188	0xb8af684e	-8.3640785e-05
189	0x35a71852	1.2449548e-06
190	0xb6081200	-2.0276057e-06
191	0xb62c1161	-2.5640113e-06
192	0x37191f2c	9.126768e-06
193	0x3718e5e9	9.113436e-06
194	0x372beca3	1.02474905e-05
195	0x3746850d	1.1832698e-05
196	0xb58ee0b9	-1.0645227e-06
197	0x348e0825	2.6455487e-07
198	0x349faa33	2.9739894e-07
199	0x342454be	1.5304519e-07
200	0x3422dfcd	1.5168844e-07
201	0x3476cebb	2.2985743e-07
202	0x34820a33	2.4221808e-07
203	0x35b2b66e	1.3315127e-06
204	0x359dfbef	1.1770734e-06
205	0x359b1810	1.1555403e-06
206	0x35784fa6	9.2503103e-07
207	0x3578490c	9.2493497e-07
208	0x358e9726	1.0623814e-06
209	0x358c77e1	1.0465702e-06
210	0xbc989d67	-0.018629743
211	0xbbc5d963	-0.0060378774
212	0xbc283e2a	-0.010268727
213	0xbc4215b0	-0.011845991
214	0xbc4071a3	-0.011745843
215	0xbc4e4d09	-0.012591609
216	0xbc61be6f	-0.013778313
217	0x3a2bea5c	0.00065580546
218	0x39b1afab	0.00033890954
219	0x39a3ac3a	0.00031218102
220	0x39b395fa	0.00034253282
221	0x39b30bdb	0.00034150374
222	0x39bb17b0	0.00035685068
223	0x39b102e6	0.0003376223
224	0x33cb7c40	9.475525e-08
225	0x33c17ff7	9.0105395e-08
226	0x33cebde1	9.627161e-08
227	0x33d4eb77	9.91485e-08
228	0x33d52134	9.924625e-08
229	0x33ef541c	1.1144604e-07
230	0x33f88d54	1.15741074e-07
231	0xbce1a20f	-0.027543096
232	0xbcf0cbdd	-0.029394085
233	0xbcc94a1d	-0.024571473
234	0xbcb04d17	-0.021521134
235	0xbcaf0943	-0.021366721
236	0xbcf520c0	-0.029922843
237	0xbd0a2abc	-0.03373216
238	0xbce33696	-0.02773599
239	0xbce5ada5	-0.028036902
240	0xbcdf3599	-0.027247237
241	0xbca3165e	-0.019908126
242	0xbca28c8c	-0.019842409
243	0xbcd95ba8	-0.026532963
244	0xbce5fe06	-0.02807523
245	0x3731830c	1.0580534e-05
246	0x37030350	7.80898e-06
247	0x371967bc	9.143663e-06
248	0x370f570b	8.5437305e-06
249	0x370f676b	8.547543e-06
250	0x374d16c0	1.2224249e-05
251	0x37592ff7	1.2945376e-05
252	0x3a9d71e5	0.0012012093
253	0x3a9b18f7	0.0011833002
254	0x3a9b3fdf	0.0011844597
255	0x3a9a753e	0.0011784208

bias f4 [128]
0	0x3d87974d	0.06620655
1	0xbd0b9039	-0.03407309
2	0x3d0365fb	0.032079678
3	0xbc0cb1b9	-0.008587294
4	0x3c195f45	0.009361093
5	0xbca1c5c1	-0.019747617
6	0xbd32fbc4	-0.043697134
7	0xbca65286	-0.020303022
8	0xbc094916	-0.008379241
9	0x3e4aa8cc	0.19790953
10	0xbde65b34	-0.11247864
11	0x3d0c75cd	0.03429203
12	0x3c4df260	0.012569994
13	0x3b126702	0.002233923
14	0xbc594c31	-0.013262794
15	0xbcb8949b	-0.022531798
16	0x3df5cd00	0.12001991
17	0x3d3bfc0e	0.045894675
18	0x3ca38ec1	0.019965531
19	0xbe0a4c66	-0.13505706
20	0xb96c3359	-0.00022525842
21	0x3c89a838	0.016803846
22	0x3d01ff27	0.031737473
23	0xbbfbdf2b	-0.007686516
24	0xbb90cebe	-0.004419177
25	0xbce8414c	-0.028351448
26	0x3cbaf8ad	0.022823656
27	0xbcb63138	-0.022240266
28	0xba4b9190	-0.0007765526
29	0xbd3fcd46	-0.046826623
30	0x3e0ffc67	0.14061128
31	0x3baf1ee9	0.005344261
32	0xbb713e6e	-0.0036810893
33	0x3e3cbf7f	0.18432425
34	0x3d3c322d	0.04594629
35	0x3c9363fa	0.017992008
36	0xbd430983	-0.047616493
37	0xbcb6267a	-0.022235144
38	0xbc6120db	-0.0137407435
39	0xbcfdf050	-0.030998379
40	0xbda78d20	-0.08181214
41	0x3e16b7c8	0.14718544
42	0xbc2d2116	-0.01056697
43	0x3e038108	0.1284219
44	0x3d56d068	0.052444845
45	0xbe04625c	-0.12928146
46	0xbc9699ab	-0.018383821
47	0x3d8676e8	0.06565648
48	0xbc648cea	-0.013949612
49	0x3e1d9cd0	0.1539185
50	0xbd9290ae	-0.07156502
51	0x3c8c9cc9	0.017164605
52	0x3de27787	0.11057954
53	0x3e374b47	0.1789981
54	0xbc620a3a	-0.0137963835
55	0x3bebb14b	0.007192766
56	0x3e01b5d2	0.12667015
57	0xbcc70abb	-0.024297109
58	0xbd590422	-0.052982457
59	0xbc0a254c	-0.008431744
60	0x3e5296de	0.20565364
61	0xbc610878	-0.013734929
62	0xbc9c353a	-0.01906835
63	0xbd2053c4	-0.039142385
64	0xbc9b09c0	-0.018925548
65	0xbe038309	-0.12842955
66	0x3c53f297	0.012936256
67	0x3bed7c42	0.0072474787
68	0xbd45e59b	-0.048314672
69	0xbc83609e	-0.016037282
70	0x3e184642	0.14870551
71	0xbdc3dd16	-0.09563653
72	0xbde202a5	-0.11035661
73	0xbda1b107	-0.078950934
74	0xbc9d5f36	-0.01921044
75	0x39965fa4	0.00028681487
76	0x3ce95ed7	0.028487606
77	0x3d1a42fa	0.03766153
78	0xbb6f7767	-0.0036539675
79	0xbc822171	-0.015885087
80	0x3c5271c4	0.012844507
81	0xbd1e6809	-0.038673434
82	0xbd5654fe	-0.05232715
83	0xb9f796be	-0.00047223823
84	0xbd451a91	-0.04812104
85	0xbc2c8ff2	-0.010532366
86	0x3e19767f	0.14986609
87	0x3cba2184	0.02272106
88	0xbaf00249	-0.0018311228
89	0x3d41d545	0.04732253
90	0xbac2f60d	-0.0014874354
91	0x3b31cd5d	0.0027130463
92	0xbd159c61	-0.036526088
93	0x3afe8d6b	0.0019420808
94	0x3e18df87	0.14929019
95	0x3c02229a	0.00794282
96	0x3e33d8f5	0.17563231
97	0xbd581f55	-0.052764256
98	0xbcb3e304	-0.021958835
99	0xbdeca797	-0.11555403
100	0xbcb91912	-0.022594962
101	0x3cbcb025	0.023033211
102	0xbe0671c7	-0.1312934
103	0x3d94c190	0.072634816
104	0xbb4164e4	-0.0029509598
105	0x3da05cee	0.07830225
106	0x3d05129a	0.032488443
107	0xba572fd1	-0.00082087243
108	0x3e44e1d3	0.1922677
109	0xbc4a07c6	-0.012330955
110	0x3da6d0c8	0.081452906
111	0xb9c9b587	-0.00038472956
112	0xbde7c76d	-0.11317334
113	0x3b890499	0.0041814563
114	0xbcc9dba9	-0.024640875
115	0x3c031c08	0.008002289
116	0x3e5d826b	0.21631782
117	0x3e0e7a52	0.13913849
118	0x3cf60f4b	0.03003659
119	0x3cc619bd	0.024182195
120	0xbc43965a	-0.011937702
121	0xbcc92dca	-0.024557967
122	0xbcb81ec2	-0.022475604
123	0x3e00a344	0.12562281
124	0xbcfcb33f	-0.03084719
125	0xbcbdc2f9	-0.02316426
126	0x3c4cd382	0.012501599
127	0xbcf2e230	-0.02964887

weight f4 [4, 16]
0	0x8000b239	-6.3934e-41
1	0x80050698	-4.61543e-40
2	0x80046715	-4.04321e-40
3	0x80023638	-2.03121e-40
4	0x000166ed	1.28758e-40
5	0x00053210	4.77137e-40
6	0x8003d62e	-3.5234e-40
7	0x801058a8	-1.501172e-39
8	0x8004849b	-4.14912e-40
9	0x80050287	-4.60084e-40
10	0x00079dd8	6.99472e-40
11	0x00052543	4.72544e-40
12	0x00041d17	3.77777e-40
13	0x00138d04	1.795461e-39
14	0x80117611	-1.603558e-39
15	0x8003e8a2	-3.5896e-40
16	0x800170c0	-1.32283e-40
17	0x80004d72	-2.7782e-41
18	0x800c6207	-1.137192e-39
19	0x000301f3	2.76206e-40
20	0x80054bfe	-4.86438e-40
21	0x0011e26d	1.64243e-39
22	0x8004216c	-3.79331e-40
23	0x80008a40	-4.9595e-41
24	0x8002e118	-2.6442e-40
25	0x0008b02b	7.97881e-40
26	0x00055805	4.90753e-40
27	0x8013a25a	-1.803115e-39
28	0x0008d11b	8.09697e-40
29	0x0008dcb4	8.13857e-40
30	0x8013a8d3	-1.805437e-39
31	0x0006ae26	6.13486e-40
32	0x80011ad5	-1.01461e-40
33	0x0006592b	5.83e-40
34	0x0004d26b	4.42826e-40
35	0x000017a2	8.478e-42
36	0x80054948	-4.85466e-40
37	0x0006cc12	6.2422e-40
38	0x0001e454	1.73744e-40
39	0x0003873f	3.24024e-40
40	0x8004b3d3	-4.31851e-40
41	0x00046cca	4.06368e-40
42	0x0006753f	5.93073e-40
43	0x80063ce1	-5.72852e-40
44	0x0003ec2d	3.6023e-40
45	0x80114380	-1.585418e-39
46	0x00089743	7.88946e-40
47	0x0008a6f9	7.94582e-40
48	0x8000db6e	-7.8717e-41
49	0x8002709b	-2.24066e-40
50	0x80045c15	-4.00375e-40
51	0x8004d76b	-4.4462e-40
52	0x800524af	-4.72337e-40
53	0x0009721d	8.67456e-40
54	0x0006699a	5.88896e-40
55	0x800516b5	-4.67323e-40
56	0x000951d8	8.5588e-40
57	0x000064e6	3.6196e-41
58	0x80065152	-5.80185e-40
59	0x8003b784	-3.4134e-40
60	0x8005243e	-4.72179e-40
61	0x8006b0ef	-6.14485e-40
62	0x000536b8	4.78807e-40
63	0x80088755	-7.83232e-40

weight f4 [4, 16]
0	0x80050cbb	-4.63744e-40
1	0x0015e41d	2.010377e-39
2	0x00141f7f	1.848009e-39
3	0x0007336b	6.61294e-40
4	0x0004ebd7	4.51945e-40
5	0x80033b7f	-2.9685e-40
6	0x8004db1a	-4.45941e-40
7	0x00035947	3.07533e-40
8	0x00003a8a	2.1e-41
9	0x8009528e	-8.56135e-40
10	0x80040c0b	-3.71662e-40
11	0x80046ea0	-4.07027e-40
12	0x8013e480	-1.826845e-39
13	0x800481d3	-4.13914e-40
14	0x800cdac7	-1.180508e-39
15	0x8003e366	-3.57082e-40
16	0x00054884	4.85191e-40
17	0x0004a991	4.28171e-40
18	0x00050d15	4.6387e-40
19	0x0015ac68	1.990393e-39
20	0x00038e87	3.26636e-40
21	0x0000d3b5	7.5946e-41
22	0x80046267	-4.02642e-40
23	0x00043a21	3.88195e-40
24	0x00113454	1.579975e-39
25	0x0010d189	1.544535e-39
26	0x8000a650	-5.9662e-41
27	0x00053bc8	4.80623e-40
28	0x80132ded	-1.76135e-39
29	0x001317e0	1.753439e-39
30	0x000426e7	3.81298e-40
31	0x000951f0	8.55913e-40
32	0x800452d0	-3.9705e-40
33	0x8000195f	-9.101e-42
34	0x80053c14	-4.8073e-40
35	0x80042322	-3.79945e-40
36	0x80050dbb	-4.64103e-40
37	0x80060d2d	-5.5574e-40
38	0x8004af0b	-4.30136e-40
39	0x80143649	-1.856184e-39
40	0x0000a795	6.0117e-41
41	0x00045e77	4.0123e-40
42	0x000b93f8	1.063272e-39
43	0x00088696	7.82964e-40
44	0x8005d6f9	-5.36295e-40
45	0x00090531	8.28382e-40
46	0x8009dbe5	-9.05403e-40
47	0x0001b20d	1.55708e-40
48	0x8004fff9	-4.59168e-40
49	0x8006b846	-6.17118e-40
50	0x80023e0d	-2.0593e-40
51	0x801518c3	-1.937428e-39
52	0x0007b215	7.06732e-40
53	0x800724f4	-6.56105e-40
54	0x0006d4d9	6.27368e-40
55	0x000457ca	3.98835e-40
56	0x8001c133	-1.61142e-40
57	0x0004f02b	4.53498e-40
58	0x800bf963	-1.099654e-39
59	0x0001fa24	1.81569e-40
60	0x0008394e	7.55241e-40
61	0x0002edd5	2.68989e-40
62	0x800466ae	-4.04177e-40
63	0x0004507a	3.96212e-40

weight f4 [4, 16]
0	0x0005977d	5.13521e-40
1	0x00092e03	8.43025e-40
2	0x0004e7dd	4.50519e-40
3	0x00054a87	4.85913e-40
4	0x8001264c	-1.05574e-40
5	0x0004c47b	4.37826e-40
6	0x801085f7	-1.517425e-39
7	0x8000562e	-3.0915e-41
8	0x80042674	-3.81136e-40
9	0x80132995	-1.759791e-39
10	0x8008793e	-7.78177e-40
11	0x8003d3bb	-3.51461e-40
12	0x801105e9	-1.563324e-39
13	0x8000fef2	-9.1457e-41
14	0x000b9da7	1.066745e-39
15	0x8006b171	-6.14667e-40
16	0x00087d5e	7.79657e-40
17	0x000535f1	4.78528e-40
18	0x0005563f	4.90117e-40
19	0x00152203	1.940747e-39
20	0x0004b217	4.31229e-40
21	0x8003ff39	-3.67063e-40
22	0x80152227	-1.940797e-39
23	0x00017679	1.34335e-40
24	0x000c271b	1.116054e-39
25	0x00009441	5.3183e-41
26	0x000475c8	4.09594e-40
27	0x8005568e	-4.90227e-40
28	0x8004c01d	-4.36259e-40
29	0x80157fd2	-1.974399e-39
30	0x800c6189	-1.137015e-39
31	0x800008d9	-3.174e-42
32	0x0014f727	1.925371e-39
33	0x00087880	7.77911e-40
34	0x00114e1f	1.589228e-39
35	0x00104b05	1.49628e-39
36	0x001340e4	1.768153e-39
37	0x00156e54	1.968124e-39
38	0x800b7901	-1.053598e-39
39	0x8007ea6d	-7.26945e-40
40	0x0004527a	3.96929e-40
41	0x8008ca48	-8.07249e-40
42	0x0014420d	1.860404e-39
43	0x8011494d	-1.587499e-39
44	0x8004010d	-3.67719e-40
45	0x8006c66b	-6.22192e-40
46	0x00111c1b	1.571286e-39
47	0x0006021b	5.51768e-40
48	0x80113cd9	-1.583031e-39
49	0x8004468d	-3.92651e-40
50	0x8005687a	-4.96657e-40
51	0x0004c006	4.36227e-40
52	0x800425ec	-3.80946e-40
53	0x8005a89b	-5.19662e-40
54	0x8006f029	-6.37166e-40
55	0x00044909	3.93542e-40
56	0x8004b8bc	-4.33612e-40
57	0x80042f98	-3.84415e-40
58	0x0004ef9a	4.53295e-40
59	0x0003de68	3.55291e-40
60	0x80066d7a	-5.90286e-40
61	0x001402d2	1.837722e-39
62	0x80051db3	-4.69832e-40
63	0x0014e3af	1.918387e-39

weight f4 [4, 16]
0	0x80049b2d	-4.23009e-40
1	0x00002244	1.2292e-41
2	0x8006ba14	-6.17765e-40
3	0x800b9256	-1.062686e-39
4	0x8013676c	-1.781975e-39
5	0x0010f980	1.558872e-39
6	0x00109540	1.522909e-39
7	0x00017c47	1.36418e-40
8	0x000222cb	1.96152e-40
9	0x00096734	8.63542e-40
10	0x80056072	-4.93776e-40
11	0x0004ea8d	4.51483e-40
12	0x00056203	4.94337e-40
13	0x0013ad86	1.807123e-39
14	0x8005e178	-5.4006e-40
15	0x8005a89e	-5.19666e-40
16	0x80084be4	-7.61908e-40
17	0x80054bda	-4.86388e-40
18	0x00041e59	3.78229e-40
19	0x00046b57	4.05848e-40
20	0x80002dcf	-1.6433e-41
21	0x0000a037	5.7474e-41
22	0x80084d1f	-7.6235e-40
23	0x800424da	-3.80562e-40
24	0x000031e5	1.7899e-41
25	0x8015e05a	-2.009028e-39
26	0x800b927c	-1.062739e-39
27	0x8001261b	-1.05505e-40
28	0x0001513f	1.20981e-40
29	0x00064060	5.74106e-40
30	0x00095f1a	8.60635e-40
31	0x8003e41e	-3.5734e-40
32	0x80100592	-1.471366e-39
33	0x800515a6	-4.66943e-40
34	0x80050528	-4.61027e-40
35	0x001600e1	2.020696e-39
36	0x00052840	4.73616e-40
37	0x00101e74	1.480292e-39
38	0x801067d9	-1.506621e-39
39	0x00053fc0	4.82047e-40
40	0x00105435	1.499576e-39
41	0x000094bb	5.3354e-41
42	0x0011295e	1.576043e-39
43	0x00156d53	1.967764e-39
44	0x8004842c	-4.14756e-40
45	0x00021ba3	1.93585e-40
46	0x800554c4	-4.89586e-40
47	0x80059d8f	-5.15699e-40
48	0x00045ff3	4.01762e-40
49	0x80002bc2	-1.5697e-41
50	0x8004d59d	-4.43972e-40
51	0x0015ac58	1.990371e-39
52	0x000968e7	8.64151e-40
53	0x0000137d	6.991e-42
54	0x00065b8a	5.83851e-40
55	0x8015e2f2	-2.009958e-39
56	0x80052068	-4.70803e-40
57	0x0010dd3b	1.54873e-39
58	0x00095aa2	8.59032e-40
59	0x00139a50	1.800231e-39
60	0x0001c802	1.63585e-40
61	0x0005c448	5.2959e-40
62	0x80064bd9	-5.78222e-40
63	0x80005e58	-3.3844e-41

weight f4 [4, 16]
0	0x00007755	4.2808e-41
1	0x000ccac2	1.174762e-39
2	0x0004ae40	4.29851e-40
3	0x0003b43b	3.40161e-40
4	0x8010cd09	-1.54292e-39
5	0x80113835	-1.581367e-39
6	0x8002deb9	-2.63569e-40
7	0x8003fd6f	-3.66421e-40
8	0x00009b57	5.5725e-41
9	0x0004268d	3.81171e-40
10	0x80099fe9	-8.83884e-40
11	0x8005d633	-5.36018e-40
12	0x80060a4d	-5.54708e-40
13	0x801425d1	-1.850276e-39
14	0x00037255	3.16521e-40
15	0x0005ce04	5.33082e-40
16	0x00016bb9	1.30479e-40
17	0x80047844	-4.10485e-40
18	0x8005c2af	-5.29017e-40
19	0x00099d28	8.82897e-40
20	0x800024d6	-1.3214e-41
21	0x00009485	5.3279e-41
22	0x8003d798	-3.52847e-40
23	0x8007133b	-6.49747e-40
24	0x0004079e	3.70075e-40
25	0x80050647	-4.6143e-40
26	0x0008244d	7.47706e-40
27	0x80012388	-1.04582e-40
28	0x80043a59	-3.88273e-40
29	0x80070291	-6.43769e-40
30	0x80050cd4	-4.6378e-40
31	0x0009d549	9.03032e-40
32	0x0000e67e	8.2685e-41
33	0x0000d198	7.5188e-41
34	0x0013cded	1.818747e-39
35	0x000641bd	5.74595e-40
36	0x000104ef	9.3605e-41
37	0x8001fa37	-1.81596e-40
38	0x0002455a	2.0855e-40
39	0x8004879b	-4.15988e-40
40	0x00026831	2.21048e-40
41	0x0010fe28	1.560542e-39
42	0x80066a68	-5.89184e-40
43	0x80024707	-2.09151e-40
44	0x80002345	-1.2652e-41
45	0x0003bceb	3.43277e-40
46	0x8003b9e3	-3.4219e-40
47	0x8003fe38	-3.66703e-40
48	0x8000ec00	-8.4661e-41
49	0x00060e2e	5.561e-40
50	0x8013573d	-1.77617e-39
51	0x80027d04	-2.28518e-40
52	0x8005b15a	-5.22799e-40
53	0x00021759	1.92047e-40
54	0x0007aa34	7.03906e-40
55	0x8000a97a	-6.0797e-41
56	0x8004c57f	-4.3819e-40
57	0x00034492	3.00105e-40
58	0x8013afcb	-1.807937e-39
59	0x80080756	-7.37316e-40
60	0x0009b92a	8.92944e-40
61	0x0001bf26	1.60407e-40
62	0x00041cb0	3.77633e-40
63	0x8009982b	-8.81107e-40

weight f4 [4, 16]
0	0x00040bdd	3.71598e-40
1	0x80006ee4	-3.978e-41
2	0x0005405a	4.82262e-40
3	0x80043669	-3.8686e-40
4	0x0013ce57	1.818895e-39
5	0x801603b9	-2.021716e-39
6	0x0004d4a2	4.4362e-40
7	0x80039909	-3.30405e-40
8	0x80139820	-1.799447e-39
9	0x0013da9a	1.823294e-39
10	0x0002fe2f	2.74855e-40
11	0x0001e82d	1.75124e-40
12	0x00006caa	3.8981e-41
13	0x80010bb9	-9.6041e-41
14	0x80064815	-5.76871e-40
15	0x000423e6	3.8022e-40
16	0x000516b3	4.6732e-40
17	0x000571eb	5.00044e-40
18	0x80001702	-8.254e-42
19	0x8008716e	-7.75375e-40
20	0x800bedfa	-1.09556e-39
21	0x80063e39	-5.73334e-40
22	0x80158647	-1.976715e-39
23	0x80009be7	-5.5927e-41
24	0x00044f6c	3.95833e-40
25	0x0006d2d1	6.2664e-40
26	0x00000bcf	4.236e-42
27	0x00046485	4.03402e-40
28	0x00015933	1.23834e-40
29	0x0003f75d	3.64244e-40
30	0x00138395	1.792077e-39
31	0x0004cdc8	4.41162e-40
32	0x00065d69	5.84522e-40
33	0x80155727	-1.95981e-39
34	0x0004c19c	4.36796e-40
35	0x80022cec	-1.99786e-40
36	0x001354a3	1.775236e-39
37	0x8005c13e	-5.285e-40
38	0x00036575	3.11902e-40
39	0x0002190c	1.92656e-40
40	0x00111ef3	1.572306e-39
41	0x800046ef	-2.5446e-41
42	0x00021e35	1.94507e-40
43	0x80023a6d	-2.0463e-40
44	0x00034d08	3.0314e-40
45	0x8008eef4	-8.20404e-40
46	0x0006c146	6.20346e-40
47	0x80048943	-4.16582e-40
48	0x000b7cdb	1.05498e-39
49	0x800544cc	-4.83857e-40
50	0x0004bcad	4.35026e-40
51	0x00051513	4.66737e-40
52	0x0010ec67	1.554173e-39
53	0x8005c19a	-5.28629e-40
54	0x0015e075	2.009065e-39
55	0x0004b01c	4.30518e-40
56	0x000bc295	1.079993e-39
57	0x00000545	1.89e-42
58	0x000173d4	1.33387e-40
59	0x0010392f	1.489882e-39
60	0x0005c6df	5.30519e-40
61	0x8004a0c4	-4.25014e-40
62	0x0013524b	1.774396e-39
63	0x0010f05c	1.555593e-39

weight f4 [4, 16]
0	0x0000cbdd	7.3132e-41
1	0x80026d09	-2.22785e-40
2	0x0008f1d0	8.2143e-40
3	0x00134185	1.768378e-39
4	0x0003b126	3.39055e-40
5	0x80048ae4	-4.17167e-40
6	0x800952f9	-8.56284e-40
7	0x00054d74	4.86962e-40
8	0x0006c99f	6.23341e-40
9	0x80103146	-1.487044e-39
10	0x801356fd	-1.77608e-39
11	0x80133ba3	-1.766268e-39
12	0x00146135	1.871581e-39
13	0x0008c990	8.06991e-40
14	0x8001b1d9	-1.55635e-40
15	0x80091162	-8.32755e-40
16	0x80103660	-1.488874e-39
17	0x00022cef	1.9979e-40
18	0x0010338f	1.487864e-39
19	0x000006b2	2.402e-42
20	0x0008cac7	8.07427e-40
21	0x00040794	3.7006e-40
22	0x8008c57e	-8.05531e-40
23	0x80043f14	-3.8997e-40
24	0x000bfdda	1.101255e-39
25	0x8008b647	-8.00073e-40
26	0x0000571a	3.1246e-41
27	0x8003f3ca	-3.62962e-40
28	0x8014b0f9	-1.900196e-39
29	0x000ba3d6	1.068964e-39
30	0x0014e789	1.919769e-39
31	0x800b8c51	-1.060526e-39
32	0x80040a10	-3.70952e-40
33	0x0000e5b5	8.2403e-41
34	0x80061c3a	-5.61139e-40
35	0x00081294	7.41349e-40
36	0x80055c13	-4.92207e-40
37	0x0004d0c0	4.42227e-40
38	0x8015f15c	-2.015129e-39
39	0x8002f6dd	-2.72229e-40
40	0x8009a219	-8.84669e-40
41	0x8003f911	-3.64855e-40
42	0x80041aef	-3.77004e-40
43	0x80043a5f	-3.88282e-40
44	0x000345c7	3.00538e-40
45	0x000449a5	3.9376e-40
46	0x800857c3	-7.66167e-40
47	0x80041829	-3.76009e-40
48	0x80133544	-1.763983e-39
49	0x00042006	3.7883e-40
50	0x801019b0	-1.478583e-39
51	0x0004af8b	4.30315e-40
52	0x80089ee2	-7.9168e-40
53	0x80059b5f	-5.14914e-40
54	0x800270d3	-2.24145e-40
55	0x8005883b	-5.08048e-40
56	0x8013ccd9	-1.81836e-39
57	0x800663c8	-5.86808e-40
58	0x8002095b	-1.87027e-40
59	0x00052684	4.72994e-40
60	0x8004a7fc	-4.27603e-40
61	0x000404de	3.69088e-40
62	0x800546e9	-4.84615e-40
63	0x00045e0b	4.01078e-40

weight f4 [4, 16]
0	0x0001312b	1.09474e-40
1	0x8015e8e2	-2.012088e-39
2	0x0000f294	8.702e-41
3	0x000647e8	5.76808e-40
4	0x8005c719	-5.306e-40
5	0x0004d65f	4.44244e-40
6	0x800579d2	-5.02878e-40
7	0x80065f2a	-5.85151e-40
8	0x0000841a	4.7389e-41
9	0x800681ce	-5.97578e-40
10	0x80042236	-3.79615e-40
11	0x00022742	1.97754e-40
12	0x8013873b	-1.793386e-39
13	0x80054a3e	-4.8581e-40
14	0x800162fd	-1.27346e-40
15	0x8000fe32	-9.1188e-41
16	0x800193df	-1.44882e-40
17	0x80002a0f	-1.5088e-41
18	0x8001ed8e	-1.77054e-40
19	0x00047971	4.10907e-40
20	0x001117d5	1.569753e-39
21	0x0002001f	1.83714e-40
22	0x80059bf5	-5.15124e-40
23	0x8005dc4e	-5.38208e-40
24	0x0004a8c4	4.27884e-40
25	0x0004a582	4.26715e-40
26	0x00009ac7	5.5524e-41
27	0x8000a7c5	-6.0184e-41
28	0x00003eae	2.2485e-41
29	0x0003c096	3.44593e-40
30	0x0000b53d	6.5016e-41
31	0x800065c9	-3.6514e-41
32	0x000461a5	4.0237e-40
33	0x000229ae	1.98623e-40
34	0x80040fef	-3.73058e-40
35	0x80037865	-3.18696e-40
36	0x80054875	-4.8517e-40
37	0x8007f32e	-7.30085e-40
38	0x80039fe2	-3.32862e-40
39	0x00044275	3.91182e-40
40	0x0001b28a	1.55883e-40
41	0x80049672	-4.21312e-40
42	0x00037691	3.1804e-40
43	0x80056e58	-4.98761e-40
44	0x80108e21	-1.520354e-39
45	0x80057e9d	-5.04598e-40
46	0x8008fb66	-8.24869e-40
47	0x00059653	5.13104e-40
48	0x00091e53	8.37398e-40
49	0x00008959	4.9271e-41
50	0x0004b939	4.33787e-40
51	0x80020adc	-1.87567e-40
52	0x80148eef	-1.887985e-39
53	0x80045dae	-4.00948e-40
54	0x8001c9b7	-1.64197e-40
55	0x8004789e	-4.10611e-40
56	0x8000ac2d	-6.1765e-41
57	0x000123b9	1.0465e-40
58	0x0006c4fc	6.21678e-40
59	0x800592ae	-5.11796e-40
60	0x00018b10	1.41722e-40
61	0x8015fe0c	-2.01968e-39
62	0x0015640b	1.964434e-39
63	0x80069b8c	-6.06813e-40

weight f4 [128, 1, 1, 1]
0	0xbc83af66	-0.016074847
1	0x34c03136	3.5798593e-07
2	0x3d73cbad	0.059520412
3	0x3cf062d0	0.029343992
4	0xbda5c3d0	-0.08093989
5	0xbcdf5d9d	-0.027266318
6	0x3d771e87	0.060331848
7	0x1390bf3f	3.6539294e-27
8	0xbc008f32	-0.00784664
9	0xbe67df6e	-0.22643825
10	0x3d9023b4	0.0703806
11	0x3d838b7a	0.064230874
12	0x3e2d9838	0.16952598
13	0x159cfb78	6.3404646e-26
14	0xb8be0c36	-9.0621805e-05
15	0x17d9401d	1.4039481e-24
16	0x3e023890	0.1271689
17	0xb95dc80f	-0.0002115073
18	0x1718a5fd	4.9323356e-25
19	0x3d6e8eb2	0.058241554
20	0x356182cf	8.4009383e-07
21	0xbb4a8a89	-0.0030905327
22	0x3e52830d	0.20557804
23	0xb24941d9	-1.1714712e-08
24	0x0997e22d	3.6564622e-33
25	0x93126a2c	-1.8480138e-27
26	0x3b8ff226	0.00439288
27	0x3a1894ab	0.0005820493
28	0x95390341	-3.736302e-26
29	0x95cd2c20	-8.286846e-26
30	0xbda02cbf	-0.07821035
31	0x3bf4c5cf	0.0074698697
32	0x3614077a	2.205807e-06
33	0x3e9c3306	0.30507678
34	0x3e377353	0.17915086
35	0x36a8f1ff	5.034962e-06
36	0xbb2c9fc0	-0.0026340336
37	0x1990ee62	1.4985533e-23
38	0x3adf495a	0.001703541
39	0x3d3e8ab0	0.04651898
40	0x3daf2e8f	0.08553802
41	0x3e81260e	0.25224346
42	0x95a5e403	-6.700271e-26
43	0x3e5e8436	0.21730122
44	0x3e3971c0	0.18109798
45	0x3dddf741	0.108381756
46	0xb2878aa0	-1.5779108e-08
47	0xbd321a85	-0.043482322
48	0x26987591	1.0578985e-15
49	0x3dc7f58c	0.09763631
50	0x3d4c7c3b	0.049923163
51	0xa7c274e4	-5.397255e-15
52	0x19088537	7.057938e-24
53	0xbe199072	-0.14996508
54	0x3c8dcbed	0.017309153
55	0x3c0de662	0.008660885
56	0x3e85b693	0.26115856
57	0x3ba99cef	0.0051761786
58	0x3d408f26	0.047011517
59	0x384a36d7	4.8211627e-05
60	0xbe6907dc	-0.22756904
61	0x2ff79025	4.503146e-10
62	0x3c238a20	0.009981662
63	0xa9d2cd92	-9.361534e-14
64	0x3cc6a366	0.024247836
65	0x3e5a4339	0.21314706
66	0x955959c8	-4.3893626e-26
67	0x3a340da6	0.0006868489
68	0xb6e1f7da	-6.7343763e-06
69	0x8cf8f3db	-3.8357215e-31
70	0x3e96160f	0.29313704
71	0xbd8cf902	-0.06883432
72	0xbdb8459e	-0.089976534
73	0x3ddc1280	0.10745716
74	0x3c68828a	0.014191279
75	0xb723701a	-9.741658e-06
76	0xb8a3cb5f	-7.8103265e-05
77	0xb945937e	-0.00018842329
78	0xb01b4958	-5.64929e-10
79	0xbbc8dc2e	-0.006129763
80	0x39493216	0.00019187512
81	0xbc25d94f	-0.010122611
82	0xb3337c16	-4.178954e-08
83	0xbb44e1b8	-0.0030041765
84	0x3cdb842b	0.026796421
85	0x3ae11939	0.0017173655
86	0xbe4d27c1	-0.20034696
87	0x000e9adb	1.341249e-39
88	0x9186db58	-2.1276653e-28
89	0xbbb69fb4	-0.0055732373
90	0x3ac52eb7	0.0015043829
91	0x3bd2b857	0.0064306664
92	0xbb2f0de6	-0.0026711165
93	0x9579e512	-5.0465854e-26
94	0x3e8465e1	0.25858977
95	0x31e6e0f3	6.7194548e-09
96	0x3e736f1e	0.23772857
97	0x1693307d	2.3779731e-25
98	0xae1fc78b	-3.6329644e-11
99	0x3d8affbf	0.06787061
100	0x26995d7a	1.0641845e-15
101	0x95377a4f	-3.705304e-26
102	0xbdc1c0fc	-0.09460637
103	0xbda6160a	-0.08109672
104	0x3e311052	0.17291382
105	0x3e3702f0	0.17872214
106	0x938c1f0d	-3.5371587e-27
107	0x3be8f14c	0.007108843
108	0x3e8f314a	0.27967292
109	0x8004dab5	-4.45799e-40
110	0x3de2681e	0.11055015
111	0x2df11e0c	2.7411871e-11
112	0xbdb6d5b0	-0.089274764
113	0x3c73ead2	0.0148875285
114	0x3d99356b	0.07480892
115	0xb575d604	-9.1581046e-07
116	0x3ea573c4	0.32314885
117	0x3d3fbe17	0.046812143
118	0xa8d2bf7b	-2.3397725e-14
119	0x94a7421e	-1.688877e-26
120	0x3cfab5a0	0.030604184
121	0xbcec6b7c	-0.028859846
122	0x12668307	7.2736707e-28
123	0x3e47ad26	0.19499645
124	0x3d303a78	0.04302451
125	0x8e8537e3	-3.284085e-30
126	0x3c97ee30	0.018546194
127	0x3284f025	1.5476028e-08

bias f4 [128]
0	0x34874aa8	2.520003e-07
1	0xa37396c2	-1.3204981e-17
2	0xb7c15210	-2.3045606e-05
3	0xb4d4f83e	-3.9668697e-07
4	0xb6007f0a	-1.9147433e-06
5	0xb43ee323	-1.7777761e-07
6	0x3784598b	1.5777323e-05
7	0x8af22f9a	-2.3321658e-32
8	0xb2641653	-1.3276423e-08
9	0x39deb46e	0.0004247757
10	0xb99e85b6	-0.0003023573
11	0x33676de0	5.388381e-08
12	0xb8933ba9	-7.020619e-05
13	0x0d9d5645	9.696641e-31
14	0xaad81ee8	-3.8390753e-13
15	0x9233c5f2	-5.6726427e-28
16	0xb93ebc14	-0.00018189877
17	0x2c348883	2.5655318e-12
18	0x8f329e71	-8.806592e-30
19	0xb7d6d692	-2.5610705e-05
20	0xaa7ee8dc	-2.2640521e-13
21	0xaed1a511	-9.533541e-11
22	0xb526ea8d	-6.2181135e-07
23	0x1ea52d14	1.7488698e-20
24	0x80046cf3	-4.06426e-40
25	0x8d51d134	-6.4654916e-31
26	0x31025c09	1.8969806e-09
27	0xacb31fac	-5.0910023e-12
28	0x900995ef	-2.713399e-29
29	0x0dc434ee	1.2092175e-30
30	0x380627a7	3.198502e-05
31	0x3213df6f	8.607329e-09
32	0xa24919db	-2.7254267e-18
33	0xb8fa8c08	-0.00011947012
34	0x381f4b71	3.7978814e-05
35	0x2b07e443	4.827841e-13
36	0x3326ba57	3.8819362e-08
37	0x906ea688	-4.7065515e-29
38	0x2e4876b8	4.558018e-11
39	0xb697d858	-4.5253364e-06
40	0x37d700b9	2.5630334e-05
41	0xb863e3c0	-5.4333126e-05
42	0x8c64fef9	-1.7641209e-31
43	0xb88b94be	-6.655742e-05
44	0xb813cbdf	-3.52374e-05
45	0x342ac60c	1.5904533e-07
46	0xab22bd75	-5.7816886e-13
47	0xb5899780	-1.0251388e-06
48	0x9f1c5dd6	-3.3111904e-20
49	0x38851da1	6.347453e-05
50	0xb5624325	-8.428927e-07
51	0x20909d34	2.4498577e-19
52	0x13e7c7e0	5.850969e-27
53	0x380fbf53	3.427204e-05
54	0x3428f523	1.57354e-07
55	0x32eaf542	2.7352716e-08
56	0xb78cf2db	-1.6802389e-05
57	0x2d736439	1.3835205e-11
58	0x3701cb8b	7.73639e-06
59	0xac27bd24	-2.3837122e-12
60	0x3812477d	3.487569e-05
61	0xa7986269	-4.229517e-15
62	0x339e6509	7.3758265e-08
63	0x1dff4010	6.7564177e-21
64	0xb320fa3a	-3.7480483e-08
65	0x37c2e154	2.3231529e-05
66	0x0c8045f1	1.9763617e-31
67	0xac9c707f	-4.4462762e-12
68	0xa964ecb8	-5.083149e-14
69	0x85af7028	-1.649812e-35
70	0xb9199b0e	-0.0001464898
71	0x36c83326	5.966419e-06
72	0xb732e8cd	-1.066383e-05
73	0xb7adb685	-2.07082e-05
74	0xb2eee116	-2.7809204e-08
75	0xa6b898e7	-1.2809009e-15
76	0xa9958f3d	-6.641777e-14
77	0xac27ba5f	-2.3835584e-12
78	0xa48981de	-5.963428e-17
79	0x2f0547ad	1.2121744e-10
80	0x296baa4e	5.2328198e-14
81	0x3115abfb	2.1780113e-09
82	0xa9565e65	-4.759942e-14
83	0x3215f6ef	8.729088e-09
84	0xb49ab384	-2.881535e-07
85	0x2fc489fa	3.575023e-10
86	0x37b83d11	2.1962946e-05
87	0x800c0b1c	-1.106011e-39
88	0x8859dbc8	-6.5559414e-34
89	0xb0bac766	-1.3589954e-09
90	0xacbae59a	-5.311929e-12
91	0x31df5c6f	6.5006627e-09
92	0xb16e999c	-3.4720875e-09
93	0x0b75ca24	4.7337357e-32
94	0xb90b2bc9	-0.00013272384
95	0x27c54088	5.474845e-15
96	0xb8080319	-3.242781e-05
97	0x0d99b0ee	9.471947e-31
98	0xa0976615	-2.5647947e-19
99	0x38983046	7.2569164e-05
100	0x155b42ac	4.4279293e-26
101	0x0dc20cfa	1.1959297e-30
102	0xb73ba576	-1.1184593e-05
103	0xb512b3df	-5.4650985e-07
104	0xb61cdd54	-2.3374641e-06
105	0xb84bf95c	-4.8631206e-05
106	0x0b2302a4	3.1394645e-32
107	0xb3671668	-5.3804257e-08
108	0xb907bb87	-0.00012944463
109	0x8010b11d	-1.532904e-39
110	0x382d47d0	4.1313295e-05
111	0x9c66152e	-7.612799e-22
112	0xb70423d3	-7.876154e-06
113	0x30021e99	4.7337206e-10
114	0x37508062	1.2427658e-05
115	0x258d8b21	2.4553878e-16
116	0x38bd2a07	9.0200505e-05
117	0x3867412f	5.51354e-05
118	0x164ce350	1.6550716e-25
119	0x0bd7fd20	8.319585e-32
120	0xb6020a5e	-1.9377544e-06
121	0xb56b387a	-8.7626506e-07
122	0x0a48723f	9.651137e-33
123	0xb92e055f	-0.00016595934
124	0xb5e86453	-1.7314545e-06
125	0x88165717	-4.5241357e-34
126	0x35c9afbd	1.5026814e-06
127	0xa8c01ef8	-2.1329713e-14

weight f4 [128]
0	0x3cdd7435	0.02703295
1	0x2f26106c	1.5103446e-10
2	0x3e5c447b	0.21510498
3	0x3db13a3a	0.08653684
4	0x3e2135d2	0.15743187
5	0x3d243e08	0.04009822
6	0x3e219e77	0.15783106
7	0x92dbc4a9	-1.3869324e-27
8	0x3be60fc5	0.007020923
9	0x3eb6501b	0.3560799
10	0x3f0c1369	0.5471712
11	0x3dfdbc17	0.12389391
12	0x3ef55434	0.47915804
13	0x15bb9afb	7.5773215e-26
14	0x381011aa	3.4348726e-05
15	0x192be7bb	8.88729e-24
16	0x3f15a300	0.58451843
17	0x39ee7656	0.00045483065
18	0x9666636d	-1.8610625e-25
19	0x3eb65954	0.35615027
20	0x3592c854	1.0936151e-06
21	0x3b2f6566	0.002676332
22	0x3f1754ee	0.5911397
23	0x309c092f	1.1353104e-09
24	0x08816288	7.78707e-34
25	0x14ba788f	1.8828752e-26
26	0x3ba75f39	0.005107787
27	0x378be59c	1.6677011e-05
28	0x15fd4b2e	1.023045e-25
29	0x13a1bff3	4.083139e-27
30	0x3e1866d9	0.14882983
31	0x3b8cdcc0	0.0042987764
32	0x31eba86d	6.858548e-09
33	0x3f03c58e	0.5147332
34	0x3ed38865	0.41314998
35	0x365694f5	3.197519e-06
36	0x3c063ea7	0.008193648
37	0x17eb9e0f	1.5226419e-24
38	0x3866b301	5.5002984e-05
39	0x3e0d1ff2	0.13781717
40	0x3e8b1433	0.27163848
41	0x3ec8c7ca	0.39214927
42	0x95412a58	-3.9009443e-26
43	0x3eea2164	0.457286
44	0x3f294bac	0.6613109
45	0x3ebee014	0.37280333
46	0xb3452769	-4.590348e-08
47	0x3d914683	0.07093527
48	0xa481b46d	-5.6250485e-17
49	0x3e8ccd50	0.2750039
50	0x3de3788a	0.111069754
51	0xa8094561	-7.620072e-15
52	0x997cd512	-1.3071124e-23
53	0x3e85a5f2	0.2610317
54	0x3cf89511	0.030344518
55	0x3c07e989	0.008295425
56	0x3ed9b341	0.42519572
57	0x3a93b898	0.0011270223
58	0x3dca0d64	0.09865835
59	0x382799cf	3.9959148e-05
60	0x3ed6e193	0.41968974
61	0xb0ab5043	-1.2464699e-09
62	0x3c5ab6d8	0.013349257
63	0x299fd46d	7.0978684e-14
64	0x3cf664e0	0.030077398
65	0x3f07d38e	0.5305718
66	0x95afb0b3	-7.096072e-26
67	0x38c97317	9.605864e-05
68	0x368a4031	4.1201934e-06
69	0x0d61f312	6.9626063e-31
70	0x3f2669d8	0.65005255
71	0x3e301523	0.17195563
72	0x3e7ac6c6	0.24489889
73	0x3f141fef	0.57861227
74	0x3c8b406b	0.01699849
75	0x36ea2159	6.9776256e-06
76	0x399191fc	0.00027765322
77	0x393cfe87	0.00018023896
78	0x3263f5bb	1.3269012e-08
79	0x3ba76862	0.005108879
80	0x3830bcc9	4.213749e-05
81	0x3c10c04e	0.0088349115
82	0x3496e60d	2.810706e-07
83	0x3b7e915a	0.003884396
84	0x3d2aa276	0.04165884
85	0x3926d4b9	0.00015910239
86	0x3eac1b85	0.33614746
87	0x80112342	-1.573852e-39
88	0x907bd8bd	-4.966799e-29
89	0x3bf406e7	0.007447112
90	0x392fdeef	0.0001677235
91	0x3b6a383c	0.0035739085
92	0x3b668042	0.0035171662
93	0x947f6a31	-1.28951525e-26
94	0x3efa8912	0.489327
95	0xb045fc50	-7.202674e-10
96	0x3ef79fc3	0.48364076
97	0x97c26209	-1.2561704e-24
98	0x2f2aeae0	1.5544854e-10
99	0x3efc405c	0.49267852
100	0xa0b236b6	-3.0190578e-19
101	0x95704f75	-4.8530295e-26
102	0x3e8871e0	0.2664938
103	0x3e2c317b	0.1681575
104	0x3eb82a9e	0.35970014
105	0x3e8b7eba	0.27245122
106	0x14b3d38d	1.8157823e-26
107	0x3c2aa00f	0.0104141375
108	0x3f0f9778	0.560905
109	0x800475fc	-4.09667e-40
110	0x3e91312f	0.28357837
111	0xa8d0d4f2	-2.318499e-14
112	0x3e77aee7	0.24187814
113	0x3c522666	0.012826538
114	0x3e5a5ded	0.21324892
115	0x362ea878	2.6026082e-06
116	0x3f2ed6ff	0.6829681
117	0x3dda093c	0.106462926
118	0x240e74a2	3.0890134e-17
119	0x1588b7bd	5.521985e-26
120	0x3da6a9ad	0.08137832
121	0x3d6f7a92	0.0584665
122	0x92f37ac6	-1.5365722e-27
123	0x3f164256	0.5869497
124	0x3df5e059	0.120056815
125	0x910cc627	-1.1105113e-28
126	0x3db12a1b	0.08650609
127	0x325f7ca7	1.3008651e-08

bias f4 [128]
0	0xbdb509da	-0.0883977
1	0x3d0b36ca	0.033987798
2	0xbd2eeb02	-0.04270459
3	0xbc14580b	-0.009054194
4	0xbdb8dd17	-0.090265445
5	0x3c510d0b	0.012759457
6	0xbcd3578c	-0.025798582
7	0x3ca65219	0.02030282
8	0x3bcd8f41	0.0062731807
9	0xbdc32df1	-0.09530247
10	0xbcbe1f7b	-0.02320837
11	0xbd1412b1	-0.036150638
12	0xbce41935	-0.02784405
13	0xbb126ef4	-0.0022343965
14	0x3c5911b1	0.013248847
15	0x3cb6a7c0	0.022296786
16	0xbd069b0d	-0.03286271
17	0xbd3c081a	-0.045906164
18	0xbca392a6	-0.019967388
19	0x3c68c37a	0.0142067615
20	0xb88c9d99	-6.705075e-05
21	0xbc8a0dbd	-0.016852254
22	0xbcbb9471	-0.02289793
23	0x3bfbdf11	0.0076865037
24	0x3b90c587	0.0044180783
25	0x3ce7daee	0.028302636
26	0xbcbd2557	-0.023089094
27	0x3cb5c900	0.02219057
28	0x3a4b6f1e	0.0007760393
29	0x3d3fc836	0.046821795
30	0xbe064f5b	-0.13116209
31	0xbc1a3068	-0.009410955
32	0x3b7136b8	0.0036806297
33	0xbd334f80	-0.04377699
34	0xbd2d3b31	-0.042292777
35	0xbc94121f	-0.018075047
36	0x3cc04678	0.023471102
37	0x3cb618c2	0.022228602
38	0x3c5f7cef	0.013640626
39	0xbc551873	-0.013006317
40	0xbd21bd2c	-0.03948705
41	0xbd45fb79	-0.048335526
42	0x3c2cb6d0	0.010541633
43	0xbcb6385d	-0.022243673
44	0xbce7bcc5	-0.028288255
45	0xbd34c627	-0.044134285
46	0xbc03a3a1	-0.008034618
47	0xbdd26d53	-0.10274758
48	0x3c57b78d	0.0131663205
49	0xbdb69750	-0.08915579
50	0x3cb2993f	0.021801589
51	0xbc9d4ad0	-0.019200712
52	0xbde30139	-0.110842176
53	0xbddb3098	-0.10702628
54	0x3bde16b8	0.0067776106
55	0xbc465e05	-0.012107377
56	0xbc968cde	-0.018377718
57	0x3cc5b810	0.02413562
58	0x3c45f90c	0.012083303
59	0x3c0366a3	0.008020076
60	0xbda2ff4f	-0.079588525
61	0x3c5cd31c	0.013478067
62	0x3c849673	0.016185021
63	0x3d1fed74	0.039044812
64	0xbc14a392	-0.009072201
65	0xbd6d6624	-0.057958737
66	0xbc53f3c0	-0.0129365325
67	0xbc483ca8	-0.012221493
68	0x3d453960	0.04815042
69	0x3c8333da	0.016015936
70	0xbca03f94	-0.019561566
71	0x3d003a58	0.03130564
72	0x3ccc3299	0.02492647
73	0xbcf5bab3	-0.029996252
74	0x3c6dcffa	0.0145149175
75	0xb996a0d5	-0.0002873006
76	0xbce96380	-0.028489828
77	0xbd1a494f	-0.03766757
78	0x3b6f5832	0.0036521074
79	0x3c7dc297	0.015488288
80	0xbc57d4f7	-0.013173333
81	0x3d1296c0	0.035788298
82	0x3d55c06c	0.05218546
83	0xbc45eab9	-0.012079888
84	0x3d075fc4	0.033050314
85	0x3c1fa05e	0.009742824
86	0xbdec8ac7	-0.11549907
87	0xbcba2188	-0.022721067
88	0x3aa56a3f	0.0012620165
89	0xbd435bbb	-0.047694903
90	0x3abe8274	0.0014534728
91	0xbc36368c	-0.011121403
92	0x3cbcdbf0	0.023054093
93	0xbafe8e24	-0.0019421023
94	0xbc9e05bd	-0.019289846
95	0xbcbc6e11	-0.023001703
96	0xbd5b4ae0	-0.053538203
97	0x3d50130a	0.050799407
98	0x3cb3cf9d	0.021949584
99	0xbc25faea	-0.010130623
100	0x3cb7fb6f	0.02245876
101	0xbcbcb067	-0.023033334
102	0x3d166a6b	0.03672258
103	0xbdf6461e	-0.120250925
104	0xbc0c190c	-0.0085508935
105	0xbccefb7d	-0.025266403
106	0xbd0512aa	-0.032488503
107	0xbc613ebe	-0.013747869
108	0xbd075574	-0.03304048
109	0x3c3a4c34	0.011370707
110	0xbd627404	-0.055286422
111	0x399edc48	0.0003030023
112	0x3cdfb0ee	0.027306046
113	0xbc9d2a9e	-0.01918536
114	0xbd0aaceb	-0.033856314
115	0xbc031c08	-0.008002289
116	0xbc84127d	-0.016122097
117	0xbdf9a1bd	-0.12189052
118	0xbcf61ab7	-0.030042036
119	0xbcc61a69	-0.024182515
120	0xbbdac26c	-0.006676009
121	0xbbd414e6	-0.006472218
122	0x3cb81bee	0.022474255
123	0xbba8f1da	-0.005155784
124	0xbbd60d14	-0.0065323208
125	0x3cbdc2d6	0.023164194
126	0xbcacbe81	-0.021086933
127	0x3c8a8178	0.016907439

running_mean f4 [128]
0	0xb8ef9d1a	-0.000114256705
1	0x314249a1	2.8272569e-09
2	0x39d9f8b2	0.00041574758
3	0x39578b46	0.00020555881
4	0xba1556c8	-0.00056968303
5	0xb94a3de1	-0.00019287273
6	0x39e1c0d5	0.00043059015
7	0x8e3136cc	-2.1843318e-30
8	0xb86b4810	-5.609548e-05
9	0xbacdca06	-0.0015700466
10	0x39f3964e	0.00046460557
11	0x39eb2441	0.00044849704
12	0x3a99495d	0.0011694838
13	0x10a38626	6.449885e-29
14	0xb5378fcf	-6.838208e-07
15	0x956aa798	-4.7388132e-26
16	0x3a76c8b0	0.000941406
17	0xb5d4d680	-1.5857659e-06
18	0x1326b19d	2.1039716e-27
19	0x39d47a26	0.000405268
20	0x31e4b434	6.65616e-09
21	0xb7bb8d6d	-2.2357994e-05
22	0x3ac0f48a	0.0014721316
23	0xaedb98b0	-9.98609e-11
24	0x859e2258	-1.4870864e-35
25	0x10813b06	5.097247e-29
26	0x3803c9a5	3.142063e-05
27	0x368f8a7f	4.277855e-06
28	0x13ca092e	5.100102e-27
29	0x9132f6bb	-1.4117754e-28
30	0xba0c8092	-0.00053597346
31	0x385fb812	5.3338772e-05
32	0x32923db3	1.7024695e-08
33	0x3b0b6c3d	0.0021274232
34	0x3aa5be48	0.0012645209
35	0x332404b5	3.8188507e-08
36	0xb79e7f0d	-1.889423e-05
37	0x1611b0ba	1.1768772e-25
38	0x374edaf4	1.2329536e-05
39	0x39ac5e8c	0.0003287684
40	0x3a1cc6c1	0.00059805444
41	0x3ae54e4f	0.0017494651
42	0x10826397	5.14294e-29
43	0x3abdaf71	0.0014471841
44	0x3a9e4f48	0.0012078071
45	0x3a44aefc	0.00075028813
46	0xaf01af26	-1.1794707e-10
47	0xb9a0f081	-0.00030696767
48	0x22bcb832	5.1152526e-18
49	0x3a274553	0.00063808745
50	0x39ba199b	0.00035495762
51	0xa4b7296b	-7.9433764e-17
52	0x16b3e5b6	2.9063978e-25
53	0xba7f2cfc	-0.0009734181
54	0x38ffddc8	0.000122006575
55	0x38809d22	6.132784e-05
56	0x3aecc5ca	0.0018064317
57	0x381a3718	3.676777e-05
58	0x39adc51a	0.00033143983
59	0x34c33d16	3.6366026e-07
60	0xbacf8c6b	-0.0015834694
61	0x2c747853	3.4741279e-12
62	0x38931834	7.0140144e-05
63	0xa690186f	-9.99863e-16
64	0x3932f202	0.00017065558
65	0x3ac3a27c	0.0014925743
66	0x925d51e3	-6.9836237e-28
67	0x36a96033	5.0477915e-06
68	0xb35eacb5	-5.184548e-08
69	0x89ab89d5	-4.129637e-33
70	0x3b079bef	0.002069231
71	0xb9fda345	-0.00048377566
72	0xba25e1f3	-0.00063279195
73	0x3a3a5767	0.0007108361
74	0x38d1cc17	0.00010003911
75	0xb39e35b3	-7.367216e-08
76	0xb51f3e1b	-5.932249e-07
77	0xb5bdb51e	-1.4134309e-06
78	0xacb01705	-5.0047765e-12
79	0xb8391724	-4.412899e-05
80	0x35bdb452	1.4134077e-06
81	0xb897b6fc	-7.2343246e-05
82	0xafadce8f	-3.1615285e-10
83	0xb7b6d4de	-2.1795215e-05
84	0x3945ae91	0.00018852415
85	0x3750ea4d	1.24523185e-05
86	0xbaae3773	-0.0013291672
87	0x0005a404	5.18015e-40
88	0x0d8f1d05	8.820042e-31
89	0xb828b219	-4.0220188e-05
90	0x3736008d	1.0848174e-05
91	0x38416071	4.6104604e-05
92	0xb7a29a6b	-1.9383811e-05
93	0x91a88fcc	-2.6594348e-28
94	0x3aeee9b7	0.0018227611
95	0x2e8dca7c	6.447906e-11
96	0x3adf0b82	0.0017016979
97	0x146a8bba	1.1841537e-26
98	0xaab9c5da	-3.2999889e-13
99	0x39e58e7d	0.00043784446
100	0x237730c1	1.3400221e-17
101	0x104d8091	4.0528165e-29
102	0xba2cdb95	-0.00065939996
103	0xba1445d2	-0.0005656156
104	0x3a99e3f0	0.0011740904
105	0x3aa3c1e5	0.0012493698
106	0x0f20c7c6	7.927084e-30
107	0x38553d49	5.0840234e-05
108	0x3b035a95	0.0020043005
109	0x80004d72	-2.7782e-41
110	0x3a4f25b6	0.00079020427
111	0x2a8e2272	2.5248168e-13
112	0xba2383b8	-0.0006237584
113	0x38dcb571	0.000105242136
114	0x3a0c32f7	0.00053481705
115	0xb1f0082d	-6.985849e-09
116	0x3b12b120	0.0022383407
117	0x39aaf5ea	0.00032608147
118	0xa58d89dc	-2.4553018e-16
119	0x92225d97	-5.1233545e-28
120	0x3960fd68	0.00021456706
121	0xb9555782	-0.00020345862
122	0x100f10cd	2.821472e-29
123	0x3ab13f8b	0.0013522966
124	0x399ea2eb	0.00030257492
125	0x0d888691	8.414043e-31
126	0x3907ef0e	0.00012963658
127	0x2f0f3c41	1.3027181e-10

running_var f4 [128]
0	0x33a78f2b	7.8025856e-08
1	0x24603ee0	4.8625515e-17
2	0x358af57a	1.0353244e-06
3	0x34878d08	2.5248323e-07
4	0x3601ead4	1.9359186e-06
5	0x346ec4e9	2.2237113e-07
6	0x3590dcc6	1.079309e-06
7	0x00000004	6e-45
8	0x32a19506	1.8810635e-08
9	0x377b9897	1.4996293e-05
10	0x35c1a862	1.4428626e-06
11	0x35a255c9	1.2094907e-06
12	0x370cec32	8.399644e-06
13	0x00000004	6e-45
14	0x2c460697	2.814115e-12
15	0x00000004	6e-45
16	0x369e7b54	4.723124e-06
17	0x2d84f7a5	1.5116639e-11
18	0x00000004	6e-45
19	0x3585381b	9.925601e-07
20	0x259b85f0	2.6978973e-16
21	0x314d9347	2.9915144e-09
22	0x374f61d7	1.2360942e-05
23	0x1f93c87e	6.258861e-20
24	0x00000004	6e-45
25	0x00000004	6e-45
26	0x31cad29c	5.9029173e-09
27	0x2ef139f7	1.0969708e-10
28	0x00000004	6e-45
29	0x00000004	6e-45
30	0x35f0c10f	1.7937581e-06
31	0x329217b4	1.7007416e-08
32	0x26fc8e69	1.7524613e-15
33	0x37e45dd8	2.7223417e-05
34	0x371d5a1d	9.37891e-06
35	0x281e4144	8.784914e-15
36	0x31129c2f	2.1334576e-09
37	0x00000004	6e-45
38	0x307a143e	9.0978236e-10
39	0x352c42e8	6.4172355e-07
40	0x3610b315	2.1561912e-06
41	0x379c2d94	1.8617873e-05
42	0x00000004	6e-45
43	0x3767ceec	1.3816851e-05
44	0x3720cdda	9.584672e-06
45	0x36687085	3.463619e-06
46	0x1fc7076d	8.429206e-20
47	0x3516af2f	5.613428e-07
48	0x0a3d2590	9.107084e-33
49	0x363b705f	2.793058e-06
50	0x3546f789	7.412096e-07
51	0x0e0eb122	1.7588138e-30
52	0x00000004	6e-45
53	0x36dcd8cb	6.581749e-06
54	0x33be2cf2	8.85574e-08
55	0x32c11124	2.2475952e-08
56	0x37a7680d	1.9956404e-05
57	0x320acfee	8.079935e-09
58	0x353042e1	6.566243e-07
59	0x2b60021b	7.958371e-13
60	0x377d5540	1.5099824e-05
61	0x1ab014ba	7.282538e-23
62	0x32fc792f	2.9391769e-08
63	0x0f21c567	7.975931e-30
64	0x343af37d	1.741118e-07
65	0x375f0ae1	1.3294369e-05
66	0x00000004	6e-45
67	0x2f27f0aa	1.5274063e-10
68	0x28924cf0	1.6242622e-14
69	0x00000004	6e-45
70	0x37d2f7ea	2.5149395e-05
71	0x35bb01e5	1.3933137e-06
72	0x361f7a20	2.3763932e-06
73	0x3661e9c6	3.3663687e-06
74	0x33804cb4	5.974417e-08
75	0x291329fe	3.267698e-14
76	0x2c1536e2	2.120464e-12
77	0x2d534aa0	1.20105315e-11
78	0x1b429a2e	1.6097122e-22
79	0x3248213f	1.16490915e-08
80	0x2d52b9bc	1.1978359e-11
81	0x33065e69	3.1285172e-08
82	0x2131a16e	6.0183583e-19
83	0x3143692f	2.8436025e-09
84	0x34646599	2.1271116e-07
85	0x307f201f	9.2814106e-10
86	0x374498ad	1.1718058e-05
87	0x00000004	6e-45
88	0x00000004	6e-45
89	0x322646e1	9.678588e-09
90	0x3041893a	7.0408e-10
91	0x325a655a	1.2712315e-08
92	0x311a90f8	2.2492355e-09
93	0x00000004	6e-45
94	0x37a43d4a	1.9578863e-05
95	0x1f071c0f	2.861057e-20
96	0x378aacd7	1.6531367e-05
97	0x00000004	6e-45
98	0x175c8062	7.1247876e-25
99	0x35b3f824	1.3408758e-06
100	0x0931fd8c	2.1424817e-33
101	0x00000004	6e-45
102	0x36304387	2.626535e-06
103	0x3601ca79	1.9340353e-06
104	0x3712a6ed	8.741144e-06
105	0x371ce3d8	9.351374e-06
106	0x00000004	6e-45
107	0x3284c030	1.545422e-08
108	0x37bff54b	2.2883198e-05
109	0x00000004	6e-45
110	0x366f7a68	3.5685025e-06
111	0x17028ff2	4.218695e-25
112	0x361d027b	2.3396267e-06
113	0x338e214e	6.6184484e-08
114	0x35dd04e1	1.6467203e-06
115	0x25a9a87f	2.9431004e-16
116	0x380024f8	3.0552008e-05
117	0x352a1676	6.336262e-07
118	0x0d17916f	4.6705527e-31
119	0x00000004	6e-45
120	0x3493f937	2.756221e-07
121	0x34848c47	2.468898e-07
122	0x00000004	6e-45
123	0x373a6e0e	1.1112088e-05
124	0x35120fbb	5.441213e-07
125	0x00000004	6e-45
126	0x33d73dca	1.0022957e-07
127	0x1ff9e63d	1.058365e-19
