UCTB/bike_chicago30212864.pth (torch, 405137 bytes, 62 tensors)

weight f4 [128, 7, 1, 1]
0	0xbcbcd07b	-0.02304863
1	0x3d67d5e6	0.056600474
2	0x3d13cdc2	0.036084898
3	0x3cb99a3c	0.022656552
4	0x3cb61a51	0.022229346
5	0xba7aa139	-0.0009560767
6	0xbc24a587	-0.01004923
7	0xba24bb6f	-0.00062840333
8	0xba481099	-0.0007631868
9	0xba725485	-0.0009244162
10	0x38bcfa5d	9.0111724e-05
11	0x38b400fb	8.5832515e-05
12	0xba0da26f	-0.00054029276
13	0xb9c1d5e4	-0.0003697119
14	0xb82ce41a	-4.122043e-05
15	0xb8b69632	-8.706412e-05
16	0xb8d45f2f	-0.00010126677
17	0xb8e0d359	-0.00010720519
18	0xb8e64a0f	-0.00010981049
19	0xb90b74e1	-0.00013299614
20	0xb911a9fa	-0.00013891599
21	0xb950f39d	-0.00019927179
22	0xb8f91123	-0.00011876437
23	0xb83fa008	-4.568699e-05
24	0xb89a8e74	-7.369826e-05
25	0xb89ce891	-7.4819785e-05
26	0xb8871f8f	-6.44318e-05
27	0xb86fe2ae	-5.7193152e-05
28	0xb63a55cf	-2.7766107e-06
29	0x35e8532b	1.7309552e-06
30	0x35a91e8c	1.2600372e-06
31	0xb52f5736	-6.531949e-07
32	0xb527e71c	-6.2548656e-07
33	0xb4e76fe6	-4.310852e-07
34	0xb539a36b	-6.9155675e-07
35	0xb84d0d01	-4.888792e-05
36	0xb737ddf3	-1.0959327e-05
37	0xb968602d	-0.00022161072
38	0x391c13f8	0.00014884758
39	0x39174c19	0.00014428831
40	0xb949852f	-0.00019218469
41	0xb9153943	-0.00014231079
42	0xba650d5b	-0.0008737647
43	0xbac63512	-0.0015122017
44	0xbac6d921	-0.0015170911
45	0xb9a61265	-0.00031675692
46	0xb9b1c8bb	-0.00033909627
47	0xba8a36c8	-0.001054489
48	0xba73ea39	-0.0009304616
49	0xb98212bc	-0.0002480949
50	0xb97deacd	-0.0002421543
51	0xb9890f6b	-0.00026142164
52	0xb9871525	-0.0002576496
53	0xb9875d8f	-0.00025818913
54	0xb98cfa58	-0.00026889401
55	0xb98fbc56	-0.00027415407
56	0xb827deb8	-4.0023326e-05
57	0xb746387d	-1.1814872e-05
58	0xb58a3963	-1.0298503e-06
59	0xb70e5fd8	-8.486175e-06
60	0xb6fcea57	-7.537466e-06
61	0x371db96c	9.401101e-06
62	0x37683c12	1.3842264e-05
63	0xb984f44f	-0.00025359026
64	0x3793d9a1	1.7625107e-05
65	0x38d828fb	0.00010307316
66	0xb8f02871	-0.000114516246
67	0xb8fec951	-0.00012149162
68	0x39151e2c	0.00014220987
69	0x38f15710	0.00011507992
70	0xba237eaa	-0.0006236831
71	0xba407cb6	-0.0007342802
72	0xba30df50	-0.00067471433
73	0xb9f4bcc7	-0.00046679957
74	0xb9f7ff37	-0.0004730166
75	0xb9eafa19	-0.00044818295
76	0xba09b97a	-0.00052537734
77	0xb613595e	-2.1956726e-06
78	0xb7f3e420	-2.9074086e-05
79	0xb8089d99	-3.25717e-05
80	0x364f3cf3	3.088088e-06
81	0x364c6c81	3.0461526e-06
82	0xb73cb796	-1.1248418e-05
83	0xb7755ce5	-1.4624767e-05
84	0xbc76c9c7	-0.015062756
85	0xbc59b5f3	-0.013288009
86	0xbc60856a	-0.013703683
87	0xbc6c3edc	-0.014419284
88	0xbc6ca708	-0.01444412
89	0xbc68f900	-0.0142195225
90	0xbc679e4c	-0.014136862
91	0xbd3397f5	-0.04384609
92	0xbc187ffb	-0.009307857
93	0xbc223426	-0.0099001285
94	0x3bb27581	0.0054461365
95	0x3b6d17d3	0.003617753
96	0xbca944ee	-0.020662751
97	0xbca2d386	-0.019876253
98	0xb48e2644	-2.6477403e-07
99	0xb400ccbd	-1.1995412e-07
100	0xb39d3a1e	-7.321454e-08
101	0x33feaaa0	1.1858833e-07
102	0x33f56e3f	1.1428755e-07
103	0x3285a9c7	1.5560444e-08
104	0x332b0850	3.98216e-08
105	0xb16818c8	-3.377453e-09
106	0xb43ea7e3	-1.7756206e-07
107	0xb3f0919a	-1.1202356e-07
108	0x333bbeb2	4.3712767e-08
109	0x3312be0e	3.4166128e-08
110	0xb400e00f	-1.2002441e-07
111	0xb35c39fe	-5.1275485e-08
112	0xb59a47ec	-1.1494826e-06
113	0x3570fda4	8.9776063e-07
114	0x3583436b	9.779882e-07
115	0x361d723a	2.3461312e-06
116	0x3614e18f	2.218501e-06
117	0xb59f62b1	-1.1875146e-06
118	0xb5020e3a	-4.8449476e-07
119	0xbc173f2a	-0.009231368
120	0x3ce8c9f5	0.028416613
121	0x3c929b99	0.01789646
122	0x3b06aa1d	0.0020548173
123	0x3af9d868	0.0019061686
124	0x3c0fbb77	0.008772722
125	0x3c14b9dc	0.009077515
126	0xb4eafbeb	-4.376919e-07
127	0xb59ae960	-1.1541815e-06
128	0xb5703317	-8.948131e-07
129	0x34166fd7	1.4010526e-07
130	0x3426f234	1.5548068e-07
131	0x34472db6	1.8549949e-07
132	0x34ea7f4b	4.3678514e-07
133	0xb95af4da	-0.00020881314
134	0xb937296a	-0.00017467668
135	0xb92c33da	-0.00016422514
136	0xb8f14324	-0.000115042814
137	0xb8f0829d	-0.000114684204
138	0xb8d1b066	-9.9987534e-05
139	0xb8be80df	-9.08391e-05
140	0xbaea9c3b	-0.0017899344
141	0xba27a16f	-0.00063946
142	0xb9c31bfd	-0.0003721415
143	0x3a9175b0	0.0011097696
144	0x3a9143ff	0.0011082886
145	0x3980c6c3	0.00024562152
146	0x39d17235	0.00039948677
147	0x35292e52	6.302481e-07
148	0x36a7635f	4.988556e-06
149	0xb6e7b1cd	-6.905035e-06
150	0x37124a4b	8.719576e-06
151	0x37039ddf	7.844966e-06
152	0xb741890e	-1.1535607e-05
153	0xb75a2dea	-1.3004503e-05
154	0x3d400346	0.04687812
155	0x3d993130	0.07480085
156	0x3d91cc5f	0.07119059
157	0x3cc2b254	0.023766674
158	0x3cc0b818	0.023525283
159	0x3d16be6d	0.036802698
160	0x3d4a60c0	0.049408674
161	0xba016b5e	-0.00049369584
162	0xb7e5d3ba	-2.739752e-05
163	0xb80fec48	-3.431391e-05
164	0x38e33214	0.00010833531
165	0x38f241e4	0.00011551732
166	0x38be20d3	9.06602e-05
167	0x3912b258	0.00013990083
168	0xbd860a22	-0.065449014
169	0xbcb071fa	-0.021538723
170	0xbcdb5497	-0.026773734
171	0xbb2418e4	-0.002503925
172	0xbba15c14	-0.0049243066
173	0xbcd1a7a5	-0.025592634
174	0xbcd3336a	-0.025781352
175	0xb3be8142	-8.871076e-08
176	0xb344b5d8	-4.5800192e-08
177	0xb33dad79	-4.4162764e-08
178	0x3376610f	5.7364613e-08
179	0x337399fe	5.67179e-08
180	0x30ce1a69	1.4995979e-09
181	0x320f0fbf	8.327276e-09
182	0xbac05cbd	-0.0014676076
183	0x39aca3a3	0.00032928315
184	0x3a046717	0.0005050762
185	0x3a8b5105	0.0010629004
186	0x3a8f871a	0.0010950298
187	0x3a2cf293	0.00065974257
188	0x3a84f71c	0.0010144445
189	0xbb97acc5	-0.00462875
190	0xbba2a080	-0.0049629807
191	0xbbaa2f1e	-0.005193605
192	0xbbdb1b64	-0.006686615
193	0xbbdba652	-0.0067031765
194	0xbbb32773	-0.005467349
195	0xbbb579fa	-0.0055382224
196	0xb4800134	-2.3842733e-07
197	0xb5973661	-1.1266203e-06
198	0xb515aee1	-5.576131e-07
199	0x359e03f7	1.1773071e-06
200	0x35a283e0	1.2108321e-06
201	0x3559b10c	8.1096437e-07
202	0x356dd2a7	8.859592e-07
203	0x38036585	3.132738e-05
204	0x36db41e8	6.534381e-06
205	0x379c03bd	1.859839e-05
206	0x3804718e	3.157701e-05
207	0x380890ca	3.2559772e-05
208	0x382325cd	3.8897433e-05
209	0x3838b669	4.40389e-05
210	0xba641ea2	-0.00087020744
211	0xb9d58453	-0.00040725115
212	0xb982cb44	-0.00024946977
213	0x393c2879	0.00017944154
214	0x394d91fe	0.0001960471
215	0x3975bafd	0.0002343468
216	0x39884ba8	0.0002599631
217	0xba2dfc8f	-0.00066370604
218	0x39d9f1e9	0.00041569702
219	0x3a2543d6	0.0006304359
220	0x3737d770	1.095781e-05
221	0x37e2a61b	2.7018648e-05
222	0xb9e5ab73	-0.00043806023
223	0xb8d4af37	-0.00010141584
224	0xb93854b2	-0.00017579159
225	0xb8d7b50e	-0.00010285723
226	0xb92c77ee	-0.00016447876
227	0xb9015000	-0.00012332201
228	0xb90338c6	-0.00012514283
229	0xb931bb6f	-0.0001694986
230	0xb920f85f	-0.00015351315
231	0x36f4ae20	7.2920375e-06
232	0xb781dacd	-1.5479885e-05
233	0xb7cb93d3	-2.4268322e-05
234	0x35ef41b5	1.7826011e-06
235	0x358796c0	1.0102158e-06
236	0xb718dd3d	-9.111417e-06
237	0xb751cd84	-1.2505221e-05
238	0x3906c6e8	0.00012853334
239	0x39aae583	0.00032595926
240	0x399d96a4	0.0003005761
241	0x3a0e3cc9	0.0005425928
242	0x3a0cb134	0.00053669815
243	0x39c221d9	0.00037027782
244	0x39be597d	0.00036306298
245	0xbb760192	-0.0037537557
246	0xbaa2f7d7	-0.0012433481
247	0xbaba8e99	-0.0014233171
248	0xba9b3b15	-0.0011843169
249	0xba9a23e0	-0.0011759959
250	0xbada3ae5	-0.0016649632
251	0xbaf4bbe2	-0.0018671716
252	0xba553cfd	-0.0008134393
253	0xba53eaeb	-0.0008084017
254	0xba5a4646	-0.00083265116
255	0xba0b0afe	-0.0005304067

bias f4 [128]
0	0x3d574270	0.052553594
1	0xba6d6000	-0.00090551376
2	0x3a184f22	0.00058101316
3	0xb7c2b3a8	-2.3210261e-05
4	0xb3fb850d	-1.17123e-07
5	0xb79c410f	-1.8626944e-05
6	0xbaf9daa1	-0.0019062349
7	0xb86247ed	-5.3949585e-05
8	0xb803cc81	-3.1423293e-05
9	0xb8de6649	-0.00010604837
10	0xb6e561e8	-6.8361296e-06
11	0xb78f5555	-1.7086664e-05
12	0xbb23c949	-0.0024991801
13	0x3dec4f07	0.11538511
14	0xb5b02bdd	-1.3125788e-06
15	0xb7245f74	-9.797386e-06
16	0x35154340	5.5604687e-07
17	0xbe30d471	-0.1726854
18	0xb5a1a0b4	-1.2042206e-06
19	0xbab0cd80	-0.0013488978
20	0xb8ab35fd	-8.1639715e-05
21	0x384c5a2d	4.8721373e-05
22	0xbd829630	-0.06376302
23	0xb6e8b1fe	-6.93486e-06
24	0x3e0670ad	0.1312892
25	0xb5550e2f	-7.9369323e-07
26	0xb9314549	-0.00016905846
27	0xba1a3fc4	-0.00058841356
28	0xb6f47a91	-7.2860353e-06
29	0xb72862e1	-1.0036602e-05
30	0x372c97ec	1.0287371e-05
31	0xbbe16a68	-0.0068791397
32	0x3924018d	0.00015640837
33	0xb7442c76	-1.1692862e-05
34	0xb8f7e8a3	-0.0001182121
35	0xb954dbb7	-0.00020299746
36	0xb9d7fc84	-0.00041196134
37	0xbc97d58f	-0.01853445
38	0xb5935972	-1.0978385e-06
39	0xb84fcdd1	-4.9544327e-05
40	0xb9c85217	-0.00038208134
41	0xb5a4936c	-1.2261858e-06
42	0xb9c1d88b	-0.00036973166
43	0xb9cbb907	-0.00038857033
44	0xb5091814	-5.1071515e-07
45	0xb8b40fdc	-8.586023e-05
46	0xb49ed5bb	-2.9585303e-07
47	0xb49c91d5	-2.916337e-07
48	0x39d5ef69	0.000408049
49	0xb772e8cb	-1.4478525e-05
50	0xbd68db77	-0.056849923
51	0xbb18f510	-0.0023339428
52	0xba575bd5	-0.0008215283
53	0xb77ae7b1	-1.4955106e-05
54	0xb9039ae0	-0.00012550829
55	0xb8505cba	-4.9677423e-05
56	0x3937f2f5	0.00017542749
57	0xba539ab5	-0.00080720644
58	0xb895c7dd	-7.142101e-05
59	0xb99baf37	-0.0002969445
60	0xb625412a	-2.4624846e-06
61	0xbb563f5d	-0.0032691576
62	0xbd65336d	-0.055957247
63	0x36ea3b8c	6.9806756e-06
64	0xb97299d8	-0.0002313623
65	0xb6817678	-3.858291e-06
66	0xb7b306b3	-2.1341582e-05
67	0xb5cf968f	-1.546652e-06
68	0xb6502348	-3.1014952e-06
69	0xba6bac39	-0.0008990202
70	0xbce24519	-0.027620839
71	0xb70a4fc1	-8.24401e-06
72	0xbb046354	-0.0020200806
73	0x364b55be	3.0299266e-06
74	0xba350f63	-0.0006906895
75	0xb7699810	-1.3923287e-05
76	0x392c58c1	0.00016436262
77	0x36675023	3.4468328e-06
78	0xb8749763	-5.8315123e-05
79	0x39d0eb6f	0.00039848263
80	0xbc1cbb02	-0.0095660705
81	0x36604e1e	3.3424071e-06
82	0x3ddcb30a	0.107763365
83	0xb703b94b	-7.85135e-06
84	0xb9c3f903	-0.00037378827
85	0xba1b9411	-0.00059348444
86	0xb94861bf	-0.000191099
87	0x3990e022	0.00027632812
88	0x3aaa12fa	0.0012975626
89	0x388537c8	6.352324e-05
90	0xb6a2c429	-4.8508123e-06
91	0xbc143aaf	-0.009047194
92	0xba672b59	-0.000881841
93	0xba395f0a	-0.0007071352
94	0xb6678be2	-3.4503105e-06
95	0xb9ae34d7	-0.00033227235
96	0xbb670aa4	-0.0035254145
97	0x3c3b33fa	0.011425966
98	0x3994cae9	0.0002837994
99	0xb9017778	-0.00012346904
100	0xba46010c	-0.00075532566
101	0x393b08ca	0.00017836984
102	0x36e10950	6.7066067e-06
103	0xb7299793	-1.0108476e-05
104	0xb8aca703	-8.2327075e-05
105	0xb8993e26	-7.3071846e-05
106	0xb587d898	-1.0121321e-06
107	0x3a9d0429	0.0011979389
108	0x3b097837	0.0020976195
109	0x34b45736	3.3591067e-07
110	0xb7197bbd	-9.148321e-06
111	0x3bb358b9	0.005473223
112	0xbe5a8a25	-0.2134176
113	0xb7a42f8f	-1.957247e-05
114	0xb715eec0	-8.93668e-06
115	0xb59550e5	-1.1124908e-06
116	0x3890446a	6.879198e-05
117	0xb7e805f4	-2.7659327e-05
118	0xb59ac993	-1.153256e-06
119	0xbb25c54b	-0.0025294598
120	0xb9b0be5b	-0.00033711162
121	0x3c306bb5	0.010767867
122	0xbb4758a7	-0.003041783
123	0x39066cf2	0.00012819821
124	0x3523ccaa	6.102006e-07
125	0x3a1f5a53	0.0006078828
126	0xb6b4b17e	-5.385081e-06
127	0xb6c43a7c	-5.8480637e-06

weight f4 [4, 16]
0	0x000af102	1.004812e-39
1	0x800a4bf7	-9.45606e-40
2	0x800757a5	-6.7429e-40
3	0x00015e0f	1.25577e-40
4	0x80032bb4	-2.91184e-40
5	0x8001f658	-1.80207e-40
6	0x0002762c	2.26063e-40
7	0x8002702a	-2.23908e-40
8	0x800d8298	-1.24071e-39
9	0x80066b09	-5.8941e-40
10	0x8010c380	-1.5395e-39
11	0x800eaef4	-1.348458e-39
12	0x80085dfd	-7.684e-40
13	0x0008eeea	8.2039e-40
14	0x0009bc32	8.94031e-40
15	0x800fd7f9	-1.455009e-39
16	0x000d3a5d	1.214798e-39
17	0x001088f0	1.518492e-39
18	0x00082de8	7.51152e-40
19	0x00141298	1.84338e-39
20	0x0010868a	1.517631e-39
21	0x800f72e3	-1.418746e-39
22	0x0007c69d	7.14097e-40
23	0x000c067a	1.10435e-39
24	0x8008af26	-7.97515e-40
25	0x000c6887	1.139523e-39
26	0x80014884	-1.17849e-40
27	0x801132b7	-1.579396e-39
28	0x000a7c12	9.62863e-40
29	0x800c84d3	-1.149674e-39
30	0x80023679	-2.03212e-40
31	0x8003c948	-3.47713e-40
32	0x800e3a59	-1.306628e-39
33	0x000b2a27	1.025312e-39
34	0x00153413	1.947226e-39
35	0x0004959a	4.21009e-40
36	0x000c8838	1.150892e-39
37	0x0012d675	1.729972e-39
38	0x000521cd	4.71303e-40
39	0x00156abc	1.966834e-39
40	0x00111952	1.570287e-39
41	0x000f952b	1.431044e-39
42	0x801596bf	-1.982623e-39
43	0x8004fe75	-4.58624e-40
44	0x0007e005	7.23212e-40
45	0x80158cf8	-1.979115e-39
46	0x800e0a00	-1.289284e-39
47	0x800f36ee	-1.397238e-39
48	0x8001e6f4	-1.74686e-40
49	0x8006430c	-5.75065e-40
50	0x0009444f	8.51024e-40
51	0x000b631f	1.045748e-39
52	0x80113646	-1.580673e-39
53	0x80081998	-7.43865e-40
54	0x800d4bae	-1.22101e-39
55	0x8009a68a	-8.86262e-40
56	0x8015d07a	-2.003333e-39
57	0x800899eb	-7.899e-40
58	0x0000df0c	8.0014e-41
59	0x800f5370	-1.407464e-39
60	0x800b64a0	-1.046288e-39
61	0x00079b30	6.98519e-40
62	0x80135675	-1.77589e-39
63	0x000ae937	1.002017e-39

weight f4 [4, 16]
0	0x8006aa58	-6.12121e-40
1	0x000d5d24	1.227274e-39
2	0x00003c5b	2.1651e-41
3	0x00064a0f	5.7758e-40
4	0x8006a7fd	-6.11276e-40
5	0x000d7204	1.234763e-39
6	0x80121f12	-1.664185e-39
7	0x000f1be7	1.387542e-39
8	0x800c8a4f	-1.151642e-39
9	0x800bf833	-1.099228e-39
10	0x0008ee10	8.20085e-40
11	0x8015b030	-1.99175e-39
12	0x00022b74	1.99259e-40
13	0x000ae4fe	1.000502e-39
14	0x0002793d	2.27163e-40
15	0x80103834	-1.48953e-39
16	0x80072651	-6.56594e-40
17	0x000e7d4d	1.330646e-39
18	0x00116ebd	1.600929e-39
19	0x000c362e	1.121462e-39
20	0x000dae2c	1.256343e-39
21	0x00018023	1.37802e-40
22	0x000aa350	9.7694e-40
23	0x800a1e64	-9.29257e-40
24	0x80085e2d	-7.68468e-40
25	0x0007e5e7	7.25322e-40
26	0x0007835f	6.89976e-40
27	0x80117734	-1.603965e-39
28	0x00094603	8.51635e-40
29	0x8014153c	-1.844327e-39
30	0x800809c3	-7.38186e-40
31	0x80001cc8	-1.0325e-41
32	0x800c9c67	-1.158133e-39
33	0x0011dd78	1.640651e-39
34	0x00034c3a	3.02851e-40
35	0x000398bf	3.30301e-40
36	0x80049e3c	-4.24106e-40
37	0x0005ed61	5.44333e-40
38	0x000f61b0	1.412576e-39
39	0x800c187a	-1.110806e-39
40	0x0006a5ba	6.10464e-40
41	0x000aded3	9.98289e-40
42	0x000be142	1.090998e-39
43	0x000a6f7f	9.58352e-40
44	0x80048df1	-4.18261e-40
45	0x8000c589	-7.0862e-41
46	0x000df55a	1.281877e-39
47	0x0007f400	7.30379e-40
48	0x80014421	-1.16276e-40
49	0x00069bcb	6.06901e-40
50	0x000df1eb	1.280645e-39
51	0x800e92e1	-1.338387e-39
52	0x8009aca9	-8.88458e-40
53	0x00079d3e	6.99256e-40
54	0x800f0e74	-1.382717e-39
55	0x80069346	-6.03845e-40
56	0x000ab51e	9.83328e-40
57	0x0002704d	2.23957e-40
58	0x00044882	3.93353e-40
59	0x000fdb70	1.456252e-39
60	0x0012061c	1.65523e-39
61	0x0000e5b7	8.2406e-41
62	0x8008837d	-7.81853e-40
63	0x0001e4a5	1.73858e-40

weight f4 [4, 16]
0	0x000e02e4	1.286734e-39
1	0x0010273e	1.483445e-39
2	0x8007e218	-7.23956e-40
3	0x0010142c	1.476604e-39
4	0x800e3588	-1.3049e-39
5	0x801609fd	-2.023964e-39
6	0x000bb982	1.076738e-39
7	0x800cc572	-1.172856e-39
8	0x001374c0	1.786756e-39
9	0x800e6338	-1.32129e-39
10	0x0005bebf	5.27604e-40
11	0x8010a224	-1.527533e-39
12	0x800a0679	-9.20677e-40
13	0x000239a6	2.04351e-40
14	0x80020d33	-1.88406e-40
15	0x80045ede	-4.01374e-40
16	0x0011bcbc	1.628909e-39
17	0x0003d0d3	3.50419e-40
18	0x800a0381	-9.19612e-40
19	0x8009cb23	-8.99391e-40
20	0x0013ae1d	1.807335e-39
21	0x801045f4	-1.494462e-39
22	0x80057180	-4.99894e-40
23	0x0010ac8d	1.531267e-39
24	0x000552f6	4.88938e-40
25	0x800bf4f9	-1.09807e-39
26	0x8010dfb2	-1.549615e-39
27	0x80103b2a	-1.490592e-39
28	0x0007d541	7.1935e-40
29	0x800b148e	-1.017564e-39
30	0x8008e712	-8.17576e-40
31	0x000993a1	8.79479e-40
32	0x800f5907	-1.40947e-39
33	0x000c929b	1.154618e-39
34	0x0001ab11	1.53203e-40
35	0x00072003	6.54332e-40
36	0x8012d4e8	-1.729415e-39
37	0x0003a556	3.34818e-40
38	0x0011ee39	1.646662e-39
39	0x0013a9db	1.805807e-39
40	0x000e60d9	1.32044e-39
41	0x8005d626	-5.36e-40
42	0x800f23da	-1.390394e-39
43	0x00096213	8.61702e-40
44	0x0005561c	4.90068e-40
45	0x8009c542	-8.97282e-40
46	0x0009082b	8.2945e-40
47	0x800f9c81	-1.433675e-39
48	0x0009739a	8.6799e-40
49	0x00140996	1.840149e-39
50	0x800e4a46	-1.312341e-39
51	0x000ff9d8	1.46716e-39
52	0x000e92fa	1.338422e-39
53	0x0013fae6	1.83488e-39
54	0x8011d5c9	-1.637895e-39
55	0x000c6a3e	1.140138e-39
56	0x0000795a	4.3533e-41
57	0x000283fc	2.31018e-40
58	0x800d172c	-1.202174e-39
59	0x000d331e	1.212199e-39
60	0x0008e330	8.16183e-40
61	0x000a1d6a	9.28907e-40
62	0x800bf829	-1.099214e-39
63	0x000bdb97	1.088964e-39

weight f4 [4, 16]
0	0x00027ecb	2.29156e-40
1	0x00028930	2.32885e-40
2	0x0001343f	1.10578e-40
3	0x80062b7f	-5.66616e-40
4	0x000a2712	9.32371e-40
5	0x00073201	6.60786e-40
6	0x8004be1e	-4.35543e-40
7	0x8000c5d9	-7.0974e-41
8	0x00057a89	5.03135e-40
9	0x8001365a	-1.11333e-40
10	0x80144195	-1.860236e-39
11	0x00059d52	5.15613e-40
12	0x800df26a	-1.280823e-39
13	0x80073e76	-6.65255e-40
14	0x800ead78	-1.347926e-39
15	0x0014d7ef	1.914172e-39
16	0x000451f2	3.96738e-40
17	0x80067048	-5.91292e-40
18	0x00057c78	5.03828e-40
19	0x8000f6f8	-8.8596e-41
20	0x800edeeb	-1.365665e-39
21	0x0010b59c	1.534517e-39
22	0x00045911	3.99293e-40
23	0x00057a51	5.03056e-40
24	0x000ac602	9.89387e-40
25	0x80043413	-3.86023e-40
26	0x00092f31	8.43449e-40
27	0x000ece67	1.35974e-39
28	0x00034ab1	3.02301e-40
29	0x800da9f0	-1.254824e-39
30	0x800a9bb1	-9.74207e-40
31	0x000c4c6a	1.129438e-39
32	0x8003ebfc	-3.60162e-40
33	0x0006dcf1	6.30272e-40
34	0x000326cb	2.89423e-40
35	0x00007699	4.2545e-41
36	0x80025698	-2.14735e-40
37	0x8007094b	-6.46182e-40
38	0x800e0bed	-1.289975e-39
39	0x800234c7	-2.02604e-40
40	0x0005f102	5.45635e-40
41	0x00117547	1.603275e-39
42	0x000b7053	1.050485e-39
43	0x000025e0	1.3587e-41
44	0x00004b17	2.6937e-41
45	0x800e4976	-1.31205e-39
46	0x8005221f	-4.71418e-40
47	0x800de77a	-1.2769e-39
48	0x000a1524	9.25939e-40
49	0x80000193	-5.65e-43
50	0x000f3b03	1.398702e-39
51	0x000a6f8d	9.58372e-40
52	0x000db134	1.25743e-39
53	0x800280e0	-2.29903e-40
54	0x800c0f4f	-1.107518e-39
55	0x800dbcf3	-1.261644e-39
56	0x0013f951	1.834312e-39
57	0x8004b6f2	-4.3297e-40
58	0x800c8d12	-1.152632e-39
59	0x00017692	1.3437e-40
60	0x8011ae70	-1.62378e-39
61	0x0013b561	1.809941e-39
62	0x8013a0c3	-1.802545e-39
63	0x0000cfc7	7.4536e-41

weight f4 [4, 16]
0	0x00154ca9	1.956046e-39
1	0x800d3ffd	-1.216816e-39
2	0x000fe8d6	1.461058e-39
3	0x80024962	-2.09996e-40
4	0x0008f397	8.22068e-40
5	0x0000c9c2	7.2377e-41
6	0x00045ba4	4.00216e-40
7	0x800b0260	-1.011042e-39
8	0x800837c6	-7.54692e-40
9	0x801415ca	-1.844526e-39
10	0x800063cc	-3.58e-41
11	0x8007ad24	-7.0496e-40
12	0x800e3c88	-1.307411e-39
13	0x8000a124	-5.7806e-41
14	0x0002bf6a	2.52337e-40
15	0x000d054a	1.195759e-39
16	0x8002fad3	-2.7365e-40
17	0x0004d98a	4.4538e-40
18	0x00013d6f	1.13874e-40
19	0x000c0230	1.10281e-39
20	0x80059777	-5.13513e-40
21	0x000a56fb	9.49558e-40
22	0x8000078a	-2.705e-42
23	0x800f3ec0	-1.400043e-39
24	0x800c3e18	-1.124301e-39
25	0x0013c213	1.814495e-39
26	0x8005f8fa	-5.48493e-40
27	0x00052e15	4.75709e-40
28	0x000d0b65	1.197949e-39
29	0x0012249b	1.66617e-39
30	0x80018953	-1.41098e-40
31	0x000e5728	1.316963e-39
32	0x80061f7a	-5.62305e-40
33	0x800528c9	-4.73808e-40
34	0x8003ec26	-3.6022e-40
35	0x80032f68	-2.92513e-40
36	0x800676d1	-5.93636e-40
37	0x800d17c6	-1.20239e-39
38	0x00151832	1.937225e-39
39	0x0015d5cc	2.005241e-39
40	0x800be2c9	-1.091546e-39
41	0x00020c37	1.88053e-40
42	0x000bcd9b	1.083948e-39
43	0x00006770	3.7106e-41
44	0x800da914	-1.254515e-39
45	0x0007c179	7.12253e-40
46	0x000bf377	1.097529e-39
47	0x8002b2a2	-2.47752e-40
48	0x0009aeaa	8.89177e-40
49	0x80008ab8	-4.9763e-41
50	0x800fa69f	-1.437305e-39
51	0x80042596	-3.80825e-40
52	0x80145085	-1.865595e-39
53	0x80044cd5	-3.94904e-40
54	0x8005470d	-4.84666e-40
55	0x00063c8d	5.72735e-40
56	0x800f4638	-1.402722e-39
57	0x000b68c1	1.047769e-39
58	0x8002ccba	-2.57113e-40
59	0x800a243e	-9.31356e-40
60	0x000c7bff	1.146507e-39
61	0x000e88b8	1.334742e-39
62	0x0014d08c	1.911522e-39
63	0x800d100a	-1.199615e-39

weight f4 [4, 16]
0	0x800baf6c	-1.07312e-39
1	0x80013d1f	-1.13762e-40
2	0x000c190c	1.111011e-39
3	0x000d9fda	1.251205e-39
4	0x000e5552	1.316304e-39
5	0x00046ffd	4.07516e-40
6	0x800089ef	-4.9481e-41
7	0x00088ca1	7.85132e-40
8	0x0003e942	3.59184e-40
9	0x8001ae78	-1.54423e-40
10	0x00041155	3.7356e-40
11	0x00133c7f	1.766576e-39
12	0x00043d38	3.89303e-40
13	0x0002edf9	2.6904e-40
14	0x000af7f6	1.007307e-39
15	0x800c17ac	-1.110518e-39
16	0x8010ab82	-1.530893e-39
17	0x800e4e2d	-1.313741e-39
18	0x8003b1ee	-3.39336e-40
19	0x0004a434	4.26247e-40
20	0x000cc429	1.172395e-39
21	0x8006d3cd	-6.26993e-40
22	0x000989ec	8.75997e-40
23	0x8007a5a3	-7.02268e-40
24	0x000d1719	1.202147e-39
25	0x00136ae1	1.783215e-39
26	0x801453bb	-1.866747e-39
27	0x800d163c	-1.201838e-39
28	0x0003a2f4	3.33963e-40
29	0x800ddfff	-1.274216e-39
30	0x000bf96d	1.099668e-39
31	0x000ef8eb	1.374992e-39
32	0x000b9ce8	1.066478e-39
33	0x000d6c7b	1.232777e-39
34	0x8005252f	-4.72516e-40
35	0x8001aed0	-1.54546e-40
36	0x000f9f80	1.43475e-39
37	0x8009caec	-8.99314e-40
38	0x800498c3	-4.22143e-40
39	0x0012ba51	1.719877e-39
40	0x800334c2	-2.94432e-40
41	0x80090225	-8.27289e-40
42	0x0009b96a	8.93033e-40
43	0x000baca7	1.072126e-39
44	0x800a2c00	-9.34139e-40
45	0x0005775a	5.01993e-40
46	0x0002733a	2.25006e-40
47	0x001208cc	1.656195e-39
48	0x000e567c	1.316722e-39
49	0x000549d0	4.85656e-40
50	0x0008eb68	8.19132e-40
51	0x8003aa94	-3.36698e-40
52	0x0001fd87	1.82784e-40
53	0x0002f5c5	2.71836e-40
54	0x000ab17e	9.82027e-40
55	0x00077fc8	6.88688e-40
56	0x800cd11d	-1.177042e-39
57	0x0007e005	7.23212e-40
58	0x800a2617	-9.32019e-40
59	0x801522ec	-1.941073e-39
60	0x000e4030	1.308723e-39
61	0x0007fc98	7.33462e-40
62	0x80116da7	-1.600539e-39
63	0x8014fe6b	-1.927978e-39

weight f4 [4, 16]
0	0x001213dd	1.660165e-39
1	0x000fe550	1.459794e-39
2	0x8002074e	-1.86291e-40
3	0x0002399c	2.04337e-40
4	0x0005f741	5.47875e-40
5	0x8002a2ab	-2.42025e-40
6	0x0009249c	8.39652e-40
7	0x00022d71	1.99972e-40
8	0x80038467	-3.23003e-40
9	0x000d6f99	1.233895e-39
10	0x8003a805	-3.3578e-40
11	0x80095455	-8.56772e-40
12	0x000bb805	1.076204e-39
13	0x000fb654	1.44294e-39
14	0x800deef8	-1.279587e-39
15	0x0000bfd4	6.8815e-41
16	0x00016eed	1.31628e-40
17	0x8000b608	-6.53e-41
18	0x0008de80	8.14502e-40
19	0x800d6bf1	-1.232584e-39
20	0x800d5e1c	-1.227622e-39
21	0x80052f6a	-4.76186e-40
22	0x800a7b69	-9.62626e-40
23	0x8010804c	-1.515392e-39
24	0x000ba4e5	1.069343e-39
25	0x80100b92	-1.473519e-39
26	0x8008dc53	-8.13721e-40
27	0x800d39bc	-1.214573e-39
28	0x800b684b	-1.047604e-39
29	0x00074607	6.6797e-40
30	0x000b77c7	1.053158e-39
31	0x0007ab05	7.04199e-40
32	0x0003c9f4	3.47954e-40
33	0x800dc0af	-1.262983e-39
34	0x00040cb1	3.71895e-40
35	0x8013cc8a	-1.818249e-39
36	0x00089fbd	7.91987e-40
37	0x8007da01	-7.21054e-40
38	0x000b711d	1.050768e-39
39	0x0000b8bd	6.6272e-41
40	0x0003f681	3.63935e-40
41	0x8008f7ce	-8.2358e-40
42	0x8002bc78	-2.51281e-40
43	0x800e731c	-1.32699e-39
44	0x8001c86a	-1.6373e-40
45	0x800bbc62	-1.07777e-39
46	0x8001bf2b	-1.60414e-40
47	0x000dd883	1.271531e-39
48	0x00082d03	7.50831e-40
49	0x0008165b	7.42704e-40
50	0x800b46f7	-1.035648e-39
51	0x0000dae0	7.8518e-41
52	0x800a308e	-9.35773e-40
53	0x0004cf98	4.41813e-40
54	0x80125c00	-1.686042e-39
55	0x8008bb3e	-8.01854e-40
56	0x0004a57c	4.26707e-40
57	0x8006cf71	-6.25429e-40
58	0x800395a0	-3.29182e-40
59	0x8000c9bc	-7.2369e-41
60	0x800146cb	-1.17231e-40
61	0x8003a7c7	-3.35694e-40
62	0x000c35be	1.121305e-39
63	0x000c3c3e	1.123637e-39

weight f4 [4, 16]
0	0x00076c50	6.81704e-40
1	0x00005e27	3.3775e-41
2	0x000af5c8	1.006525e-39
3	0x8008dd9b	-8.14181e-40
4	0x000bd181	1.085346e-39
5	0x80008cf9	-5.0571e-41
6	0x80028ddf	-2.34565e-40
7	0x0006a632	6.10633e-40
8	0x80090d51	-8.31296e-40
9	0x000b9429	1.06334e-39
10	0x000d3ef4	1.216445e-39
11	0x00007bbd	4.4389e-41
12	0x800d963b	-1.247754e-39
13	0x800a2a77	-9.33588e-40
14	0x80088ca8	-7.85142e-40
15	0x8012ad66	-1.715243e-39
16	0x000b9534	1.063714e-39
17	0x8010ba9d	-1.536312e-39
18	0x00094371	8.50713e-40
19	0x0008d9a1	8.12755e-40
20	0x8007e35b	-7.24408e-40
21	0x8005f720	-5.47829e-40
22	0x000c0c9d	1.106551e-39
23	0x8001b49a	-1.56623e-40
24	0x0005040f	4.60633e-40
25	0x80001268	-6.603e-42
26	0x800f3fd2	-1.400427e-39
27	0x800347f0	-3.01313e-40
28	0x800c2695	-1.115867e-39
29	0x80092884	-8.41054e-40
30	0x0010a5c5	1.528835e-39
31	0x000c3fb9	1.124885e-39
32	0x0003dd19	3.54821e-40
33	0x8009aec8	-8.89219e-40
34	0x0005d7f1	5.36643e-40
35	0x8006b528	-6.16e-40
36	0x801004e0	-1.471117e-39
37	0x800bde68	-1.089975e-39
38	0x0001fdb0	1.82841e-40
39	0x8005696c	-4.96996e-40
40	0x0002f927	2.7305e-40
41	0x0014bc39	1.904231e-39
42	0x8002e0d1	-2.6432e-40
43	0x800fda74	-1.455899e-39
44	0x80071c38	-6.52971e-40
45	0x80005144	-2.9153e-41
46	0x8007391f	-6.6334e-40
47	0x000a752f	9.60393e-40
48	0x00148a72	1.886375e-39
49	0x800af238	-1.005247e-39
50	0x800bae46	-1.072708e-39
51	0x00093230	8.44523e-40
52	0x80077209	-6.83757e-40
53	0x800241c8	-2.07269e-40
54	0x80017ac3	-1.35874e-40
55	0x80107395	-1.510831e-39
56	0x800e223b	-1.297977e-39
57	0x00020490	1.85308e-40
58	0x800bd65d	-1.08709e-39
59	0x00066447	5.86986e-40
60	0x800ee75d	-1.368694e-39
61	0x001493a1	1.889669e-39
62	0x0007760a	6.85193e-40
63	0x8000a322	-5.8521e-41

weight f4 [128, 1, 1, 1]
0	0xbdf8ff2d	-0.12158046
1	0x0009f60a	9.14782e-40
2	0x38fa4a8a	0.00011934813
3	0x80054ba3	-4.86311e-40
4	0x80050bf5	-4.63467e-40
5	0x9529d0b9	-3.429393e-26
6	0x000a8d25	9.68988e-40
7	0x0005bcea	5.26947e-40
8	0x8001d6f1	-1.68942e-40
9	0x000487c1	4.16041e-40
10	0x8009f4c2	-9.14322e-40
11	0x800c798f	-1.145633e-39
12	0x80015bd3	-1.24776e-40
13	0x3eba3e4b	0.3637565
14	0x00059612	5.13013e-40
15	0x000397ce	3.29964e-40
16	0x00078adf	6.92666e-40
17	0x3df6d6eb	0.12052711
18	0x801008f5	-1.472581e-39
19	0x390e1532	0.00013550071
20	0x00014094	1.15002e-40
21	0x8008d7fd	-8.12166e-40
22	0x3d3d411e	0.04620468
23	0x000e43ad	1.309974e-39
24	0x3e8cd3fa	0.27505475
25	0x000a162e	9.26312e-40
26	0x000530e7	4.7672e-40
27	0x00103067	1.486731e-39
28	0x00003b55	2.1284e-41
29	0x000e1290	1.292356e-39
30	0x33157855	3.4801207e-08
31	0x3bac786f	0.0052633802
32	0x0004f2db	4.54462e-40
33	0x0003a150	3.33375e-40
34	0x000bef9d	1.096148e-39
35	0x8002068a	-1.86017e-40
36	0x8000a90a	-6.064e-41
37	0x80099bc9	-8.82405e-40
38	0x8006ab34	-6.12429e-40
39	0x0002d964	2.61656e-40
40	0x000c8ea5	1.153197e-39
41	0x00012c74	1.07782e-40
42	0x00056c6c	4.98072e-40
43	0x80017664	-1.34306e-40
44	0x000e3bcf	1.307152e-39
45	0x000552ac	4.88835e-40
46	0x000aac66	9.802e-40
47	0x0006014b	5.51477e-40
48	0x80042858	-3.81815e-40
49	0x000473eb	4.08926e-40
50	0x3d50a391	0.05093724
51	0x8006ff12	-6.42515e-40
52	0x1458fd0f	1.095512e-26
53	0x000985b5	8.74485e-40
54	0x93254ee4	-2.0864824e-27
55	0x80030da9	-2.80407e-40
56	0x800122c9	-1.04314e-40
57	0x80052848	-4.73628e-40
58	0x80016afd	-1.30216e-40
59	0x00081d14	7.45115e-40
60	0x000104ff	9.3628e-41
61	0x8e285d7e	-2.0752614e-30
62	0x3ea35a5d	0.3190488
63	0x0006f6be	6.39527e-40
64	0x28bfd92e	2.1299446e-14
65	0x8007a4aa	-7.01919e-40
66	0x80058487	-5.0672e-40
67	0x80065ec2	-5.85006e-40
68	0x0001d4ce	1.68175e-40
69	0x065295bb	3.9606615e-35
70	0x3dac70c8	0.08419949
71	0x8000dcec	-7.9252e-41
72	0x35c1577f	1.4405085e-06
73	0x80039c40	-3.31558e-40
74	0x0007efaf	7.28831e-40
75	0x0009aed8	8.89242e-40
76	0x0006dd00	6.30293e-40
77	0x0002d092	2.58492e-40
78	0x00030e96	2.80739e-40
79	0x8000c1f1	-6.9573e-41
80	0x000adbd5	9.97216e-40
81	0x8007cf67	-7.1725e-40
82	0x3e8acc3c	0.27108943
83	0x80013c33	-1.13431e-40
84	0x000722f2	6.55384e-40
85	0x00011c2d	1.01943e-40
86	0x2f84dc6e	2.4167285e-10
87	0x000781a3	6.89353e-40
88	0x8002f449	-2.71304e-40
89	0x0001203b	1.03398e-40
90	0x0002bc97	2.51324e-40
91	0x8000d3f8	-7.604e-41
92	0x385f3925	5.3220563e-05
93	0x800805a3	-7.36706e-40
94	0x800817ba	-7.43195e-40
95	0x80039ffc	-3.32898e-40
96	0x80063b46	-5.72276e-40
97	0x80064642	-5.76217e-40
98	0x800791fc	-6.95218e-40
99	0x8008a045	-7.92178e-40
100	0x0004e154	4.48174e-40
101	0x0007b8b5	7.09109e-40
102	0x000564fb	4.95402e-40
103	0x0000e9af	8.383e-41
104	0x800a73f4	-9.59951e-40
105	0x1dcccb69	5.420867e-21
106	0x0002f5e9	2.71887e-40
107	0x370353ad	7.827691e-06
108	0x00049022	4.19047e-40
109	0x00068428	5.98422e-40
110	0x8008af65	-7.97604e-40
111	0x3be83a0e	0.007086999
112	0x3e8b2d4f	0.27183005
113	0x0006c5c1	6.21954e-40
114	0x00091df4	8.37265e-40
115	0x000d5cee	1.227198e-39
116	0x0000c3d3	7.0248e-41
117	0x8002cd34	-2.57284e-40
118	0x000382a0	3.22366e-40
119	0x0ef09200	5.930516e-30
120	0x8005d2eb	-5.3484e-40
121	0x3e3e82cf	0.18604587
122	0x8008cbce	-8.07795e-40
123	0x8007de23	-7.22536e-40
124	0x00082c22	7.50516e-40
125	0x00044d78	3.95133e-40
126	0x000d2225	1.20611e-39
127	0x800bcf6c	-1.0846e-39

bias f4 [128]
0	0xb76dd45c	-1.4175745e-05
1	0x01d02f9c	7.647545e-38
2	0xade8a93f	-2.6450507e-11
3	0x0011cb8b	1.634221e-39
4	0x80114679	-1.586484e-39
5	0x89b928c8	-4.457548e-33
6	0x8162095f	-4.1516368e-38
7	0x002d6416	4.168501e-39
8	0x80127147	-1.693675e-39
9	0x803f6b9c	-5.824239e-39
10	0x014283ff	3.5726875e-38
11	0x001381a7	1.791385e-39
12	0x0311f008	4.2887213e-37
13	0xb890454b	-6.879362e-05
14	0x0005fe6b	5.50445e-40
15	0x8006942b	-6.04166e-40
16	0x80131b27	-1.754615e-39
17	0x38d48828	0.00010134309
18	0x8005ce09	-5.33089e-40
19	0x2c8e2971	4.0404837e-12
20	0x8009ba8b	-8.93438e-40
21	0x800f53d2	-1.407602e-39
22	0x384bdf4d	4.8606937e-05
23	0x800cf9f3	-1.191691e-39
24	0x3907e3c3	0.00012959451
25	0x0013ddb4	1.824407e-39
26	0x816bdecc	-4.3322532e-38
27	0x82b16697	-2.6066696e-37
28	0x000c7a22	1.145839e-39
29	0x00086a85	7.72896e-40
30	0xa7082b79	-1.8897358e-15
31	0x31c94eae	5.8588148e-09
32	0x000445bc	3.92358e-40
33	0x80155ae2	-1.961148e-39
34	0x002a07f4	3.859944e-39
35	0x016fe7e7	4.406375e-38
36	0x8264d607	-1.6812217e-37
37	0x033b7050	5.508329e-37
38	0x800a411d	-9.41713e-40
39	0x000ec41a	1.356045e-39
40	0x811ab5ac	-2.8415676e-38
41	0x80076af7	-6.8122e-40
42	0x008bdca0	1.284428e-38
43	0x80e707dd	-2.121682e-38
44	0x000a7d55	9.63316e-40
45	0x80115697	-1.592266e-39
46	0x000efaac	1.375621e-39
47	0x8013946c	-1.798118e-39
48	0x0204ee25	9.766173e-38
49	0x00101129	1.475524e-39
50	0xb8e06bb2	-0.00010701212
51	0x023908b8	1.3594156e-37
52	0x8cecf379	-3.6508092e-31
53	0x80040b15	-3.71317e-40
54	0x0640c3b2	3.625496e-35
55	0x0018defd	2.284045e-39
56	0x002d3036	4.149892e-39
57	0x803053f1	-4.438216e-39
58	0x800b105b	-1.016058e-39
59	0x812903d3	-3.1043141e-38
60	0x0015aed1	1.991258e-39
61	0x86e46dab	-8.592521e-35
62	0xb902aa7d	-0.00012461278
63	0x001333b0	1.763416e-39
64	0x1d707742	3.182539e-21
65	0x00160370	2.021614e-39
66	0x80010638	-9.4066e-41
67	0x8001d417	-1.67919e-40
68	0x000b30a1	1.027635e-39
69	0x00042208	3.7955e-40
70	0x38a61c5d	7.92078e-05
71	0x000ac4b7	9.88923e-40
72	0xac993b55	-4.3551087e-12
73	0x800f20fb	-1.389364e-39
74	0x030168a6	3.8029823e-37
75	0x001678d2	2.063723e-39
76	0x8009638d	-8.62232e-40
77	0x80053d5a	-4.81186e-40
78	0x000da26c	1.252127e-39
79	0x00015d0e	1.25217e-40
80	0x01648636	4.1973278e-38
81	0x000d1338	1.200756e-39
82	0xb93f378f	-0.00018235877
83	0x800435c5	-3.86631e-40
84	0x80a85b09	-1.546102e-38
85	0x01e5aa4b	8.4365673e-38
86	0x9f89f5be	-5.8428303e-20
87	0x800fa777	-1.437608e-39
88	0x019d4d59	5.778368e-38
89	0x0003798b	3.19108e-40
90	0x8001cdbe	-1.65642e-40
91	0x02b4bd03	2.655711e-37
92	0xaebd69b7	-8.613504e-11
93	0x81450ab5	-3.6190867e-38
94	0x000526a1	4.73035e-40
95	0x02365eb7	1.339843e-37
96	0x000fb6c2	1.443094e-39
97	0x81be4bda	-6.990382e-38
98	0x81a41525	-6.0274426e-38
99	0x002cbe3e	4.109008e-39
100	0x01fcbfb6	9.284527e-38
101	0x800024c2	-1.3186e-41
102	0x01c4abdb	7.224563e-38
103	0x8011c435	-1.631589e-39
104	0x00001359	6.94e-42
105	0x902bf049	-3.3908913e-29
106	0x0002ebe0	2.68287e-40
107	0xad446769	-1.1164272e-11
108	0x832aa312	-5.0145705e-37
109	0x0000dd2e	7.9344e-41
110	0x800bc49c	-1.08072e-39
111	0x337cccf9	5.8859744e-08
112	0x3930cb19	0.00016860328
113	0x80129aa5	-1.708515e-39
114	0x8012a306	-1.711521e-39
115	0x0005d5aa	5.35826e-40
116	0x80140a2a	-1.840356e-39
117	0x0049e203	6.785069e-39
118	0x800bdd25	-1.089522e-39
119	0x8878def3	-7.489186e-34
120	0x00d791a4	1.9796878e-38
121	0xb717a2dc	-9.03822e-06
122	0x030abe87	4.077327e-37
123	0x00102d32	1.485581e-39
124	0x8010422d	-1.493107e-39
125	0x02f12e60	3.5438385e-37
126	0x00013a16	1.12673e-40
127	0x80127466	-1.694795e-39

weight f4 [128]
0	0x3e219cf8	0.15782535
1	0x0002a328	2.422e-40
2	0x3836b91f	4.356459e-05
3	0x80013264	-1.09912e-40
4	0x800a23ae	-9.31154e-40
5	0x139323b4	3.7143223e-27
6	0x000d7d58	1.238826e-39
7	0x000d2837	1.208288e-39
8	0x0008d4d3	8.11031e-40
9	0x800b7aa6	-1.054188e-39
10	0x8000aaab	-6.1224e-41
11	0x000a0cfa	9.2301e-40
12	0x8009a51f	-8.85754e-40
13	0x3f0baf0d	0.5456398
14	0x00099f7e	8.83734e-40
15	0x8001b147	-1.5543e-40
16	0x8002399a	-2.04335e-40
17	0x3ec38754	0.38189185
18	0x800a9bea	-9.74286e-40
19	0xb6605412	-3.3427536e-06
20	0x800452dd	-3.97068e-40
21	0x80010fc4	-9.7491e-41
22	0x3e384c5a	0.17997876
23	0x000ccf37	1.17636e-39
24	0x3ec2e15f	0.3806257
25	0x000e00bf	1.285965e-39
26	0x80008f6b	-5.1449e-41
27	0x800c7189	-1.142755e-39
28	0x8005c953	-5.31399e-40
29	0x8000a603	-5.9554e-41
30	0x30b0c177	1.2860671e-09
31	0x3b6a153e	0.0035718228
32	0x8007d2af	-7.18428e-40
33	0x000889c7	7.84109e-40
34	0x80094372	-8.50714e-40
35	0x800b4530	-1.03501e-39
36	0x800012d9	-6.761e-42
37	0x8009f067	-9.1276e-40
38	0x00070d77	6.47679e-40
39	0x80095399	-8.56509e-40
40	0x00027d8a	2.28706e-40
41	0x8009141b	-8.33732e-40
42	0x800a16e6	-9.2657e-40
43	0x800abeda	-9.8682e-40
44	0x0004db99	4.46119e-40
45	0x8001b97e	-1.58378e-40
46	0x00022b61	1.99232e-40
47	0x0003b259	3.39486e-40
48	0x80081803	-7.43298e-40
49	0x0007be58	7.11131e-40
50	0x3e49344b	0.19648854
51	0x80079c23	-6.9886e-40
52	0x13061237	1.6922158e-27
53	0x8000fb34	-9.0115e-41
54	0x91b5c85a	-2.868024e-28
55	0x000058d3	3.1864e-41
56	0x800c55bc	-1.132782e-39
57	0x8002e0ad	-2.6427e-40
58	0x000aa05f	9.75885e-40
59	0x80006bed	-3.8716e-41
60	0x000236e7	2.03366e-40
61	0x8fc7bb98	-1.9695174e-29
62	0x3f08d255	0.5344594
63	0x000b54b8	1.040582e-39
64	0x2579542b	2.1625824e-16
65	0x000b6fa5	1.050241e-39
66	0x800612fa	-5.5782e-40
67	0x0007e99e	7.26655e-40
68	0x00091e14	8.3731e-40
69	0x85e01619	-2.1072976e-35
70	0x3e8d01cb	0.2754043
71	0x00089877	7.89378e-40
72	0xb48fb916	-2.6770493e-07
73	0x0001ba64	1.587e-40
74	0x0009cbb7	8.99599e-40
75	0x800bdeaf	-1.090074e-39
76	0x8008fdfa	-8.25794e-40
77	0x000b2976	1.025064e-39
78	0x00010bb9	9.6041e-41
79	0x8006e04b	-6.31474e-40
80	0x8006b4ef	-6.1592e-40
81	0x800bf2e6	-1.097326e-39
82	0x3ec540e3	0.38526067
83	0x000bbf5f	1.078841e-39
84	0x800b9a00	-1.065435e-39
85	0x0006d75a	6.28267e-40
86	0x2bbbde54	1.3348858e-12
87	0x0007e1ee	7.23897e-40
88	0x80002ea0	-1.6726e-41
89	0x8009c6e1	-8.97864e-40
90	0x800abfde	-9.87184e-40
91	0x80083321	-7.53026e-40
92	0x36e1cbd6	6.729252e-06
93	0x00091944	8.35583e-40
94	0x800699c0	-6.06168e-40
95	0x8000fb6f	-9.0197e-41
96	0x8003c1e9	-3.45068e-40
97	0x000508a8	4.62283e-40
98	0x0006c213	6.20634e-40
99	0x0010d539	1.545858e-39
100	0x00097415	8.68162e-40
101	0x00094de5	8.54463e-40
102	0x0011902e	1.612925e-39
103	0x00089dcb	7.9129e-40
104	0x00073219	6.6082e-40
105	0x9a088dc1	-2.823865e-23
106	0x800772d7	-6.84045e-40
107	0xb62a7b9e	-2.5403929e-06
108	0x80020a58	-1.87382e-40
109	0x8003ebb0	-3.60055e-40
110	0x80075e11	-6.76593e-40
111	0x3cd654b1	0.02616343
112	0x3f019ee0	0.5063305
113	0x0003ed78	3.60694e-40
114	0x8003f0c0	-3.61871e-40
115	0x800148d9	-1.17968e-40
116	0x8006624c	-5.86275e-40
117	0x0008b605	7.9998e-40
118	0x800053e1	-3.009e-41
119	0x8fcfd7ff	-2.0494975e-29
120	0x0002b475	2.48407e-40
121	0x3ec1c5fc	0.37846363
122	0x8004123d	-3.73885e-40
123	0x0000178b	8.446e-42
124	0x800a48f0	-9.4452e-40
125	0x800440d7	-3.90602e-40
126	0x000c769a	1.144572e-39
127	0x000ad235	9.93763e-40

bias f4 [128]
0	0xbd7b1ce2	-0.06130684
1	0xba674f30	-0.00088237505
2	0xba193f76	-0.0005845943
3	0xb7c394a0	-2.331502e-05
4	0xb3a555a2	-7.698988e-08
5	0xb8e156ee	-0.00010745028
6	0xbaf76e71	-0.0018877519
7	0xb8a31b54	-7.777536e-05
8	0xb7f1114b	-2.8737491e-05
9	0xb8da56cf	-0.000104112194
10	0xb6f1679a	-7.1944205e-06
11	0xb781329d	-1.5401567e-05
12	0xbb23b933	-0.0024982214
13	0x3d00f8fd	0.031487454
14	0x35bbd1a2	1.3993597e-06
15	0x37233591	9.728029e-06
16	0x35322c7f	6.637492e-07
17	0xbd940d74	-0.072291285
18	0x35314c97	6.604909e-07
19	0x3a9acf33	0.0011811018
20	0xb9392124	-0.0001765532
21	0xb8771db8	-5.8917067e-05
22	0xbd218ff8	-0.03944394
23	0xb6c60717	-5.901685e-06
24	0xbccb07e4	-0.024784036
25	0x3566e2e2	8.6011835e-07
26	0xb93252b1	-0.00017006208
27	0xba1a08fd	-0.0005875973
28	0x36de3c0d	6.6231064e-06
29	0xb7283024	-1.0024789e-05
30	0xb9035969	-0.00012526441
31	0x3bd287db	0.0064248866
32	0xb98c8645	-0.0002680292
33	0xb744979c	-1.171781e-05
34	0xb8f50cc7	-0.0001168489
35	0xb98308c4	-0.00024992798
36	0xb9fb9398	-0.00047984417
37	0xbc97b60b	-0.018519422
38	0xb581a873	-9.660274e-07
39	0xb7bc61d7	-2.2456907e-05
40	0xb9c8585a	-0.000382128
41	0x3538803d	6.873195e-07
42	0xb9bb185d	-0.00035685571
43	0xb9cc07d5	-0.00038915747
44	0x34bb2dff	3.486493e-07
45	0xb7fa9e1b	-2.9875946e-05
46	0x3478e2f3	2.3179363e-07
47	0xb6c1c499	-5.774735e-06
48	0x39d32b55	0.0004027734
49	0xb76a3be8	-1.3961435e-05
50	0xbd022583	-0.031774055
51	0xbb70fd57	-0.0036772096
52	0xba4cac7c	-0.00078076846
53	0xb91ba8e9	-0.00014844876
54	0xb7f38cfa	-2.9033505e-05
55	0xb828145a	-4.0073275e-05
56	0xb97684e4	-0.00023509894
57	0xba53fba6	-0.000808651
58	0xb7e1d6bb	-2.6922082e-05
59	0xba19319a	-0.0005843878
60	0x361a96aa	2.3035486e-06
61	0xbb567515	-0.0032723595
62	0xbc758af4	-0.014986742
63	0xb707a9fa	-8.086203e-06
64	0xb98ebe79	-0.00027226264
65	0x351f49b6	5.933938e-07
66	0xb7ad8e12	-2.0689364e-05
67	0xb60aaf04	-2.0665475e-06
68	0xb7a96a75	-2.0195943e-05
69	0xba60213c	-0.0008549874
70	0xbd40823b	-0.046999197
71	0xb48a8542	-2.580146e-07
72	0xbab3f627	-0.0013729975
73	0xb77bb020	-1.5001773e-05
74	0xba4ad1c3	-0.00077369454
75	0xb768e18a	-1.388079e-05
76	0xb92e4e91	-0.00016623201
77	0x36ff0443	7.6000883e-06
78	0xb873593a	-5.8018813e-05
79	0xb9da04d2	-0.00041583792
80	0xbc1c9d1d	-0.009558943
81	0x3572b8b0	9.042078e-07
82	0xbb421f1e	-0.0029620598
83	0xb678397a	-3.6988336e-06
84	0xb9c41b3f	-0.00037404333
85	0xba1eb82e	-0.00060546666
86	0x3924f8c9	0.00015732938
87	0xb9953769	-0.00028460778
88	0x3aac87e9	0.0013163063
89	0xb96ca899	-0.00022569521
90	0x3687f7a2	4.052142e-06
91	0xbc143e7d	-0.0090481015
92	0xb8e14b42	-0.00010742854
93	0xba3948bb	-0.00070680276
94	0xb67d91a4	-3.7784712e-06
95	0xb9abcfce	-0.00032770488
96	0xbb705d34	-0.0036676647
97	0x3c3b3424	0.0114260055
98	0x399332fb	0.00028076008
99	0xb901765a	-0.00012346488
100	0xba59f075	-0.0008313724
101	0xb93af1a7	-0.00017828365
102	0xb83b0a44	-4.4593835e-05
103	0xb71d36a0	-9.370648e-06
104	0xb8a69689	-7.943536e-05
105	0x38215d26	3.8472142e-05
106	0x3584f81f	9.906979e-07
107	0xbaa1b6a1	-0.0012337753
108	0x3b0983c1	0.0020983072
109	0xb558dc67	-8.0787e-07
110	0x36ee0285	7.093246e-06
111	0xbbd70b73	-0.006562644
112	0xbd8a4a03	-0.06752398
113	0xb79ffaf8	-1.9071143e-05
114	0xb7868d2f	-1.6039789e-05
115	0xb6c78e9c	-5.947264e-06
116	0xb89297b2	-6.990078e-05
117	0xb7a8c92b	-2.0120837e-05
118	0x35ba76f5	1.3892701e-06
119	0xbb26dfb7	-0.0025462934
120	0xb9afb5de	-0.00033514103
121	0xbd8c4adc	-0.06850216
122	0xbb47c5d4	-0.0030482905
123	0xb91e4495	-0.00015093603
124	0xb55633eb	-7.9796763e-07
125	0x3a1fb44b	0.00060922344
126	0xb6b46681	-5.376351e-06
127	0xb6bfd281	-5.7167495e-06

running_mean f4 [128]
0	0xba5d8d25	-0.0008451513
1	0x01fe9d50	9.3530596e-38
2	0x35636673	8.4713173e-07
3	0x80084470	-7.59235e-40
4	0x800694b7	-6.04362e-40
5	0x91e1cc14	-3.5624514e-28
6	0x021a1f3e	1.1323099e-37
7	0x8017dd54	-2.191614e-39
8	0x80022182	-1.95691e-40
9	0x0004c33a	4.37376e-40
10	0x00d5fd7c	1.9651894e-38
11	0x8001e919	-1.75455e-40
12	0x0243d1ae	1.4386513e-37
13	0x3b21401d	0.0024604865
14	0x00056005	4.93623e-40
15	0x000631db	5.68898e-40
16	0x8003c43a	-3.459e-40
17	0x3a6549d3	0.00087466574
18	0x8005ce7b	-5.33249e-40
19	0x3582820c	9.723603e-07
20	0x8004268d	-3.81171e-40
21	0x00033846	2.95694e-40
22	0x39a60dc9	0.00031672258
23	0x000573a3	5.0066e-40
24	0x3af98018	0.0019035367
25	0x000481ac	4.1386e-40
26	0x018737bb	4.967114e-38
27	0x02664c31	1.6919597e-37
28	0x00076554	6.79198e-40
29	0x8003ddd2	-3.5508e-40
30	0x2f917a93	2.646244e-10
31	0x381b77f6	3.7066602e-05
32	0x801ca826	-2.631714e-39
33	0x8002b773	-2.4948e-40
34	0x000c5979	1.134123e-39
35	0x009da57f	1.4477542e-38
36	0x81d12bf8	-7.6837567e-38
37	0x006d3a4b	1.003098e-38
38	0x0003cfa1	3.4999e-40
39	0x00075ed8	6.76872e-40
40	0x807b6164	-1.1330703e-38
41	0x8004016d	-3.67853e-40
42	0x008d1ab3	1.2958383e-38
43	0x80446bb7	-6.283455e-39
44	0x000717be	6.51366e-40
45	0x00037f33	3.21137e-40
46	0x0001d3b6	1.67783e-40
47	0x0001e47c	1.738e-40
48	0x003bf109	5.504761e-39
49	0x00018df9	1.42766e-40
50	0x39dc66b3	0.00042038187
51	0x807ab94d	-1.1270404e-38
52	0x10f515dc	9.666914e-29
53	0x800a57f2	-9.49904e-40
54	0x9001e1b3	-2.5614637e-29
55	0x800149bc	-1.18286e-40
56	0x000a1b88	9.28231e-40
57	0x0054bf3b	7.782782e-39
58	0x000173d4	1.33387e-40
59	0x02116b1b	1.0683655e-37
60	0x000301b2	2.76115e-40
61	0x0a210f9f	7.754806e-33
62	0x3b1cc176	0.0023919023
63	0x80023b5c	-2.04965e-40
64	0x254487b0	1.7046263e-16
65	0x000132dc	1.1008e-40
66	0x8003cfca	-3.50047e-40
67	0x8004df7e	-4.47516e-40
68	0x800496ef	-4.21487e-40
69	0x0358470b	6.355825e-37
70	0x3a1a3c9b	0.00058836647
71	0x80033f83	-2.9829e-40
72	0x3234ef19	1.05317435e-08
73	0x00021773	1.92083e-40
74	0x8176e25e	-4.5345475e-38
75	0x00034904	3.017e-40
76	0x80000169	-5.06e-43
77	0x8003a2e3	-3.33939e-40
78	0x0003bd1d	3.43348e-40
79	0x8007699d	-6.80735e-40
80	0x0091ac9e	1.337807e-38
81	0x8000e4a0	-8.2015e-41
82	0x3af79bba	0.0018891015
83	0x80039613	-3.29343e-40
84	0x001e30e1	2.7726e-39
85	0x006f16bb	1.0201894e-38
86	0x2c036233	1.8670731e-12
87	0x80002312	-1.2581e-41
88	0x017ab6e2	4.604896e-38
89	0x800275b7	-2.25899e-40
90	0x000702a7	6.438e-40
91	0x021f5d8c	1.1708322e-37
92	0x34ce2b3b	3.8401944e-07
93	0x8058d077	-8.156307e-39
94	0x8003aab1	-3.36739e-40
95	0x8221be0d	-1.1882954e-37
96	0x02105b89	1.0605718e-37
97	0x82173720	-1.1109548e-37
98	0x80ecfdea	-2.1764264e-38
99	0x801239c7	-1.673766e-39
100	0x018f7821	5.270228e-38
101	0x80001d56	-1.0524e-41
102	0x00d8b711	1.9902139e-38
103	0x0000d614	7.6797e-41
104	0x00031dfe	2.86266e-40
105	0x1a69aaf9	4.832138e-23
106	0x00025abd	2.16222e-40
107	0x33750d03	5.7055342e-08
108	0x824b92e1	-1.4956237e-37
109	0x0004e9ea	4.51255e-40
110	0x0002064a	1.85927e-40
111	0x38520bd5	5.007892e-05
112	0x3af9cfa3	0.0019059073
113	0x80008d42	-5.0674e-41
114	0x80002bf2	-1.5765e-41
115	0x00025211	2.13111e-40
116	0x0001495b	1.1815e-40
117	0x80044343	-3.91471e-40
118	0x0005ce79	5.33246e-40
119	0x0b643122	4.3948166e-32
120	0x8114a5d1	-2.7302274e-38
121	0x3aae39d6	0.0013292383
122	0x0255c4f0	1.5705287e-37
123	0x00056a0d	4.97221e-40
124	0x000252c9	2.13369e-40
125	0x02269a51	1.224004e-37
126	0x0000d427	7.6106e-41
127	0x800540de	-4.82447e-40

running_var f4 [128]
0	0x36a0e92f	4.7955177e-06
1	0x00000004	6e-45
2	0x2ca6cd52	4.740799e-12
3	0x00000004	6e-45
4	0x00000004	6e-45
5	0x00000004	6e-45
6	0x00000004	6e-45
7	0x00000004	6e-45
8	0x00000004	6e-45
9	0x00000004	6e-45
10	0x00000004	6e-45
11	0x00000004	6e-45
12	0x00000004	6e-45
13	0x3832bd8f	4.2615047e-05
14	0x00000004	6e-45
15	0x00000004	6e-45
16	0x00000004	6e-45
17	0x369f4e12	4.747658e-06
18	0x00000004	6e-45
19	0x2cdc16b5	6.255297e-12
20	0x00000004	6e-45
21	0x00000004	6e-45
22	0x3538d6e6	6.885806e-07
23	0x00000004	6e-45
24	0x37cc7619	2.4373689e-05
25	0x00000004	6e-45
26	0x00000004	6e-45
27	0x00000004	6e-45
28	0x00000004	6e-45
29	0x00000004	6e-45
30	0x210a5bf7	4.6877933e-19
31	0x321bd66f	9.070944e-09
32	0x00000004	6e-45
33	0x00000004	6e-45
34	0x00000004	6e-45
35	0x00000004	6e-45
36	0x00000004	6e-45
37	0x00000004	6e-45
38	0x00000004	6e-45
39	0x00000004	6e-45
40	0x00000004	6e-45
41	0x00000004	6e-45
42	0x00000004	6e-45
43	0x00000004	6e-45
44	0x00000004	6e-45
45	0x00000004	6e-45
46	0x00000004	6e-45
47	0x00000004	6e-45
48	0x00000004	6e-45
49	0x00000004	6e-45
50	0x35657788	8.548309e-07
51	0x00000004	6e-45
52	0x00000004	6e-45
53	0x00000004	6e-45
54	0x00000004	6e-45
55	0x00000004	6e-45
56	0x00000004	6e-45
57	0x00000004	6e-45
58	0x00000004	6e-45
59	0x00000004	6e-45
60	0x00000004	6e-45
61	0x00000004	6e-45
62	0x3809869f	3.278872e-05
63	0x00000004	6e-45
64	0x0c805680	1.9773583e-31
65	0x00000004	6e-45
66	0x00000004	6e-45
67	0x00000004	6e-45
68	0x00000004	6e-45
69	0x00000004	6e-45
70	0x361c78c8	2.3316115e-06
71	0x00000004	6e-45
72	0x26544c31	7.3655534e-16
73	0x00000004	6e-45
74	0x00000004	6e-45
75	0x00000004	6e-45
76	0x00000004	6e-45
77	0x00000004	6e-45
78	0x00000004	6e-45
79	0x00000004	6e-45
80	0x00000004	6e-45
81	0x00000004	6e-45
82	0x37c69518	2.3672867e-05
83	0x00000004	6e-45
84	0x00000004	6e-45
85	0x00000004	6e-45
86	0x19e2af4b	2.3438653e-23
87	0x00000004	6e-45
88	0x00000004	6e-45
89	0x00000004	6e-45
90	0x00000004	6e-45
91	0x00000004	6e-45
92	0x2b896d8e	9.764843e-13
93	0x00000004	6e-45
94	0x00000004	6e-45
95	0x00000004	6e-45
96	0x00000004	6e-45
97	0x00000004	6e-45
98	0x00000004	6e-45
99	0x00000004	6e-45
100	0x00000004	6e-45
101	0x00000004	6e-45
102	0x00000004	6e-45
103	0x00000004	6e-45
104	0x00000004	6e-45
105	0x0000000e	2e-44
106	0x00000004	6e-45
107	0x28c27f6f	2.1593592e-14
108	0x00000004	6e-45
109	0x00000004	6e-45
110	0x00000004	6e-45
111	0x328d962b	1.6482849e-08
112	0x37c7c80c	2.3815803e-05
113	0x00000004	6e-45
114	0x00000004	6e-45
115	0x00000004	6e-45
116	0x00000004	6e-45
117	0x00000004	6e-45
118	0x00000004	6e-45
119	0x00000004	6e-45
120	0x00000004	6e-45
121	0x373b7d1b	1.1175197e-05
122	0x00000004	6e-45
123	0x00000004	6e-45
124	0x00000004	6e-45
125	0x00000004	6e-45
126	0x00000004	6e-45
127	0x00000004	6e-45
