UCTB/bike_chicago15212864.pth (torch, 405137 bytes, 62 tensors)

weight f4 [128, 7, 1, 1]
-0.042692162 -0.0017291604 -0.046798963 0.008832352 -0.0038902164 0.059611823 0.030386629 0.010447811
0.01915259 0.005656031 -0.019949581 0.006151571 -0.0028255961 0.015155663 0.041184302 0.0028386863
-0.008167489 0.0071522673 0.003829657 0.011292736 -0.00036580974 0.08598284 0.026062945 0.04948858
-0.017326837 0.004233978 0.047264803 0.056608412 -0.057234913 0.027342996 -0.05126782 0.037133757
0.0074124564 -0.046668112 0.010667488 0.023343444 0.002428294 0.012848711 -0.01934503 -0.0025386543
0.02086158 0.007155352 0.021363962 0.070120186 0.0028626826 -0.01929231 -0.016576476 0.05393101
-0.026997287 0.038564805 0.007818267 -0.009254695 -0.0060048825 -0.007436196 -0.0046714577 0.00065649295
0.054877553 0.02264801 0.006202747 0.0046451464 0.004671527 0.019632814 0.017255588 0.05348209
0.033319306 0.019924972 -0.00041975957 -0.0083386935 0.02168194 0.01903968 0.047909822 -0.09633995
-0.055182047 0.005532504 0.056552187 -0.02161424 0.1076999 -0.00069806486 0.00986489 0.012804999
0.008874433 0.010415833 0.011889657 0.007923782 0.024894986 0.011627021 0.09843123 -0.005601183
0.05353949 0.027891438 0.0024799448 0.027157584 -0.0037851327 0.030324573 -0.016263776 0.004467898
0.025864948 -0.0131598 0.07300039 -0.021789826 -0.0026911858 0.0022137566 -0.0077625136 0.009388951
0.019196277 -0.0069139535 -0.02916721 -0.028939042 -0.027422693 0.04102611 -0.025322206 -0.02789548
-0.045081314 0.11806328 0.0018846052 0.095038176 0.084563255 0.019613096 -0.051606864 0.013738857
0.0039627342 0.006720042 -0.0067313425 0.01065972 -0.012863158 0.014312987 0.023128953 0.008424147
-0.0029089437 -0.022828158 -0.04918671 -0.03383136 -0.034713093 0.079820015 0.02551312 0.011368911
-0.00087429787 0.008406841 0.014998301 0.019881105 0.018218437 -0.010575512 -0.010658676 0.0095956605
-0.0014830568 0.014687593 -0.018965462 -0.029972123 -0.022991981 -0.018286556 0.007445098 -0.0024582734
0.014350753 -0.0054256106 -0.00798678 -0.010175335 -0.0047286707 -0.0021368738 -0.0029029658 0.004369777
-0.0022294614 0.01979131 -0.012863324 -0.03858969 0.0030573732 0.0045784106 0.025244283 0.0052768323
0.011314109 0.00891962 0.01654197 -0.00081809657 0.00195231 0.012236577 0.006936404 -0.02276397
-0.035243023 0.025028782 0.035623908 -0.009328649 -0.021728432 -0.03850027 -0.02426786 -0.0021800105
0.010175859 0.0029542095 -0.016752468 -0.024284618 0.0067858426 -0.011474574 -0.039726883 0.00034895842
-0.00019534404 0.0025841484 -0.012087266 0.004476111 -0.0063094953 0.06256933 -0.008525181 0.023304991
-0.03196618 -0.0005899894 0.057109147 -0.0013719372 0.023608942 -0.0005151508 0.039490364 0.022368979
-0.001385401 0.0029769712 -0.015887246 0.011819628 -0.09867236 -0.0771802 -0.069103085 0.07901513
0.03243323 -0.052241594 -0.031721294 -0.029054938 0.0032663157 -0.038656745 -0.06989376 0.03263862
-0.0006424553 -0.00051784154 0.001565071 0.00031927644 -0.0018469817 0.0010853673 -0.0004738192 0.0976227
0.06759577 -0.047913708 0.018864736 -0.016008848 -0.017186206 -0.034045782 0.032770406 0.05260488
-0.02926707 0.016734326 -0.00046084527 0.0012225973 -0.026738286 -0.011628263 -0.006815115 -0.010793505
0.0061528203 -0.0113679 0.0010356554 -0.017926505 -0.012738705 -0.008021847 -0.0036848024 0.04288566
00000000: fadd 2ebd ffa4 e2ba 45b0 3fbd 92b5 103c
00000010: 00f3 7ebb 872b 743d 61ed f83c 4c2d 2b3c
00000020: e4e5 9c3c 3a56 b93b 4e6d a3bc 1e93 c93b
00000030: a32d 39bb 754f 783c dfb0 283d 4109 3a3b
00000040: efd0 05bc 915d ea3b fcfa 7a3b 2b05 393c
00000050: 27ca bfb9 c517 b03d f581 d53c 8ab4 4a3d
00000060: 03f1 8dbc 2fbd 8a3b bd98 413d 39de 673d
00000070: 286f 6abd 6bfe df3c 35fe 51bd 9119 183d
00000080: 31e4 f23b 1027 3fbd b0c6 2e3c c03a bf3c
00000090: 0324 1f3b 6683 523c 7879 9ebc 8d5f 26bb
000000a0: e7e5 aa3c 7177 ea3b 7a03 af3c 2c9b 8f3d
000000b0: d89b 3b3b e80a 9ebc 64cb 87bc c3e6 5c3d
000000c0: 6a29 ddbc 21f6 1d3d 3018 003c 01a1 17bc
000000d0: 9bc4 c4bb 55ab f3bb 0713 99bb 7f18 2c3a
000000e0: 49c7 603d 5288 b93c 6a40 cb3b 5036 983b
000000f0: 9c13 993b ffd4 a03c 975b 8d3c 0910 5b3d
00000100: d379 083d b239 a33c 2d13 dcb9 049f 08bc
00000110: 539e b13c 1af9 9b3c 173d 443d e14d c5bd
00000120: 9206 62bd 024a b53b 44a3 673d 5910 b1bc
00000130: c491 dc3d 57fe 36ba 59a0 213c 0fcc 513c
00000140: 1266 113c 2ca7 2a3c d6cc 423c c0d2 013c
00000150: 92f0 cb3c 437f 3e3c 5096 c93d 218a b7bb
00000160: 394c 5b3d 967c e43c 9286 223b 9579 de3c
00000170: fd0f 78bb 3d6b f83c 9c3b 85bc 7267 923b
00000180: bae2 d33c 349c 57bc 3a81 953d 9480 b2bc
00000190: 9b5e 30bb ac14 113b af5c febb 1dd4 193c
000001a0: 8341 9d3c 728e e2bb 13f0 eebc 9211 edbc
000001b0: 8ea5 e0bc ff0a 283d 8470 cfbc 1085 e4bc
000001c0: 2fa7 38bd 29cb f13d db04 f73a 60a3 c23d
000001d0: 802f ad3d a5ab a03c b861 53bd f118 613c
000001e0: d3d9 813b cc33 dc3b 9892 dcbb 1ba6 2e3c
000001f0: ffbf 52bc 0581 6a3c ee78 bd3c 6f05 0a3c
00000200: faa3 3ebb 1e02 bbbc 0178 49bd c192 0abd
00000210: 512f 0ebd ad78 a33d e400 d13c ab44 3a3c
00000220: 2331 65ba d9bc 093c 6fbb 753c b3dd a23c
00000230: d53e 953c ea44 2dbc baa1 2ebc 1e37 1d3c
00000240: 2163 c2ba 3ba4 703c 755d 9bbc 1988 f5bc
00000250: ae59 bcbc b0cd 95bc 02f6 f33b fc1a 21bb
00000260: 6c1f 6b3c 52c9 b1bb fcda 02bc 73b6 26bc
00000270: f7f2 9abb cb0a 0cbb af3f 3ebb 5930 8f3b
00000280: 281c 12bb 6321 a23c b1c0 52bc 3910 1ebd
00000290: 365e 483b 7e06 963b 19cd ce3c 47e9 ac3b
000002a0: d05e 393c 9923 123c 0783 873c 8875 56ba
000002b0: a7e4 ff3a ed7b 483c c64a e33b 817b babc
000002c0: fd5a 10bd 2909 cd3c 60ea 113d 31d7 18bc
000002d0: d3ff b1bc 76b2 1dbd 64cd c6bc 82de 0ebb
000002e0: a5b8 263c 699b 413b 793c 89bc 89f0 c6bc
000002f0: c65b de3b daff 3bbc a8b8 22bd 68f4 b639
00000300: 44d5 4cb9 d15a 293b ab09 46bc 57ac 923b
00000310: e2bf cebb 5924 803d 33ad 0bbc 1cea be3c
00000320: f8ee 02bd 85a9 1aba 48eb 693d 93d2 b3ba
00000330: 8a67 c13c 2f0b 07ba a6c0 213d 263f b73c
00000340: 5896 b5ba 4a19 433b f825 82bc 1da7 413c
00000350: bc14 cabd a710 9ebd eb85 8dbd afd2 a13d
00000360: b5d8 043d 48fb 55bd 30ee 01bd 9f04 eebc
00000370: af0f 563b 8956 1ebd 7624 8fbd 13b0 053d
00000380: 726a 28ba c2bf 07ba 1223 cd3a 8f64 a739
00000390: 6c16 f2ba e242 8e3a f06a f8b9 69ee c73d
000003a0: a76f 8a3d 2a41 44bd 388a 9a3c fd24 83bc
000003b0: 16ca 8cbc 9773 0bbd 433a 063d 3778 573d
000003c0: 7fc1 efbc 6d16 893c 9b9d f1b9 8f3f a03a
000003d0: 400a dbbc 7884 3ebc 5451 dfbb 3ed7 30bc
000003e0: 999d c93b 6e40 3abc d4be 873a 9bda 92bc
000003f0: 00b6 50bc 116e 03bc ba7c 71bb e0a8 2f3d

bias f4 [128]
0.15313587 0.20060903 -0.16364256 -0.26494417 -0.28588107 0.12640949 -0.12697805 0.017624935
-0.24527135 0.248406 0.23658814 -0.12371015 -0.2725602 -0.27082884 -0.034962486 -0.13541415
0.031067569 0.18852186 0.30953732 -0.19808151 -0.029069334 -0.07833307 -0.10457618 -0.26229498
-0.15360664 0.2955468 0.18301469 -0.2838306 -0.012137277 0.014096396 0.33188564 0.24697842
-0.24028647 0.32599145 0.11628091 0.035630036 0.02406397 0.08577239 0.24930988 0.2280989
-0.044104327 0.19429195 -0.19830619 0.02584187 0.12338742 0.0465457 0.12951897 -0.14402156
-0.11990482 -0.08781247 0.3176173 0.30735457 0.24641265 0.15833214 -0.038055476 0.15454194
0.21961579 -0.017492242 -0.17675328 0.24894577 0.2365714 0.1773343 0.14472574 0.08872663
0.12549387 -0.19469924 -0.08338532 -0.10295687 -0.27382472 0.28182742 -0.28722838 -0.13142295
0.04707284 -0.2933691 0.13182092 -0.15275607 -0.008460704 0.06273523 -0.21827383 0.2352011
-0.14051773 -0.12777273 0.1273047 0.086411275 0.33688426 -0.18279052 -0.09919797 -0.003067599
0.24352112 0.16732106 -0.2590598 0.10008704 0.12313534 -0.25446483 -0.19492714 0.043502662
-0.04779679 0.024683932 0.11388253 0.009001323 0.0785684 -0.02715175 0.22749017 -0.08394763
0.07730719 0.29663023 0.2533157 0.00878802 -0.18207939 -0.12690926 -0.22206837 0.0325252
0.028719533 -0.18695407 0.20630144 0.15377626 -0.23321569 0.27025238 0.0549077 -0.2483966
0.2900728 -0.11320955 -0.25204083 -0.13250968 -0.21617217 -0.02208105 0.26941037 -0.022899196
00000000: a6cf 1c3e 746c 4d3e ea91 27be c3a6 87be
00000010: 015f 92be 7d71 013e 8906 02be 2b62 903c
00000020: 6a28 7bbe 245e 7e3e 2944 723e bf5b fdbd
00000030: 038d 8bbe 14aa 8abe d334 0fbd 02aa 0abe
00000040: 6a81 fe3c e00b 413e ad7b 9e3e e1d5 4abe
00000050: d022 eebc 176d a0bd 092c d6bd 874b 86be
00000060: 0f4b 1dbe e951 973e 3468 3b3e 3f52 91be
00000070: 6edb 46bc 92f4 663c eaec a93e e9e7 7c3e
00000080: a80d 76be 5ae8 a63e b024 ee3d cdf0 113d
00000090: ce21 c53c 6fa9 af3d 174b 7f3e c292 693e
000000a0: bda6 34bd 78f4 463e c710 4bbe 54b2 d33c
000000b0: 8bb2 fc3d b4a6 3e3d 9fa0 043e 637a 13be
000000c0: a990 f5bd 06d7 b3bd bc9e a23e 945d 9d3e
000000d0: 9953 7c3e d221 223e 0fe0 1bbd 3e40 1e3e
000000e0: f6e2 603e e44b 8fbc d0fe 34be a4eb 7e3e
000000f0: c63f 723e 1f97 353e fc32 143e 4fb6 b53d
00000100: 7781 003e 3d5f 47be ecc5 aabd 0ddb d2bd
00000110: c132 8cbe af4b 903e 990f 93be bd93 06be
00000120: 73cf 403d 7a34 96be 10fc 063e 166c 1cbe
00000130: c49e 0abc 547b 803d 2d83 5fbe 8fd8 703e
00000140: e1e3 0fbe dbd6 02be 2a5c 023e 65f8 b03d
00000150: 187c ac3e 702d 3bbe 4e28 cbbd c509 49bb
00000160: 9a5d 793e 3656 2b3e 7ca3 84be 6ffa cc3d
00000170: 622e fc3d 3749 82be fb9a 47be d92f 323d
00000180: 91c6 43bd f535 ca3c 3e3b e93d 497a 133c
00000190: 78e8 a03d 596d debc 2ff3 683e bcec abbd
000001a0: 3b53 9e3d ebdf 973e 98b2 813e a1fb 0f3c
000001b0: 0573 3abe 80f4 01be e465 63be 2539 053d
000001c0: 3a45 eb3c e370 3fbe af40 533e 8677 1d3e
000001d0: 18d0 6ebe 855e 8a3e e5e6 603d ae5b 7ebe
000001e0: 6c84 943e 69da e7bd 7f0b 81be 9eb0 07be
000001f0: 3d5c 5dbe 51e3 b4bc 28f0 893e 1897 bbbc

weight f4 [4, 16]
5.9075e-41 -8.6358e-41 -2.89833e-40 6.45211e-40 4.30353e-40 9.96613e-40 -6.07813e-40 -8.37654e-40
4.08146e-40 -2.57936e-40 5.74544e-40 -3.9075e-41 6.3182e-40 -8.18529e-40 2.3916e-41 6.88866e-40
8.1826e-41 2.54236e-40 -4.35917e-40 -6.31302e-40 -7.20081e-40 -7.83113e-40 6.78081e-40 -5.15493e-40
-1.63941e-40 2.2884e-40 -7.04873e-40 1.81848e-40 8.3044e-40 1.12817e-40 8.04989e-40 -1.3293e-40
-7.35713e-40 -8.04893e-40 -6.34097e-40 4.74092e-40 -7.35415e-40 -3.95721e-40 7.80788e-40 7.62176e-40
-1.98631e-40 8.58421e-40 -4.4005e-40 -4.04357e-40 -5.17351e-40 -5.38369e-40 -4.03535e-40 7.49713e-40
1.62255e-40 7.54166e-40 -4.6579e-41 7.18573e-40 7.22138e-40 2.71628e-40 7.52849e-40 9.5012e-40
5.87741e-40 7.52363e-40 -3.69403e-40 9.473e-41 4.2536e-40 -5.7323e-40 6.76845e-40 -3.9044e-40
00000000: ada4 0000 bbf0 0080 f027 0380 9606 0700
00000010: a6af 0400 27da 0a00 569e 0680 0a1f 0980
00000020: bf71 0400 05cf 0280 9841 0600 ed6c 0080
00000030: 42e1 0600 bae9 0880 ab42 0000 4780 0700
00000040: 19e4 0000 b5c4 0200 29bf 0480 d0df 0680
00000050: 4bd7 0780 0087 0880 3762 0700 fc9c 0580
00000060: 00c9 0180 ea7d 0200 e6ac 0780 ebfa 0100
00000070: ee0a 0900 7d3a 0100 fbc3 0800 8e72 0180
00000080: de02 0880 b7c3 0880 9be7 0680 9329 0500
00000090: 0a02 0880 1c4f 0480 8580 0800 a34c 0800
000000a0: b429 0280 ee58 0900 aeca 0480 2f67 0480
000000b0: 2aa2 0580 c1dc 0580 e464 0480 e529 0800
000000c0: 4dc4 0100 4f36 0800 d881 0080 17d3 0700
000000d0: 07dd 0700 30f5 0200 a332 0800 8c58 0a00
000000e0: 6266 0600 4831 0800 bf05 0480 1208 0100
000000f0: bba1 0400 ef3d 0680 c55e 0700 6340 0480

weight f4 [4, 16]
7.6347e-41 6.24905e-40 5.22537e-40 -5.22637e-40 3.6199e-40 6.65733e-40 2.80518e-40 -5.12413e-40
5.19208e-40 -7.15193e-40 7.13725e-40 -1.030284e-39 4.66198e-40 -8.94202e-40 -5.61441e-40 1.98407e-40
-5.26412e-40 -4.91742e-40 -8.20428e-40 -8.60462e-40 -1.37588e-40 -7.31937e-40 9.39311e-40 -7.13429e-40
6.53144e-40 -3.94241e-40 3.69388e-40 -5.6419e-40 4.57468e-40 -1.004e-40 -8.8712e-41 2.5813e-41
4.69244e-40 7.74048e-40 3.95651e-40 4.51605e-40 4.97793e-40 -6.77039e-40 6.22429e-40 -1.68945e-40
-5.9317e-41 -3.67454e-40 -8.61996e-40 2.77245e-40 6.07876e-40 -3.46125e-40 5.59117e-40 -2.99467e-40
-3.23652e-40 -8.25302e-40 -4.2906e-40 -6.89356e-40 -1.57825e-40 -4.4504e-40 -6.75018e-40 6.4196e-41
1.92446e-40 -2.26408e-40 -4.89622e-40 -3.46381e-40 -1.70744e-40 4.3172e-40 -4.44755e-40 -3.89886e-40
00000000: d3d4 0000 fbcd 0600 9fb0 0500 e6b0 0580
00000010: 15f1 0300 cb3f 0700 f80d 0300 6694 0580
00000020: 57a7 0500 abc9 0780 93c5 0700 0338 0b80
00000030: 9213 0500 acbc 0980 121d 0680 1429 0200
00000040: 6cbb 0580 c75a 0580 05ef 0880 9e5e 0980
00000050: 8a7f 0180 58f8 0780 6b3a 0a00 c0c4 0780
00000060: b31c 0700 fc4a 0480 b405 0400 bb24 0680
00000070: 3cfb 0400 e017 0180 4bf7 0080 f547 0000
00000080: 101c 0500 bb6d 0800 ea4e 0400 e4ea 0400
00000090: a56b 0500 4f5f 0780 14c7 0600 f3d6 0180
000000a0: 5aa5 0080 5000 0480 e562 0980 d904 0300
000000b0: 839e 0600 dbc4 0380 9716 0600 cb42 0380
000000c0: 3686 0380 9bfc 0880 0bac 0480 a581 0780
000000d0: f4b7 0180 97d8 0480 ad59 0780 f4b2 0000
000000e0: 7618 0200 2277 0280 de54 0580 92c5 0380
000000f0: f7db 0180 76b3 0400 ccd7 0480 d83e 0480

weight f4 [4, 16]
3.6334e-41 -8.63253e-40 9.69453e-40 7.92311e-40 -5.59044e-40 -7.0255e-40 -7.00966e-40 6.82617e-40
-4.14477e-40 2.45932e-40 -7.14041e-40 -3.67519e-40 -6.2909e-40 5.87609e-40 2.73985e-40 4.75063e-40
9.6685e-41 5.83122e-40 7.3822e-40 -9.7507e-41 -4.2922e-41 -4.99176e-40 -5.21545e-40 7.09047e-40
-1.02279e-39 7.1026e-41 6.9136e-40 9.51789e-40 -8.60267e-40 -7.55217e-40 -7.29945e-40 -5.80156e-40
-3.80757e-40 -4.13907e-40 3.77011e-40 -6.91499e-40 -3.05319e-40 -4.70424e-40 -1.857e-40 -6.1667e-40
-6.4772e-40 4.07486e-40 7.18563e-40 8.45989e-40 1.171886e-39 1.12209e-40 -6.47508e-40 1.20739e-40
3.42323e-40 -4.86869e-40 -1.47272e-40 -1.74376e-40 -6.21928e-40 7.07831e-40 1.68112e-40 1.86716e-40
-3.30095e-40 5.6978e-40 3.74466e-40 9.64926e-40 -1.14553e-40 -5.28018e-40 -2.2731e-40 -7.52324e-40
00000000: 4965 0000 6666 0980 718e 0a00 a4a0 0800
00000010: 6316 0680 6ca6 0780 02a2 0780 dc6e 0700
00000020: 6583 0480 8fad 0200 75c6 0780 7e00 0480
00000030: a6d9 0680 0466 0600 c2fb 0200 482c 0500
00000040: 850d 0100 8259 0600 db09 0800 cf0f 0180
00000050: a677 0080 806f 0580 dbad 0580 89b8 0700
00000060: 1f23 0b80 fec5 0000 3b87 0700 335d 0a00
00000070: 135e 0980 3d39 0880 caf2 0780 3d51 0680
00000080: 6525 0480 ce81 0480 f41a 0400 9e87 0780
00000090: 1b53 0380 5a1f 0580 a805 0280 06b7 0680
000000a0: 940d 0780 e86f 0400 10d3 0700 4636 0900
000000b0: bec2 0c00 cb38 0100 fd0c 0780 9250 0100
000000c0: 42ba 0300 314d 0580 899a 0180 17e6 0180
000000d0: afc5 0680 25b5 0700 a1d4 0100 7d08 0200
000000e0: 2c98 0380 5134 0600 dc13 0400 d281 0a00
000000f0: 543f 0180 e6bf 0580 a679 0280 2c31 0880

weight f4 [4, 16]
1.07547e-39 6.67165e-40 -4.86336e-40 7.19e-41 2.43897e-40 8.40464e-40 -1.64912e-40 2.21755e-40
2.15988e-40 -7.545e-40 -6.68148e-40 -6.944e-41 3.74008e-40 -1.941e-41 2.06238e-40 -4.14476e-40
-3.81702e-40 -5.895e-40 6.68505e-40 -1.66424e-40 -6.9731e-41 7.11996e-40 5.82626e-40 -1.23697e-40
-3.28145e-40 9.99294e-40 -1.233152e-39 -8.81557e-40 -5.61373e-40 5.3943e-41 5.0336e-41 -5.00702e-40
3.24364e-40 9.19496e-40 5.6059e-41 -4.12893e-40 -8.86488e-40 -7.41235e-40 8.49998e-40 -9.0266e-41
5.745e-42 -3.71375e-40 7.67561e-40 7.08676e-40 6.16505e-40 3.43533e-40 -7.33501e-40 -6.68016e-40
-8.11224e-40 1.0332e-39 -2.8123e-41 -6.77339e-40 -5.45706e-40 1.66584e-40 -2.84387e-40 3.69258e-40
1.43546e-40 7.25438e-40 3.7848e-40 2.18133e-40 -7.99338e-40 5.99579e-40 6.08504e-40 2.84957e-40
00000000: f9b5 0b00 c943 0700 b54b 0580 6ec8 0000
00000010: e3a7 0200 df26 0900 b5cb 0180 2a6a 0200
00000020: 165a 0200 3d37 0880 8646 0780 92c1 0080
00000030: 9512 0400 1b36 0080 e83e 0200 6483 0480
00000040: 0828 0480 496b 0680 8547 0700 eccf 0180
00000050: 62c2 0080 c1c0 0700 2058 0600 d158 0180
00000060: bc92 0380 a0e1 0a00 876d 0d80 6c99 0980
00000070: e11c 0680 5f96 0000 518c 0000 c173 0580
00000080: 3288 0300 2e03 0a00 459c 0000 fa7e 0480
00000090: 2ba7 0980 4312 0880 7341 0900 a0fb 0080
000000a0: 0410 0000 3e0b 0480 a65b 0800 80b7 0700
000000b0: 91b6 0600 a1bd 0300 b4fc 0780 2846 0780
000000c0: 5dd5 0880 2440 0b00 654e 0080 2560 0780
000000d0: 35f1 0580 5ed0 0100 c118 0380 5705 0400
000000e0: 2690 0100 3ae6 0700 0c1f 0400 1160 0200
000000f0: 3bb4 0880 6287 0600 43a0 0600 581a 0300

weight f4 [4, 16]
5.97522e-40 6.67364e-40 -6.2753e-40 2.02682e-40 8.42653e-40 -6.71976e-40 -4.28196e-40 1.01632e-40
-7.30815e-40 2.82922e-40 -5.3e-42 6.48239e-40 -3.81663e-40 8.16e-43 -4.80727e-40 4.73245e-40
6.293e-41 -1.54385e-40 -1.0638e-40 -9.70167e-40 1.460604e-39 -1.083359e-39 -1.478525e-39 5.73676e-40
7.95688e-40 -2.36807e-40 1.92641e-40 6.98582e-40 3.92652e-40 -3.16822e-40 9.25e-42 2.27413e-40
-2.04777e-40 -8.45769e-40 -1.4341e-40 -8.80308e-40 -9.91302e-40 -5.3503e-41 -7.61983e-40 4.91283e-40
-7.18692e-40 7.47348e-40 5.5165e-40 4.57445e-40 -7.00048e-40 -7.83462e-40 1.00938e-40 3.69672e-40
-5.70045e-40 -6.12913e-40 -3.96451e-40 -8.54869e-40 -7.06787e-40 -7.2505e-41 1.128498e-39 1.209326e-39
-6.59321e-40 -7.14303e-40 2.1543e-40 -4.8599e-40 -5.58496e-40 -2.81604e-40 -4.70077e-40 4.05148e-40
00000000: a681 0600 5744 0700 4cd5 0680 ff34 0200
00000010: f92c 0900 3251 0780 a3a9 0480 4f1b 0100
00000020: 37f5 0780 ac14 0300 c60e 0080 070f 0700
00000030: ec27 0480 4602 0000 123c 0580 3727 0500
00000040: 6caf 0000 5dae 0180 8b28 0180 6e90 0a80
00000050: 92e7 0f00 f7cb 0b80 8719 1080 2d3f 0600
00000060: 0eaa 0800 1f94 0280 0119 0200 5d9b 0700
00000070: 8e46 0400 2c73 0380 c919 0000 ef79 0200
00000080: d63a 0280 a935 0980 c58f 0180 f195 0980
00000090: 59cb 0a80 2595 0080 194c 0880 7f59 0500
000000a0: 6cd3 0780 4d23 0800 c701 0600 2cfb 0400
000000b0: 739f 0780 f987 0880 6019 0100 7f06 0400
000000c0: 0e35 0680 8dac 0680 2551 0480 074f 0980
000000d0: 3cb2 0780 1dca 0080 cb49 0c00 1c2b 0d00
000000e0: eb2d 0780 30c7 0780 8858 0200 be4a 0580
000000f0: dc14 0680 ff10 0380 621e 0580 6369 0400

weight f4 [4, 16]
7.35233e-40 4.8032e-41 -4.2297e-41 -7.52727e-40 -2.82175e-40 6.91195e-40 2.98286e-40 1.212668e-39
-7.11058e-40 4.80273e-40 2.85289e-40 -1.496057e-39 1.47206e-40 -1.3895e-41 -6.3849e-40 -5.42699e-40
6.28332e-40 -3.35783e-40 5.87335e-40 -7.86456e-40 6.59572e-40 -6.02944e-40 -9.43218e-40 6.28704e-40
1.17772e-40 7.40745e-40 1.22314e-40 -1.60138e-40 -5.15647e-40 -1.48442e-40 5.24489e-40 6.77035e-40
7.2443e-41 8.3199e-40 -1.77616e-40 -7.45428e-40 9.63781e-40 -9.3182e-41 9.00899e-40 1.41531e-40
4.80686e-40 5.72348e-40 -4.64526e-40 -8.45305e-40 1.223691e-39 -2.85397e-40 7.17332e-40 2.6078e-41
6.29693e-40 3.22355e-40 -1.092046e-39 -1.055626e-39 -4.02063e-40 -7.37813e-40 -9.377e-40 4.95531e-40
-3.98539e-40 6.58621e-40 -7.70117e-40 -3.9692e-41 -1.96511e-40 1.58462e-40 5.31629e-40 -5.91454e-40
00000000: 8801 0800 e585 0000 e875 0080 4c32 0880
00000010: 9712 0380 c586 0700 803f 0300 6d34 0d00
00000020: 24be 0780 ce3a 0500 451b 0300 664a 1080
00000030: 5a9a 0100 bc26 0080 daf3 0680 d3e8 0580
00000040: 89d7 0600 07a8 0380 4065 0600 5290 0880
00000050: 9e2e 0700 c390 0680 4f45 0a80 92d8 0600
00000060: 4d48 0100 e510 0800 f654 0100 66be 0180
00000070: 6a9d 0580 cc9d 0180 10b6 0500 4c5f 0700
00000080: f1c9 0000 400f 0900 1fef 0180 f31d 0880
00000090: a17e 0a00 c103 0180 57cf 0900 888a 0100
000000a0: f53b 0500 793b 0600 e90e 0580 5e34 0980
000000b0: 2753 0d00 921b 0380 a1cf 0700 b248 0000
000000c0: 54db 0600 9882 0300 2ee4 0b80 a87e 0b80
000000d0: ca60 0480 b908 0880 ed35 0a80 5765 0500
000000e0: f756 0480 f82b 0700 c662 0880 a56e 0080
000000f0: cb23 0280 bab9 0100 f7c9 0500 bc70 0680

weight f4 [4, 16]
2.91907e-40 2.00296e-40 6.12974e-40 -3.7958e-40 3.52816e-40 6.31738e-40 -8.31264e-40 -1.042094e-39
-3.41541e-40 -7.49386e-40 -5.49759e-40 -8.90908e-40 -2.0088e-41 -4.40125e-40 -3.21358e-40 7.08222e-40
-4.2229e-40 -6.2272e-41 9.42337e-40 1.36742e-40 -6.63764e-40 8.98587e-40 1.735818e-39 2.1907e-40
4.11142e-40 -4.60722e-40 -2.1899e-40 -9.75989e-40 -4.52381e-40 1.15481e-40 -5.11318e-40 -7.40656e-40
7.18111e-40 4.7512e-41 8.31329e-40 1.109447e-39 -7.56977e-40 7.40127e-40 -1.03636e-40 -4.50719e-40
-7.99732e-40 -5.72805e-40 4.84953e-40 -8.80846e-40 -7.13557e-40 -6.32161e-40 -8.07338e-40 3.54391e-40
-5.97769e-40 -1.00288e-40 8.57183e-40 -2.6252e-41 7.07773e-40 6.04613e-40 1.20486e-40 1.157388e-39
1.65464e-40 7.95594e-40 1.269e-41 4.06367e-40 -5.87075e-40 -1.968e-40 -1.80555e-40 -1.44042e-40
00000000: b82d 0300 582e 0200 b9ac 0600 1d22 0480
00000010: 82d7 0300 07e1 0600 3a0d 0980 ef58 0b80
00000020: 14b8 0380 fc28 0880 81fc 0580 7db3 0980
00000030: ff37 0080 e4ca 0480 d17f 0380 3cb6 0700
00000040: 2c99 0480 97ad 0080 da42 0a00 2e7d 0100
00000050: 4e3a 0780 e5c8 0900 c1e6 1200 ae62 0200
00000060: 197a 0400 4e04 0580 7462 0280 a9a0 0a80
00000070: 0eed 0480 ea41 0100 5991 0580 a610 0880
00000080: cdd1 0700 7284 0000 680d 0900 b014 0c00
00000090: 253e 0880 2c0f 0800 e520 0180 6ce8 0480
000000a0: 54b5 0880 bf3c 0680 da47 0500 7197 0980
000000b0: 1bc5 0780 35e2 0680 88ca 0880 e6db 0300
000000c0: 5682 0680 9017 0180 7a55 0900 2e49 0080
000000d0: fcb4 0700 6a95 0600 de4f 0100 549a 0c00
000000e0: 3fcd 0100 cba9 0800 6023 0000 c96c 0400
000000f0: 8764 0680 9924 0280 50f7 0180 8891 0180

weight f4 [4, 16]
-2.49277e-40 4.24871e-40 1.157324e-39 -4.15147e-40 -8.2736e-40 8.9896e-41 6.17226e-40 6.73439e-40
-4.26889e-40 3.19182e-40 -7.4759e-40 5.65975e-40 -1.765011e-39 -9.2644e-41 5.40346e-40 -8.96898e-40
-6.20243e-40 -3.93185e-40 6.41038e-40 5.1101e-41 6.82193e-40 -8.07868e-40 1.44639e-40 -4.39575e-40
6.13744e-40 8.49101e-40 -4.0541e-40 2.26298e-40 -1.148223e-39 -5.09847e-40 3.2753e-40 -7.66293e-40
-2.24016e-40 3.3402e-40 9.01214e-40 -2.1527e-40 3.61092e-40 -3.89393e-40 5.40488e-40 1.32805e-40
-5.25296e-40 1.86957e-40 9.02949e-40 1.294801e-39 6.52367e-40 3.3463e-41 -3.90654e-40 1.92812e-40
-8.4497e-41 9.18998e-40 1.177982e-39 7.44663e-40 -1.96326e-40 8.44218e-40 3.28054e-40 6.46963e-40
-9.17632e-40 -4.7536e-40 5.10796e-40 7.76478e-40 4.78123e-40 -7.66076e-40 -5.58172e-40 7.45052e-40
00000000: e2b6 0280 5ea0 0400 269a 0c00 4385 0480
00000010: 5802 0980 98fa 0000 93b8 0600 4655 0700
00000020: fea5 0480 c079 0300 fa23 0880 b529 0600
00000030: 2238 1380 4102 0180 44e2 0500 30c4 0980
00000040: fcc0 0680 0a48 0480 f4fa 0600 738e 0000
00000050: ad6d 0700 02cc 0880 3293 0100 5bc9 0480
00000060: deae 0600 f33e 0900 1e6a 0480 d476 0200
00000070: c780 0c80 3f8d 0580 0591 0300 1d58 0880
00000080: 7770 0280 1da3 0300 38d0 0900 1658 0280
00000090: 94ee 0300 783d 0480 a9e2 0500 3572 0100
000000a0: 50b8 0580 2909 0200 0ed5 0900 6119 0e00
000000b0: 891a 0700 485d 0000 fc40 0480 7b19 0200
000000c0: 8beb 0080 cb01 0a00 bcd3 0c00 d11b 0800
000000d0: 4723 0280 5631 0900 7b92 0300 780b 0700
000000e0: fcfd 0980 1c2d 0580 e48f 0500 8174 0800
000000f0: d034 0500 8257 0880 f513 0680 e71c 0800

weight f4 [128, 1, 1, 1]
0.22561313 -0.22924204 0.224525 0.36896437 0.27818996 0.25062495 0.15469542 0.23578618
0.28093016 0.28565255 0.33091712 -0.21762231 -0.089065224 0.3039584 0.23386392 -0.089882255
0.0023573334 -0.13765565 0.2787832 0.22178455 -0.078993104 0.28451663 0.2943568 0.33534074
0.23420775 0.3169524 0.2686342 0.30844548 -0.2144366 -0.10426612 0.2501561 0.30788854
-0.06324203 0.23646864 -0.20689008 0.2494932 -0.15054874 -0.21465062 -0.22211827 -0.13914293
0.0833372 -0.1885738 0.20982322 0.2758964 -0.13541307 0.13984653 0.21976592 -0.22389644
0.27838728 0.28388306 0.26268378 0.304457 -0.2586725 -0.18162982 -0.14110729 -0.23455195
-0.2377243 -0.22747596 0.21925743 -0.21926308 0.067971915 0.2520835 -0.21602479 0.22637011
0.2687689 -0.17749588 -0.062423445 -0.20822087 -0.1605255 0.06125967 0.253311 -0.19559613
0.21997094 0.289054 -0.19312726 0.1897198 -0.10203456 0.32347572 -0.115763456 -0.17591211
-0.09032279 -0.09634379 -0.046001084 -0.16186288 0.26201624 0.15635598 -0.11879967 -0.19140053
-0.18213233 -0.1651574 -0.12822081 0.21659729 0.050677318 -0.077171944 -0.2655198 -0.11724426
0.19099702 -0.120707534 0.26405972 0.24742855 0.0998367 -0.17702487 -0.16678332 -0.19662817
0.0015676864 -0.16193914 0.28004935 0.24549294 0.21872765 -0.1751972 -0.15012634 0.26426175
0.22551708 -0.22878852 0.24261802 0.17554037 -0.02986077 0.26752135 -0.14561355 0.25404242
0.1750415 0.18711017 -0.11669476 0.23670931 -0.15722257 -0.12563303 0.17427284 -0.05826341
00000000: 2107 673e 6dbe 6abe e2e9 653e e6e8 bc3e
00000010: ea6e 8e3e ea51 803e 7a68 1e3e ef71 713e
00000020: 14d6 8f3e 0d41 923e f86d a93e 62d8 5ebe
00000030: d467 b6bd 6fa0 9b3e 067a 6f3e 3014 b8bd
00000040: 7e7d 1a3b 9af5 0cbe acbc 8e3e 7d1b 633e
00000050: 23c7 a1bd 2aac 913e efb5 963e c8b1 ab3e
00000060: 28d4 6f3e 9647 a23e 6c8a 893e 91ec 9d3e
00000070: 4595 5bbe 7a89 d5bd 7614 803e 91a3 9d3e
00000080: 0a85 81bd d624 723e feda 53be 257b 7f3e
00000090: 7329 1abe 5fcd 5bbe f972 63be 7c7b 0ebe
000000a0: b2ac aa3d 7d19 41be e6db 563e 4b42 8d3e
000000b0: b9a9 0abe ee33 0f3e 510a 613e 1c45 65be
000000c0: c788 8e3e 1f59 913e 7d7e 863e cae1 9b3e
000000d0: b970 84be 2bfd 39be 6e7e 10be 632e 70be
000000e0: 006e 73be 75ef 68be 0585 603e 8086 60be
000000f0: dc34 8b3d 1711 813e 9a35 5dbe 91cd 673e
00000100: 149c 893e 7bc1 35be baaf 7fbd da37 55be
00000110: cc60 24be 6beb 7a3d fbb1 813e 5a4a 48be
00000120: 1040 613e e3fe 933e 27c3 45be e845 423e
00000130: 7ff7 d0bd 9c9e a53e 6415 edbd 4e22 34be
00000140: 28fb b8bd e54f c5bd a26b 3cbd 62bf 25be
00000150: fe26 863e c81b 203e 3e4d f3bd 80fe 43be
00000160: e680 3abe 051f 29be 514c 03be aecb 5d3e
00000170: 0593 4f3d 530c 9ebd 36f2 87be c21d f0bd
00000180: b994 433e 8335 f7bd d632 873e e95d 7d3e
00000190: 2f77 cc3d 0246 35be 3fc9 2abe e558 49be
000001a0: d47a cd3a 60d3 25be a162 8f3e 8062 7b3e
000001b0: 24fa 5f3e e566 33be b8ba 19be 514d 873e
000001c0: f3ed 663e 8a47 6abe dc70 783e dbc0 333e
000001d0: 939e f4bc 8ff8 883e b81b 15be d911 823e
000001e0: 143e 333e cf99 3f3e aafd eebd ed63 723e
000001f0: f4fe 20be f2a5 00be 9474 323e 9da5 6ebd

bias f4 [128]
-7.520781e-07 -9.290045e-08 5.1433153e-07 1.2751556e-06 -1.2653894e-06 -1.0664137e-07 -2.0363545e-06 2.0191558e-07
1.02911365e-07 2.9810399e-06 -4.3432665e-06 -2.4154477e-07 1.3327935e-06 1.1473625e-06 1.2934613e-06 2.2931926e-07
2.8297538e-07 1.0585766e-06 3.984564e-06 2.515148e-06 -5.348167e-06 -1.1861903e-06 -1.5907513e-06 8.1842353e-07
-4.3184045e-06 5.670485e-07 -5.42952e-06 2.4977535e-06 5.6538493e-06 -2.994794e-06 2.4497597e-06 5.105282e-06
-4.7190397e-07 2.538586e-06 -3.3440092e-06 1.2537014e-07 5.317744e-06 -3.863953e-06 -5.0452345e-06 3.2839887e-06
-6.011699e-07 -5.745725e-07 -8.481958e-07 1.6078016e-06 -1.167349e-05 1.5194856e-06 -1.1562514e-06 -4.81772e-07
4.181273e-06 2.5863276e-06 -4.2815918e-07 4.1178073e-06 -2.5604538e-06 1.7882103e-06 -4.3145415e-06 5.0206927e-06
-3.742863e-06 -8.554447e-06 -2.343046e-06 -1.1017605e-06 1.061309e-06 2.022959e-06 -1.276869e-06 -1.2314064e-06
-2.2272123e-07 9.0066897e-07 -1.7076441e-07 -2.3114312e-06 -2.30343e-06 -3.9083673e-07 -1.5936835e-06 5.987367e-06
-1.2693422e-06 -4.981658e-06 2.508072e-06 3.537936e-06 -9.956474e-07 9.898133e-07 4.299473e-06 4.7239964e-06
9.1606864e-08 -1.120925e-06 -1.7836212e-06 3.8688304e-06 2.6954158e-06 6.9520024e-07 -6.417023e-07 4.6979835e-07
5.940157e-07 -3.466471e-06 -5.2687277e-08 -6.448397e-07 6.322028e-07 2.7819172e-07 7.0862905e-07 -5.4002235e-06
-1.3266127e-06 1.3904656e-05 -2.6438413e-06 -1.3136847e-06 -7.0518854e-07 -9.961575e-07 -5.341302e-06 -1.522491e-06
3.1241898e-10 2.1214073e-06 2.5217253e-06 6.889489e-07 -6.6445716e-07 1.8582168e-06 3.558998e-07 -2.7488286e-07
-4.1439787e-07 -1.2036608e-06 -1.1959001e-07 1.2970997e-06 -1.2410213e-07 -6.945493e-06 1.2880972e-06 -1.5953508e-05
-1.3987238e-06 -8.561309e-06 -3.6566548e-06 1.3046333e-06 -4.0259832e-07 -1.6225818e-05 -1.4481935e-07 8.1253654e-07
00000000: 6ae2 49b5 9080 c7b3 9810 0a35 0326 ab35
00000010: 73d6 a9b5 b702 e5b3 4ea8 08b6 22ce 5834
00000020: 1f00 dd33 e00d 4836 60bc 91b6 a9ad 81b4
00000030: 70e2 b235 13ff 9935 fe9a ad35 cc3a 7634
00000040: d7eb 9734 6a14 8e35 25b3 8536 eac9 2836
00000050: 6874 b3b6 3035 9fb5 cc81 d5b5 a3b1 5b35
00000060: d0e6 90b6 4737 1835 392f b6b6 149f 2736
00000070: 32b6 bd36 2bfa 48b6 8d66 2436 0a4e ab36
00000080: fd59 fdb4 935c 2a36 a469 60b6 7b9d 0634
00000090: 136f b236 1ba7 81b6 3c4a a9b6 7f62 5c36
000000a0: 1560 21b5 523c 1ab5 92af 63b5 a4cb d735
000000b0: 42d9 43b7 21f1 cb35 7f30 9bb5 1f53 01b5
000000c0: dd4c 8c36 c590 2d36 c0dd e5b4 b22b 8a36
000000d0: 43d4 2bb6 7002 f035 a1c5 90b6 6c77 a836
000000e0: e62d 7bb6 1285 0fb7 393d 1db6 34e0 93b5
000000f0: 4d72 8e35 2cc2 0736 e360 abb5 cd46 a5b5
00000100: 2525 6fb4 80c5 7135 5d5b 37b4 161e 1bb6
00000110: a094 1ab6 31d4 d1b4 8ce6 d5b5 17e7 c836
00000120: 445e aab5 1e28 a7b6 5950 2836 476d 6d36
00000130: 2fa2 85b5 bad9 8435 3144 9036 d282 9e36
00000140: 68b9 c433 b172 96b5 c264 efb5 00d1 8136
00000150: e4e2 3436 cc9d 3a35 7241 2cb5 9838 fc34
00000160: 7374 1f35 85a1 68b6 464a 62b3 0c19 2db5
00000170: a5b4 2935 615a 9534 9e38 3e35 9133 b5b6
00000180: 110e b2b5 0b48 6937 d96c 31b6 dd51 b0b5
00000190: 304c 3db5 b6b3 85b5 6f39 b3b6 6458 ccb5
000001a0: 10c1 ab2f 805d 0e36 e93a 2936 35f0 3835
000001b0: 265d 32b5 d867 f935 7f12 bf34 9d93 93b4
000001c0: 697a deb4 788d a1b5 a768 00b4 0218 ae35
000001d0: ef40 05b4 550d e9b6 afe2 ac35 e6d3 85b7
000001e0: c9bb bbb5 8ba2 0fb7 da64 75b6 dc1a af35
000001f0: b124 d8b4 ae1c 88b7 a47f 1bb4 161d 5a35

weight f4 [128]
0.8725278 0.7238929 0.8638044 0.92370796 0.86164874 0.8803598 0.8540513 0.81431496
0.8593927 0.83020824 0.88136846 0.7237592 0.6467004 0.86925894 0.858785 0.7128131
0.005726319 0.6824379 0.8544551 0.87695825 0.5400577 0.8887257 0.84746426 0.89652926
0.8487478 0.8506275 0.8359433 0.8606665 0.7385254 0.7080956 0.8204267 0.86782867
0.5590423 0.8728367 0.6536108 0.83456206 0.67628324 0.71715325 0.7943844 0.75501126
0.6960133 0.7859591 0.83781904 0.8675344 0.7080094 0.81870323 0.7313694 0.73578197
0.9079215 0.87688446 0.8823468 0.86104304 0.76627654 0.79198015 0.66785264 0.7605669
0.7229399 0.7365498 0.8405083 0.7340158 0.7543771 0.8993764 0.7194836 0.84548986
0.8362838 0.77988833 0.41447216 0.69503766 0.7132799 0.68458617 0.87712306 0.72429174
0.84143966 0.8838437 0.6772278 0.81849957 0.6545735 0.9119621 0.7732865 0.6780434
0.36295888 0.6857942 0.47729185 0.769692 0.8810444 0.7793209 0.7173643 0.7470382
0.62210715 0.75926566 0.5517304 0.83326346 0.6771036 0.7656189 0.8167748 0.7537015
0.8371115 0.5803715 0.864745 0.8612496 0.75334024 0.82134944 0.77932984 0.7339921
7.2991505e-05 0.6578704 0.88033164 0.89123124 0.85882133 0.759043 0.5119446 0.8943879
0.8349835 0.7475447 0.8446222 0.8568448 0.03072664 0.82385975 0.67347264 0.8504104
0.8310568 0.80046964 0.6269243 0.87623584 0.82577544 0.52891284 0.82182515 0.57134855
00000000: fb5d 5f3f 0c51 393f 4922 5d3f 2078 6c3f
00000010: 0395 5c3f 435f 613f 1ba3 5a3f f276 503f
00000020: 2901 5c3f 8788 543f 5da1 613f 4848 393f
00000030: 288e 253f c187 5e3f 55d9 5b3f eb7a 363f
00000040: d8a3 bb3b 40b4 2e3f 92bd 5a3f 5680 603f
00000050: 3941 0a3f 8783 633f 6bf3 583f f182 653f
00000060: 8947 593f b9c2 593f 6100 563f a454 5c3f
00000070: 0010 3d3f c145 353f 7c07 523f 052a 5e3f
00000080: 651d 0f3f 3a72 5f3f 0a53 273f dca5 553f
00000090: e620 2d3f 5b97 373f c75c 4b3f 6b48 413f
000000a0: ed2d 323f 9e34 493f 4f7b 563f bc16 5e3f
000000b0: 1b40 353f 8996 513f 063b 3b3f 355c 3c3f
000000c0: 8b6d 683f 807b 603f 7be1 613f 516d 5c3f
000000d0: b32a 443f 36bf 4a3f 64f8 2a3f 83b4 423f
000000e0: 9712 393f 878e 3c3f 8d2b 573f 76e8 3b3f
000000f0: dc1e 413f 883d 663f 1430 383f 0672 583f
00000100: b216 563f c3a6 473f b235 d43e fded 313f
00000110: 8399 363f 0a41 2f3f 238b 603f 2f6b 393f
00000120: 9768 573f 9543 623f cd5e 2d3f 3089 513f
00000130: 2192 273f 5976 693f 1bf6 453f 4194 2d3f
00000140: bfd5 b93e 3590 2f3f 995f f43e 890a 453f
00000150: 208c 613f 9381 473f 30a5 373f e53d 3f3f
00000160: 6a42 1f3f 3c5f 423f 343e 0d3f c150 553f
00000170: a956 2d3f 9aff 433f 2718 513f 95f2 403f
00000180: f04c 563f 3a93 143f ee5f 5d3f db7a 5c3f
00000190: e8da 403f f543 523f 2982 473f e8e6 3b3f
000001a0: 0413 9938 326a 283f 6a5d 613f bb27 643f
000001b0: b7db 5b3f a450 423f cd0e 033f 9bf6 643f
000001c0: 7bc1 553f 175f 3f3f 2939 583f 2e5a 5b3f
000001d0: 6fb6 fb3c 79e8 523f b468 2c3f 7fb4 593f
000001e0: 23c0 543f 94eb 4c3f 1c7e 203f fe50 603f
000001f0: 0566 533f d566 073f 2263 523f e643 123f

bias f4 [128]
-0.01808854 -0.00661536 -0.017540993 -0.020820165 -0.022676451 -0.025683137 -0.024076907 -0.029108854
-0.028865056 -0.013979867 -0.007805858 -0.02599824 0.012306418 -0.013888115 -0.02874264 -0.0038179418
-0.0138454195 -0.0060250093 -0.002125124 -0.028438998 -0.008190087 -0.021281412 -0.016922265 -0.014934495
-0.017664995 -0.0042303805 -0.0021441288 -0.021233134 -0.019664722 -0.010923557 0.001823405 -0.019343913
0.022515286 -0.0104256645 -0.020302176 -0.002859285 -0.016145311 -0.005812896 -0.011447053 -0.011591764
-0.016311446 -0.016287806 -0.0035193688 -0.02499044 -0.0018623221 -0.025019916 -0.01103086 -0.010137158
-0.01521292 -0.02114407 0.00046622424 -0.009704246 0.0008681026 -0.0015019986 -0.01629987 -0.019718735
-0.011695911 -0.008876568 -0.0008452931 -0.013729438 -0.007582785 -0.009762336 -0.008118775 -0.016890362
-0.031319372 -0.0052555795 -0.013278432 -0.012061017 -0.0055545117 -0.025203161 -0.040508766 -0.010508989
-0.031597555 -0.026595727 -0.013931211 -0.0111971935 -0.023038497 -0.020252353 0.009627813 -0.023130268
0.005072242 -0.01811148 -0.01778289 -0.0025025792 0.0006597946 -0.018118754 -0.016781064 -0.018057942
-0.036458768 -0.00652122 0.0037713756 -0.02434602 -0.0076739783 0.013820621 0.0056501795 -0.0051127775
-0.01685987 -0.012669683 -0.016590802 -0.034882173 -0.011686578 -0.0045296415 -0.015661106 -0.013417449
-0.01921434 -0.016850846 -0.0100155575 -0.0197122 -0.019361727 -0.007856305 0.007845655 -0.023966966
-0.012190855 0.0066007557 -0.025611721 -0.0155475475 0.010640741 -0.0032391998 -0.008524363 -0.005030312
-0.011095695 -0.03675397 0.011467566 -0.014341151 0.0007791318 -0.0048001334 0.0009881976 -0.037915494
00000000: 6b2e 94bc a9c5 d8bb 21b2 8fbc 0d8f aabc
00000010: f7c3 b9bc 7165 d2bc ef3c c5bc b175 eebc
00000020: 6976 ecbc d00b 65bc 48c8 ffbb 43fa d4bc
00000030: dca0 493c fa8a 63bc af75 ebbc 6f36 7abb
00000040: e6d7 62bc 716d c5bb aa45 0bbb e7f8 e8bc
00000050: b72f 06bc 5b56 aebc 90a0 8abc d0af 74bc
00000060: 2eb6 90bc 019f 8abb 8384 0cbb 1cf1 adbc
00000070: e917 a1bc b8f8 32bc 52ff ee3a 2077 9ebc
00000080: fa71 b83c 68d0 2abc c050 a6bc d862 3bbb
00000090: 2c43 84bc 1b7a bebb 6c8c 3bbc 62eb 3dbc
000000a0: 959f 85bc 016e 85bc 36a5 66bb c0b8 ccbc
000000b0: 2919 f4ba 91f6 ccbc c8ba 34bc 5316 26bc
000000c0: 9c3f 79bc 5436 adbc 8f6f f439 8ffe 1ebc
000000d0: 6191 633a b6de c4ba 4e87 85bc 2f89 a1bc
000000e0: 35a0 3fbc 066f 11bc a996 5dba 70f1 60bc
000000f0: 0379 f8bb 34f2 1fbc 9c04 05bc a85d 8abc
00000100: be48 00bd ff36 acbb c88d 59bc 929b 45bc
00000110: 9f02 b6bb dc76 cebc 85ec 25bd e52d 2cbc
00000120: 706c 01bd 48df d9bc bc3f 64bc 6f74 37bc
00000130: 3bbb bcbc 43e8 a5bc f9bd 1d3c b07b bdbc
00000140: 0d35 a63b 875e 94bc 6cad 91bc 5002 24bb
00000150: 11f6 2c3a c86d 94bc 7178 89bc 40ee 93bc
00000160: ca55 15bd f5af d5bb 2f29 773b 4e71 c7bc
00000170: ff75 fbbb e36f 623c 2425 b93b 1689 a7bb
00000180: b61d 8abc 8194 4fbc 6fe9 87bc 9ce0 0ebd
00000190: 1079 3fbc 636d 94bb b84b 80bc dcd4 5bbc
000001a0: 6467 9dbc c90a 8abc 4b18 24bc 7b7b a1bc
000001b0: 7c9c 9ebc bbb7 00bc 108b 003c 5f56 c4bc
000001c0: 27bc 47bc 274b d83b accf d1bc 24bb 7ebc
000001d0: 8156 2e3c c148 54bb c5a9 0bbc 51d5 a4bb
000001e0: b8ca 35bc 558b 16bd 75e2 3b3c 26f7 6abc
000001f0: a63e 4c3a 704a 9dbb 6986 813a 474d 1bbd

running_mean f4 [128]
0.0011094473 -0.0011264388 0.0011019035 0.0018086584 0.0013589977 0.0012251795 0.0007561047 0.0011511627
0.0013806612 0.0014059131 0.0016188044 -0.0010709026 -0.00043413532 0.0014910878 0.0011393542 -0.00044619048
1.1860317e-05 -0.0006740896 0.0013692884 0.0010787565 -0.0003928546 0.0014003888 0.0014437028 0.0016456922
0.0011485398 0.001557376 0.0013149194 0.0015111031 -0.001046539 -0.00051733095 0.0012339873 0.0015117828
-0.00031294607 0.0011584033 -0.0010186991 0.0012226008 -0.0007354285 -0.001058459 -0.0010974272 -0.0006815974
0.00040578056 -0.0009292827 0.0010279873 0.001352926 -0.0006694943 0.0006879559 0.0010757751 -0.0011001264
0.0013670892 0.0013972913 0.0012919108 0.0015039487 -0.0012755712 -0.00089135894 -0.0006942255 -0.0011474806
-0.0011714986 -0.0011262365 0.0010706515 -0.0010767584 0.00033376273 0.001237326 -0.0010602793 0.0011073864
0.001316031 -0.00087651395 -0.0003070062 -0.0010210032 -0.0007926171 0.00030055025 0.0012340032 -0.00095573335
0.0010774945 0.001419565 -0.00094880303 0.00093242095 -0.00049394625 0.0015923441 -0.00057568203 -0.00086743745
-0.0004429363 -0.00047861267 -0.00022698694 -0.00078970555 0.001287849 0.00076527975 -0.00058840594 -0.00094430946
-0.0008939042 -0.00081285276 -0.0006336673 0.0010618125 0.00024918746 -0.0003862892 -0.0013041733 -0.00058252475
0.00093746727 -0.0005909748 0.0012859487 0.0012084089 0.0004873419 -0.00086962135 -0.00082396547 -0.0009659985
7.684793e-06 -0.00078941905 0.0013746037 0.0012121815 0.0010710886 -0.00086409796 -0.0007361942 0.001293008
0.0011074849 -0.0011228987 0.0011834586 0.0008629886 -0.0001465975 0.001309111 -0.0007149237 0.0012373569
0.00085644925 0.0009088704 -0.0005769676 0.0011602949 -0.00077597843 -0.000620023 0.0008558707 -0.00028573928
00000000: e06a 913a 04a5 93ba bf6d 903a 8110 ed3a
00000010: 6520 b23a 3496 a03a 5435 463a 9ce2 963a
00000020: 4df7 b43a 9e46 b83a 102e d43a 875d 8cba
00000030: a89c e3b9 9b70 c33a 6256 953a acee e9b9
00000040: acfb 4637 63b5 30ba b279 b33a 1065 8d3a
00000050: 0df8 cdb9 408d b73a a13a bd3a 44b4 d73a
00000060: 9a8a 963a de20 cc3a 6059 ac3a 3510 c63a
00000070: 062c 89ba 7e9d 07ba bebd a13a 0327 c63a
00000080: e912 a4b9 91d5 973a df85 85ba ad3f a03a
00000090: c5c9 40ba febb 8aba 8cd7 8fba 3aad 32ba
000000a0: f2be d439 1b9b 73ba 88bd 863a aa54 b13a
000000b0: 0081 2fba f057 343a 0601 8d3a 1e32 90ba
000000c0: e72f b33a 5125 b73a 5555 a93a 2520 c53a
000000d0: 1131 a7ba 16aa 69ba affc 35ba 0f67 96ba
000000e0: f88c 99ba 3a9e 93ba 1a55 8c3a 0422 8dba
000000f0: e0fc ae39 c52d a23a 12f9 8aba b925 913a
00000100: ac7e ac3a dbc5 65ba adf5 a0b9 2fd3 85ba
00000110: a2c7 4fba 2c93 9d39 47be a13a 2e8a 7aba
00000120: b73a 8d3a b210 ba3a 18b9 78ba b66d 743a
00000130: 2c7c 01ba 34b6 d03a 5ee9 16ba be64 63ba
00000140: e739 e8b9 4eee fab9 5803 6eb9 3e04 4fba
00000150: 0bcd a83a 0e9d 483a 413f 1aba 898b 77ba
00000160: e554 6aba a015 55ba b11c 26ba 842c 8b3a
00000170: 60a5 8239 dc86 cab9 cbf0 aaba 93b4 18ba
00000180: 5dc0 753a a6eb 1aba 478d a83a 7963 9e3a
00000190: ec81 ff39 4df7 63ba 63ff 57ba 103b 7dba
000001a0: efed 0037 04f1 4eba 0c2c b43a 10e2 9e3a
000001b0: c563 8c3a a284 62ba 28fd 40ba 267a a93a
000001c0: 0729 913a 3a2e 93ba 481e 9b3a 2f3a 623a
000001d0: f7b7 19b9 7a96 ab3a b869 3bba cf2e a23a
000001e0: 5683 603a 4341 6e3a a43f 17ba 0915 983a
000001f0: 086b 4bba 0a89 22ba 835c 603a 47cf 95b9

running_var f4 [128]
1.4108641e-05 1.4593017e-05 1.3951002e-05 3.7646027e-05 2.1211275e-05 1.7278882e-05 6.6003404e-06 1.5239074e-05
2.1907443e-05 2.2616934e-05 3.0291469e-05 1.3178008e-05 2.165184e-06 2.5520736e-05 1.4884453e-05 2.2897582e-06
1.5351004e-09 5.2360897e-06 2.1536342e-05 1.33238855e-05 1.7230587e-06 2.2581904e-05 2.399098e-05 3.1105963e-05
1.5262014e-05 2.7804817e-05 1.9959714e-05 2.6230218e-05 1.275577e-05 3.0421568e-06 1.7408809e-05 2.613273e-05
1.1288483e-06 1.54719e-05 1.1861013e-05 1.7180024e-05 6.3119896e-06 1.2787379e-05 1.3721556e-05 5.379632e-06
1.9083554e-06 9.908029e-06 1.21734165e-05 2.0991136e-05 5.007275e-06 5.4036705e-06 1.3336814e-05 1.3892921e-05
2.1445265e-05 2.2367089e-05 1.9197261e-05 2.5861964e-05 1.8537121e-05 9.184264e-06 5.509564e-06 1.5278098e-05
1.5668762e-05 1.43949155e-05 1.3249863e-05 1.3320897e-05 1.2781223e-06 1.7559081e-05 1.2906853e-05 1.4114423e-05
1.9923655e-05 8.845883e-06 1.0774423e-06 1.2065932e-05 7.1851437e-06 1.0354504e-06 1.7573946e-05 1.0608295e-05
1.33721405e-05 2.3191149e-05 1.0323371e-05 9.925247e-06 2.818457e-06 2.9110855e-05 3.818958e-06 8.647964e-06
2.2572324e-06 2.620508e-06 5.848019e-07 7.2397424e-06 1.9000627e-05 6.7208384e-06 3.9662864e-06 1.0165593e-05
9.199169e-06 7.5376097e-06 4.6142627e-06 1.2981693e-05 7.1026074e-07 1.7161977e-06 1.9575466e-05 3.856723e-06
1.0133171e-05 4.026144e-06 1.9100082e-05 1.6845152e-05 2.7467718e-06 8.6645105e-06 7.702839e-06 1.0697158e-05
6.790801e-10 7.211622e-06 2.1655496e-05 1.6873977e-05 1.3207645e-05 8.619835e-06 6.2402055e-06 1.9249957e-05
1.4111684e-05 1.449672e-05 1.61102e-05 8.592947e-06 2.4666545e-07 1.9844225e-05 5.8781106e-06 1.767509e-05
8.460338e-06 9.5486375e-06 3.8125634e-06 1.5451098e-05 6.916538e-06 4.36783e-06 8.391518e-06 9.3411114e-07
00000000: 27b4 6c37 88d4 7437 190f 6a37 1de6 1d38
00000010: deee b137 1ef2 9037 7e78 dd36 53ab 7f37
00000020: e0c5 b737 7fb9 bd37 6f1a fe37 1d17 5d37
00000030: 944d 1136 5d15 d637 3db8 7937 bfa9 1936
00000040: 8bfb d230 abb1 af36 f1a8 b437 a789 5f37
00000050: d943 e735 456e bd37 3d40 c937 c677 0238
00000060: ed06 8037 643e e937 296f a737 f708 dc37
00000070: 9d01 5637 db27 4c36 2209 9237 9c37 db37
00000080: ef82 9735 a7c9 8137 aafe 4637 d21d 9037
00000090: 94cb d336 6089 5637 a235 6637 b082 b436
000000a0: 4c11 0036 a93a 2637 6d3c 4c37 1f16 b037
000000b0: 2a04 a836 2d51 b536 2ec1 5f37 a415 6937
000000c0: 5be5 b337 f5a0 bb37 ce09 a137 25f2 d837
000000d0: 2a80 9b37 1d16 1a37 cbde b836 7729 8037
000000e0: 6970 8337 b181 7137 ba4b 5e37 d17c 5f37
000000f0: f38b ab35 d74b 9337 838a 5837 fccc 6c37
00000100: b921 a737 c768 1437 a39c 9035 c96e 4a37
00000110: ea17 f136 cef9 8a35 c36b 9337 48fa 3137
00000120: e858 6037 9d8a c237 8a32 2d37 9c84 2637
00000130: b924 3d36 1633 f437 9924 8036 b916 1137
00000140: f57a 1736 fcdb 2f36 48fb 1c35 eaec f236
00000150: 8963 9f37 9083 e136 2416 8536 e48c 2a37
00000160: 2156 1a37 93eb fc36 37d4 9a36 f2cb 5937
00000170: bfa8 3e35 1b58 e635 fe35 a437 0069 8136
00000180: a301 2a37 5018 8736 1d39 a037 b04e 8d37
00000190: 2e55 3836 ca5d 1137 713b 0137 f277 3337
000001a0: 04aa 3a30 5cfb f136 d3a8 b537 978c 8d37
000001b0: 6796 5d37 e99d 1037 f562 d136 f87a a137
000001c0: 39c1 6c37 f036 7337 6424 8737 6d2a 1037
000001d0: 716d 8434 2677 a637 963c c536 f744 9437
000001e0: e0f0 0d37 1633 2037 57db 7f36 fb9c 8137
000001f0: 9c14 e836 608f 9236 4cc9 0c37 a1bf 7a35

weight f4 [64, 896, 1, 1]
0.045367274 -0.00035110908 0.024951054 0.020866264 0.023304354 0.043677326 0.023070456 0.016124165
0.011744429 0.009864275 0.032895688 -0.027622888 0.008256651 0.019283481 0.045986813 0.0068674022
-0.0017449126 -0.020327423 0.023698773 0.0006843576 -0.0074532116 -0.0058553857 0.014346784 0.0072563
0.0341322 0.037959266 0.02943507 0.028322883 0.012176435 -0.010997541 0.032820914 0.020050196
-0.02382189 0.014837337 0.006607428 0.041875612 -0.032721244 -0.025212975 -0.034354635 -0.034631997
0.030451724 0.0064411596 0.024868537 0.0411271 -0.023640754 0.029118476 0.025216773 -0.030742476
0.014837838 0.0002882541 0.004776423 0.044704147 -0.011037516 -0.007867105 -0.0009951091 -0.022996807
-0.0087311985 0.00667783 0.04786324 -0.01971126 0.0016078262 0.028257849 -0.014398642 0.031237306
-0.010933842 0.0079522915 -0.012803246 -0.032296993 -0.007854827 0.021014756 0.033666372 -0.01668791
0.032288697 0.022722438 0.0143433 0.00020653146 -0.03156286 0.013760287 -0.010320846 -0.0015358486
-0.0035659536 -0.002182243 0.012251259 0.016725114 0.014574627 0.027160589 0.0067809788 0.0046370127
-0.0032667376 -0.02274346 0.012549991 -0.0010947544 0.013856254 -0.022738365 -0.01682927 -0.026687793
0.022255655 -0.028574418 0.050741833 0.046060335 0.006153527 -0.03523317 0.007511506 -0.025592718
0.012798207 -0.0054996912 0.00046833637 0.026508989 0.007431466 0.006980395 -0.00035241304 -0.00526255
0.0028370968 -0.03240379 0.002039818 0.049301896 0.009673172 -0.0091216415 -0.025287256 0.032260638
0.012373551 0.009146473 0.0051393267 0.034378964 -0.005103594 -0.004563503 -0.0042554475 0.008462956
0.01190364 0.0034694646 -0.014050494 0.010169619 0.022061942 0.031947494 -0.004567923 -0.021708963
0.024760086 0.020982543 -0.014594484 -0.01562736 -0.005796374 0.025426552 0.02071778 -0.0029253531
-0.007421876 0.01697813 -0.03004685 0.0059976797 -0.018671747 -0.022350887 0.0027114076 -0.020654412
0.031160861 -0.008135775 0.028092958 -0.019179657 0.019149097 -0.00026383062 -0.02828432 0.012866755
-0.015189556 0.00916709 -0.016027361 -0.005761646 0.012723978 0.012724985 0.015293017 0.022881996
-0.022968648 0.023918949 0.018464496 0.0032028027 0.017806571 -0.0121450955 -0.012816822 -0.016204534
-0.0064855632 0.0017340122 -0.009918197 0.02677472 -0.00093432097 -0.025922535 -0.026731588 -0.02832768
-0.013901084 -0.011096097 0.002477549 0.012573633 0.019507127 0.014317651 0.0110330805 0.024145985
0.017539497 0.0182694 -0.006767359 -0.022963412 -0.00428131 -0.0195651 0.014057938 0.0013725321
0.009777461 -0.013778389 -0.005700089 0.0065526357 -0.025092453 0.019069778 0.015385462 -0.010228932
0.010958954 -0.016959695 0.018517533 0.011822962 0.01492659 0.028755486 -0.017881548 0.010729837
-0.007100321 -0.010467668 -0.019751746 -0.001995819 0.00943823 -0.015029761 -0.014434003 0.00414036
-0.025295597 -0.010720955 -0.015010653 -0.0030025474 0.009951143 0.008582706 0.024152707 0.007955972
-0.016082497 -0.007892397 -0.0023830328 0.0033678692 0.009730923 0.019124132 -0.009416474 0.0152801685
-0.0227597 -0.0053985287 0.029301293 0.0070138406 0.011252621 0.025005793 -0.025479268 0.024895906
0.021986764 -0.015053275 0.01240904 0.0019837704 0.016012955 -0.024348132 0.018332237 -0.011197472
00000000: 09d3 393d 1015 b8b9 2766 cc3c baef aa3c
00000010: c6e8 be3c ffe6 323d 41fe bc3c d316 843c
00000020: b56b 403c c59d 213c a1bd 063d 6549 e2bc
00000030: e846 073c 64f8 9d3c ab5c 3c3d f207 e13b
00000040: 8db5 e4ba b285 a6bc ee23 c23c 7666 333a
00000050: 123a f4bb 89de bfbb c60e 6b3c 42c6 ed3b
00000060: 35ce 0b3d 2d7b 1b3d d121 f13c 6405 e83c
00000070: ac7f 473c 082f 34bc 396f 063d 4f40 a43c
00000080: 2026 c3bc 4d18 733c 2083 d83b c385 2b3d
00000090: b606 06bd 718b cebc 72b7 0cbd 48da 0dbd
000000a0: e575 f93c 5d10 d33b 1ab9 cb3c e474 283d
000000b0: 41aa c1bc df89 ee3c 6893 ce3c a5d7 fbbc
000000c0: 671a 733c cf20 9739 8a83 9c3b b21b 373d
000000d0: b3d6 34bc 08e5 00bc 526e 82ba cd63 bcbc
000000e0: 4d0d 0fbc b3d1 da3b 3f0c 443d 8279 a1bc
000000f0: b2bd d23a 017d e73c 48e8 6bbc 61e5 ff3c
00000100: db23 33bc 544a 023c b5c4 51bc da49 04bd
00000110: 88b1 00bc 2327 ac3c c0e5 093d 15b5 88bc
00000120: 2741 043d 6824 ba3c 2900 6b3c 5e90 5839
00000130: 0f48 01bd d472 613c c418 29bc 874e c9ba
00000140: c6b2 69bb f603 0fbb 81b9 483c 1b03 893c
00000150: 6bca 6e3c e27f de3c f932 de3b 15f2 973b
00000160: c316 56bb 7e50 babc 7a9e 4d3c dd7d 8fba
00000170: 5705 633c cf45 babc 8add 89bc 5ca0 dabc
00000180: 7e51 b63c e614 eabc abd6 4f3d c3a9 3c3d
00000190: 87a3 c93b a850 10bd 1423 f63b d2a7 d1bc
000001a0: 92af 513c c136 b4bb 0b8b f539 6129 d93c
000001b0: a883 f33b ccbb e43b 14c4 b8b9 7871 acbb
000001c0: 96ee 393b d6b9 04bd 78ae 053b c9f0 493d
000001d0: 397c 1e3c f072 15bc 3827 cfbc bb23 043d
000001e0: 6fba 4a3c 17db 153c cc67 a83b f5d0 0c3d
000001f0: 0d3c a7bb 7089 95bb 4871 8bbb 36a8 0a3c
00000200: 7c07 433c f55f 633b 0b34 66bc 799e 263c
00000210: 3fbb b43c 60db 023d 84ae 95bb ffd6 b1bc
00000220: aad5 ca3c 95e3 ab3c b41d 6fbc f304 80bc
00000230: 82ef bdbb 584b d03c 55b8 a93c 48b7 3fbb
00000240: 3533 f3bb b815 8b3c d024 f6bc 2f88 c43b
00000250: 7ef5 98bc 3519 b7bc dfb1 313b 7133 a9bc
00000260: 1045 ff3c ea4b 05bc 3423 e63c a81e 9dbc
00000270: 91de 9c3c bf52 8ab9 85b4 e7bc 15cf 523c
00000280: 9edd 78bc 9031 163c d04b 83bc 31cc bcbb
00000290: 3b78 503c 757c 503c 908f 7a3c 0673 bb3c
000002a0: bf28 bcbc acf1 c33c db42 973c 1de6 513b
000002b0: 16df 913c 39fc 46bc a6fd 51bc 5fbf 84bc
000002c0: d984 d4bb cb47 e33a ef7f 22bc a856 db3c
000002d0: 38ed 74ba 7f5b d4bc 34fc dabc 730f e8bc
000002e0: 5fc1 63bc 67cc 35bc 605e 223b a401 4e3c
000002f0: 69cd 9f3c 9594 6a3c 18c4 343c cdcd c53c
00000300: feae 8f3c b5a9 953c b9c0 ddbb c41d bcbc
00000310: 3b4a 8cbb fd46 a0bc 4453 663c 89e6 b33a
00000320: a531 203c c1be 61bc d0c7 babb 7eb7 d63b
00000330: b08e cdbc 3938 9c3c 4e13 7c3c 4097 27bc
00000340: 2f8d 333c 0fef 8abc 15b2 973c 19b5 413c
00000350: a88e 743c a090 eb3c 537c 92bc 33cc 2f3c
00000360: cfa9 e8bb 9580 2bbc 6ace a1bc 49cc 02bb
00000370: cea2 1a3c 633f 76bc 997c 6cbc dbab 873b
00000380: b638 cfbc f2a6 2fbc 3eef 75bc 63c6 44bb
00000390: 1e0a 233c 7a9e 0c3c e6db c53c c459 023c
000003a0: 71bf 83bc 1d4f 01bc a82c 1cbb 78b7 5c3b
000003b0: 736e 1f3c 36aa 9c3c 8e47 1abc ac59 7a3c
000003c0: 8d72 babc 24e6 b0bb 4409 f03c 5cd4 e53b
000003d0: ea5c 383c f3d8 cc3c e6b9 d0bc 80f2 cb3c
000003e0: 961d b43c 03a2 76bc 494f 4b3c 2502 023b
000003f0: 9a2d 833c bc75 c7bc 7d2d 963c 9a75 37bc

bias f4 [64]
0.018311577 -0.03253961 0.0143443085 -0.03475809 0.014000404 0.009535385 0.020066638 0.004815825
0.0007931718 -0.017571403 -0.0035106803 -0.0021193195 -0.027220732 0.0013828147 -0.0068325256 -0.012851799
0.0025383276 0.01785675 -0.028874515 -0.02789722 0.010179517 -0.011554312 -0.0293522 0.0035965086
0.007597225 0.0065146657 -0.012085359 -0.028964508 -0.026744252 -0.019016512 0.028360661 -0.03831836
0.00088616274 0.01255405 -0.020881584 0.016798336 -0.035937533 -0.019916462 0.0055256123 -0.00064400845
-0.0144113125 0.02167106 -0.011408044 0.01289626 -0.028242972 -0.008883133 0.025865238 0.015837677
0.0033101167 0.0017816605 -0.0040859175 -0.028284773 -0.031871006 0.028996132 -0.021723328 0.023847392
-0.014071751 -0.0061092176 -0.029322347 0.009569304 -0.016107045 -0.031301744 -0.016847616 -0.017056191
00000000: 2902 963c 4148 05bd 6404 6b3c 805e 0ebd
00000010: f361 653c 4e3a 1c3c ca62 a43c 11ce 9d3b
00000020: dcec 4f3a e7f1 8fbc 7113 66bb 48e4 0abb
00000030: 03fe debc 903f b53a 61e3 dfbb 5a90 52bc
00000040: 125a 263b 5248 923c 3f8a ecbc b688 e4bc
00000050: fdc7 263c 4c4e 3dbc 0674 f0bc 67b3 6b3b
00000060: 24f2 f83b fa78 d53b ab01 46bc fa46 edbc
00000070: c316 dbbc 84c8 9bbc 9e54 e83c b6f3 1cbd
00000080: 604d 683a 81af 4d3c db0f abbc aa9c 893c
00000090: 3c33 13bd d927 a3bc 3210 b53b add2 28ba
000000a0: 6d1d 6cbc 8287 b13c cee8 3abc d64a 533c
000000b0: ce5d e7bc 8f8a 11bc 56e3 d33c 04be 813c
000000c0: 8bee 583b 9b86 e93a 29e3 85bb 78b5 e7bc
000000d0: 2c8b 02bd 4c89 ed3c 1ff5 b1bc 9b5b c33c
000000e0: 348d 66bc d52f c8bb 6b35 f0bc 92c8 1c3c
000000f0: ecf2 83bc 4236 00bd 0304 8abc 6db9 8bbc
